{"output_layers": [["policy_out", 0, 0], ["value_out", 0, 0]], "layers": [{"name": "input_1", "config": {"batch_input_shape": [null, 21, 21], "dtype": "float32", "sparse": false, "name": "input_1"}, "class_name": "InputLayer", "inbound_nodes": []}, {"name": "conv1d_1", "config": {"kernel_size": [3], "strides": [1], "bias_initializer": {"config": {}, "class_name": "Zeros"}, "activity_regularizer": null, "kernel_constraint": null, "use_bias": true, "kernel_initializer": {"config": {"distribution": "uniform", "mode": "fan_avg", "scale": 1.0, "seed": null}, "class_name": "VarianceScaling"}, "padding": "same", "filters": 30, "activation": "linear", "trainable": true, "bias_regularizer": null, "bias_constraint": null, "dilation_rate": [1], "name": "conv1d_1", "kernel_regularizer": {"config": {"l1": 0.0, "l2": 9.999999747378752e-05}, "class_name": "L1L2"}}, "class_name": "Conv1D", "inbound_nodes": [[["input_1", 0, 0, {}]]]}, {"name": "batch_normalization_1", "config": {"axis": 1, "momentum": 0.99, "gamma_constraint": null, "beta_constraint": null, "name": "batch_normalization_1", "epsilon": 0.001, "moving_variance_initializer": {"config": {}, "class_name": "Ones"}, "scale": true, "beta_regularizer": null, "trainable": true, "moving_mean_initializer": {"config": {}, "class_name": "Zeros"}, "gamma_initializer": {"config": {}, "class_name": "Ones"}, "center": true, "gamma_regularizer": null, "beta_initializer": {"config": {}, "class_name": "Zeros"}}, "class_name": "BatchNormalization", "inbound_nodes": [[["conv1d_1", 0, 0, {}]]]}, {"name": "activation_1", "config": {"trainable": true, "activation": "relu", "name": "activation_1"}, "class_name": "Activation", "inbound_nodes": [[["batch_normalization_1", 0, 0, {}]]]}, {"name": "conv1d_2", "config": {"kernel_size": [3], "strides": [1], "bias_initializer": {"config": {}, "class_name": "Zeros"}, "activity_regularizer": null, "kernel_constraint": null, "use_bias": true, "kernel_initializer": {"config": {"distribution": "uniform", "mode": "fan_avg", "scale": 1.0, "seed": null}, "class_name": "VarianceScaling"}, "padding": "same", "filters": 30, "activation": "linear", "trainable": true, "bias_regularizer": null, "bias_constraint": null, "dilation_rate": [1], "name": "conv1d_2", "kernel_regularizer": {"config": {"l1": 0.0, "l2": 9.999999747378752e-05}, "class_name": "L1L2"}}, "class_name": "Conv1D", "inbound_nodes": [[["activation_1", 0, 0, {}]]]}, {"name": "batch_normalization_2", "config": {"axis": 1, "momentum": 0.99, "gamma_constraint": null, "beta_constraint": null, "name": "batch_normalization_2", "epsilon": 0.001, "moving_variance_initializer": {"config": {}, "class_name": "Ones"}, "scale": true, "beta_regularizer": null, "trainable": true, "moving_mean_initializer": {"config": {}, "class_name": "Zeros"}, "gamma_initializer": {"config": {}, "class_name": "Ones"}, "center": true, "gamma_regularizer": null, "beta_initializer": {"config": {}, "class_name": "Zeros"}}, "class_name": "BatchNormalization", "inbound_nodes": [[["conv1d_2", 0, 0, {}]]]}, {"name": "activation_2", "config": {"trainable": true, "activation": "relu", "name": "activation_2"}, "class_name": "Activation", "inbound_nodes": [[["batch_normalization_2", 0, 0, {}]]]}, {"name": "conv1d_3", "config": {"kernel_size": [3], "strides": [1], "bias_initializer": {"config": {}, "class_name": "Zeros"}, "activity_regularizer": null, "kernel_constraint": null, "use_bias": true, "kernel_initializer": {"config": {"distribution": "uniform", "mode": "fan_avg", "scale": 1.0, "seed": null}, "class_name": "VarianceScaling"}, "padding": "same", "filters": 30, "activation": "linear", "trainable": true, "bias_regularizer": null, "bias_constraint": null, "dilation_rate": [1], "name": "conv1d_3", "kernel_regularizer": {"config": {"l1": 0.0, "l2": 9.999999747378752e-05}, "class_name": "L1L2"}}, "class_name": "Conv1D", "inbound_nodes": [[["activation_2", 0, 0, {}]]]}, {"name": "batch_normalization_3", "config": {"axis": 1, "momentum": 0.99, "gamma_constraint": null, "beta_constraint": null, "name": "batch_normalization_3", "epsilon": 0.001, "moving_variance_initializer": {"config": {}, "class_name": "Ones"}, "scale": true, "beta_regularizer": null, "trainable": true, "moving_mean_initializer": {"config": {}, "class_name": "Zeros"}, "gamma_initializer": {"config": {}, "class_name": "Ones"}, "center": true, "gamma_regularizer": null, "beta_initializer": {"config": {}, "class_name": "Zeros"}}, "class_name": "BatchNormalization", "inbound_nodes": [[["conv1d_3", 0, 0, {}]]]}, {"name": "add_1", "config": {"name": "add_1", "trainable": true}, "class_name": "Add", "inbound_nodes": [[["activation_1", 0, 0, {}], ["batch_normalization_3", 0, 0, {}]]]}, {"name": "activation_3", "config": {"trainable": true, "activation": "relu", "name": "activation_3"}, "class_name": "Activation", "inbound_nodes": [[["add_1", 0, 0, {}]]]}, {"name": "conv1d_4", "config": {"kernel_size": [3], "strides": [1], "bias_initializer": {"config": {}, "class_name": "Zeros"}, "activity_regularizer": null, "kernel_constraint": null, "use_bias": true, "kernel_initializer": {"config": {"distribution": "uniform", "mode": "fan_avg", "scale": 1.0, "seed": null}, "class_name": "VarianceScaling"}, "padding": "same", "filters": 30, "activation": "linear", "trainable": true, "bias_regularizer": null, "bias_constraint": null, "dilation_rate": [1], "name": "conv1d_4", "kernel_regularizer": {"config": {"l1": 0.0, "l2": 9.999999747378752e-05}, "class_name": "L1L2"}}, "class_name": "Conv1D", "inbound_nodes": [[["activation_3", 0, 0, {}]]]}, {"name": "batch_normalization_4", "config": {"axis": 1, "momentum": 0.99, "gamma_constraint": null, "beta_constraint": null, "name": "batch_normalization_4", "epsilon": 0.001, "moving_variance_initializer": {"config": {}, "class_name": "Ones"}, "scale": true, "beta_regularizer": null, "trainable": true, "moving_mean_initializer": {"config": {}, "class_name": "Zeros"}, "gamma_initializer": {"config": {}, "class_name": "Ones"}, "center": true, "gamma_regularizer": null, "beta_initializer": {"config": {}, "class_name": "Zeros"}}, "class_name": "BatchNormalization", "inbound_nodes": [[["conv1d_4", 0, 0, {}]]]}, {"name": "activation_4", "config": {"trainable": true, "activation": "relu", "name": "activation_4"}, "class_name": "Activation", "inbound_nodes": [[["batch_normalization_4", 0, 0, {}]]]}, {"name": "conv1d_5", "config": {"kernel_size": [3], "strides": [1], "bias_initializer": {"config": {}, "class_name": "Zeros"}, "activity_regularizer": null, "kernel_constraint": null, "use_bias": true, "kernel_initializer": {"config": {"distribution": "uniform", "mode": "fan_avg", "scale": 1.0, "seed": null}, "class_name": "VarianceScaling"}, "padding": "same", "filters": 30, "activation": "linear", "trainable": true, "bias_regularizer": null, "bias_constraint": null, "dilation_rate": [1], "name": "conv1d_5", "kernel_regularizer": {"config": {"l1": 0.0, "l2": 9.999999747378752e-05}, "class_name": "L1L2"}}, "class_name": "Conv1D", "inbound_nodes": [[["activation_4", 0, 0, {}]]]}, {"name": "batch_normalization_5", "config": {"axis": 1, "momentum": 0.99, "gamma_constraint": null, "beta_constraint": null, "name": "batch_normalization_5", "epsilon": 0.001, "moving_variance_initializer": {"config": {}, "class_name": "Ones"}, "scale": true, "beta_regularizer": null, "trainable": true, "moving_mean_initializer": {"config": {}, "class_name": "Zeros"}, "gamma_initializer": {"config": {}, "class_name": "Ones"}, "center": true, "gamma_regularizer": null, "beta_initializer": {"config": {}, "class_name": "Zeros"}}, "class_name": "BatchNormalization", "inbound_nodes": [[["conv1d_5", 0, 0, {}]]]}, {"name": "add_2", "config": {"name": "add_2", "trainable": true}, "class_name": "Add", "inbound_nodes": [[["activation_3", 0, 0, {}], ["batch_normalization_5", 0, 0, {}]]]}, {"name": "activation_5", "config": {"trainable": true, "activation": "relu", "name": "activation_5"}, "class_name": "Activation", "inbound_nodes": [[["add_2", 0, 0, {}]]]}, {"name": "conv1d_7", "config": {"kernel_size": [1], "strides": [1], "bias_initializer": {"config": {}, "class_name": "Zeros"}, "activity_regularizer": null, "kernel_constraint": null, "use_bias": true, "kernel_initializer": {"config": {"distribution": "uniform", "mode": "fan_avg", "scale": 1.0, "seed": null}, "class_name": "VarianceScaling"}, "padding": "valid", "filters": 1, "activation": "linear", "trainable": true, "bias_regularizer": null, "bias_constraint": null, "dilation_rate": [1], "name": "conv1d_7", "kernel_regularizer": {"config": {"l1": 0.0, "l2": 9.999999747378752e-05}, "class_name": "L1L2"}}, "class_name": "Conv1D", "inbound_nodes": [[["activation_5", 0, 0, {}]]]}, {"name": "conv1d_6", "config": {"kernel_size": [1], "strides": [1], "bias_initializer": {"config": {}, "class_name": "Zeros"}, "activity_regularizer": null, "kernel_constraint": null, "use_bias": true, "kernel_initializer": {"config": {"distribution": "uniform", "mode": "fan_avg", "scale": 1.0, "seed": null}, "class_name": "VarianceScaling"}, "padding": "valid", "filters": 2, "activation": "linear", "trainable": true, "bias_regularizer": null, "bias_constraint": null, "dilation_rate": [1], "name": "conv1d_6", "kernel_regularizer": {"config": {"l1": 0.0, "l2": 9.999999747378752e-05}, "class_name": "L1L2"}}, "class_name": "Conv1D", "inbound_nodes": [[["activation_5", 0, 0, {}]]]}, {"name": "batch_normalization_7", "config": {"axis": 1, "momentum": 0.99, "gamma_constraint": null, "beta_constraint": null, "name": "batch_normalization_7", "epsilon": 0.001, "moving_variance_initializer": {"config": {}, "class_name": "Ones"}, "scale": true, "beta_regularizer": null, "trainable": true, "moving_mean_initializer": {"config": {}, "class_name": "Zeros"}, "gamma_initializer": {"config": {}, "class_name": "Ones"}, "center": true, "gamma_regularizer": null, "beta_initializer": {"config": {}, "class_name": "Zeros"}}, "class_name": "BatchNormalization", "inbound_nodes": [[["conv1d_7", 0, 0, {}]]]}, {"name": "batch_normalization_6", "config": {"axis": 1, "momentum": 0.99, "gamma_constraint": null, "beta_constraint": null, "name": "batch_normalization_6", "epsilon": 0.001, "moving_variance_initializer": {"config": {}, "class_name": "Ones"}, "scale": true, "beta_regularizer": null, "trainable": true, "moving_mean_initializer": {"config": {}, "class_name": "Zeros"}, "gamma_initializer": {"config": {}, "class_name": "Ones"}, "center": true, "gamma_regularizer": null, "beta_initializer": {"config": {}, "class_name": "Zeros"}}, "class_name": "BatchNormalization", "inbound_nodes": [[["conv1d_6", 0, 0, {}]]]}, {"name": "activation_7", "config": {"trainable": true, "activation": "relu", "name": "activation_7"}, "class_name": "Activation", "inbound_nodes": [[["batch_normalization_7", 0, 0, {}]]]}, {"name": "activation_6", "config": {"trainable": true, "activation": "relu", "name": "activation_6"}, "class_name": "Activation", "inbound_nodes": [[["batch_normalization_6", 0, 0, {}]]]}, {"name": "flatten_2", "config": {"name": "flatten_2", "trainable": true}, "class_name": "Flatten", "inbound_nodes": [[["activation_7", 0, 0, {}]]]}, {"name": "flatten_1", "config": {"name": "flatten_1", "trainable": true}, "class_name": "Flatten", "inbound_nodes": [[["activation_6", 0, 0, {}]]]}, {"name": "dense_1", "config": {"activation": "relu", "activity_regularizer": null, "use_bias": true, "units": 30, "kernel_initializer": {"config": {"distribution": "uniform", "mode": "fan_avg", "scale": 1.0, "seed": null}, "class_name": "VarianceScaling"}, "kernel_constraint": null, "trainable": true, "bias_regularizer": null, "bias_initializer": {"config": {}, "class_name": "Zeros"}, "bias_constraint": null, "name": "dense_1", "kernel_regularizer": {"config": {"l1": 0.0, "l2": 9.999999747378752e-05}, "class_name": "L1L2"}}, "class_name": "Dense", "inbound_nodes": [[["flatten_2", 0, 0, {}]]]}, {"name": "policy_out", "config": {"activation": "softmax", "activity_regularizer": null, "use_bias": true, "units": 43, "kernel_initializer": {"config": {"distribution": "uniform", "mode": "fan_avg", "scale": 1.0, "seed": null}, "class_name": "VarianceScaling"}, "kernel_constraint": null, "trainable": true, "bias_regularizer": null, "bias_initializer": {"config": {}, "class_name": "Zeros"}, "bias_constraint": null, "name": "policy_out", "kernel_regularizer": {"config": {"l1": 0.0, "l2": 9.999999747378752e-05}, "class_name": "L1L2"}}, "class_name": "Dense", "inbound_nodes": [[["flatten_1", 0, 0, {}]]]}, {"name": "value_out", "config": {"activation": "tanh", "activity_regularizer": null, "use_bias": true, "units": 1, "kernel_initializer": {"config": {"distribution": "uniform", "mode": "fan_avg", "scale": 1.0, "seed": null}, "class_name": "VarianceScaling"}, "kernel_constraint": null, "trainable": true, "bias_regularizer": null, "bias_initializer": {"config": {}, "class_name": "Zeros"}, "bias_constraint": null, "name": "value_out", "kernel_regularizer": {"config": {"l1": 0.0, "l2": 9.999999747378752e-05}, "class_name": "L1L2"}}, "class_name": "Dense", "inbound_nodes": [[["dense_1", 0, 0, {}]]]}], "name": "animation_model", "OptimizeCount": 0, "input_layers": [["input_1", 0, 0]]}