{"name": "animation_model", "output_layers": [["policy_out", 0, 0], ["value_out", 0, 0]], "layers": [{"name": "input_1", "class_name": "InputLayer", "inbound_nodes": [], "config": {"batch_input_shape": [null, 21, 21], "name": "input_1", "sparse": false, "dtype": "float32"}}, {"name": "conv1d_1", "class_name": "Conv1D", "inbound_nodes": [[["input_1", 0, 0, {}]]], "config": {"padding": "same", "strides": [1], "bias_initializer": {"class_name": "Zeros", "config": {}}, "dilation_rate": [1], "kernel_regularizer": {"class_name": "L1L2", "config": {"l1": 0.0, "l2": 9.999999747378752e-05}}, "bias_regularizer": null, "trainable": true, "activation": "linear", "name": "conv1d_1", "kernel_initializer": {"class_name": "VarianceScaling", "config": {"seed": null, "mode": "fan_avg", "distribution": "uniform", "scale": 1.0}}, "kernel_size": [3], "use_bias": true, "filters": 30, "bias_constraint": null, "activity_regularizer": null, "kernel_constraint": null}}, {"name": "batch_normalization_1", "class_name": "BatchNormalization", "inbound_nodes": [[["conv1d_1", 0, 0, {}]]], "config": {"gamma_initializer": {"class_name": "Ones", "config": {}}, "gamma_constraint": null, "scale": true, "gamma_regularizer": null, "trainable": true, "momentum": 0.99, "beta_constraint": null, "beta_initializer": {"class_name": "Zeros", "config": {}}, "name": "batch_normalization_1", "beta_regularizer": null, "center": true, "moving_variance_initializer": {"class_name": "Ones", "config": {}}, "epsilon": 0.001, "moving_mean_initializer": {"class_name": "Zeros", "config": {}}, "axis": 1}}, {"name": "activation_1", "class_name": "Activation", "inbound_nodes": [[["batch_normalization_1", 0, 0, {}]]], "config": {"activation": "relu", "name": "activation_1", "trainable": true}}, {"name": "conv1d_2", "class_name": "Conv1D", "inbound_nodes": [[["activation_1", 0, 0, {}]]], "config": {"padding": "same", "strides": [1], "bias_initializer": {"class_name": "Zeros", "config": {}}, "dilation_rate": [1], "kernel_regularizer": {"class_name": "L1L2", "config": {"l1": 0.0, "l2": 9.999999747378752e-05}}, "bias_regularizer": null, "trainable": true, "activation": "linear", "name": "conv1d_2", "kernel_initializer": {"class_name": "VarianceScaling", "config": {"seed": null, "mode": "fan_avg", "distribution": "uniform", "scale": 1.0}}, "kernel_size": [3], "use_bias": true, "filters": 30, "bias_constraint": null, "activity_regularizer": null, "kernel_constraint": null}}, {"name": "batch_normalization_2", "class_name": "BatchNormalization", "inbound_nodes": [[["conv1d_2", 0, 0, {}]]], "config": {"gamma_initializer": {"class_name": "Ones", "config": {}}, "gamma_constraint": null, "scale": true, "gamma_regularizer": null, "trainable": true, "momentum": 0.99, "beta_constraint": null, "beta_initializer": {"class_name": "Zeros", "config": {}}, "name": "batch_normalization_2", "beta_regularizer": null, "center": true, "moving_variance_initializer": {"class_name": "Ones", "config": {}}, "epsilon": 0.001, "moving_mean_initializer": {"class_name": "Zeros", "config": {}}, "axis": 1}}, {"name": "activation_2", "class_name": "Activation", "inbound_nodes": [[["batch_normalization_2", 0, 0, {}]]], "config": {"activation": "relu", "name": "activation_2", "trainable": true}}, {"name": "conv1d_3", "class_name": "Conv1D", "inbound_nodes": [[["activation_2", 0, 0, {}]]], "config": {"padding": "same", "strides": [1], "bias_initializer": {"class_name": "Zeros", "config": {}}, "dilation_rate": [1], "kernel_regularizer": {"class_name": "L1L2", "config": {"l1": 0.0, "l2": 9.999999747378752e-05}}, "bias_regularizer": null, "trainable": true, "activation": "linear", "name": "conv1d_3", "kernel_initializer": {"class_name": "VarianceScaling", "config": {"seed": null, "mode": "fan_avg", "distribution": "uniform", "scale": 1.0}}, "kernel_size": [3], "use_bias": true, "filters": 30, "bias_constraint": null, "activity_regularizer": null, "kernel_constraint": null}}, {"name": "batch_normalization_3", "class_name": "BatchNormalization", "inbound_nodes": [[["conv1d_3", 0, 0, {}]]], "config": {"gamma_initializer": {"class_name": "Ones", "config": {}}, "gamma_constraint": null, "scale": true, "gamma_regularizer": null, "trainable": true, "momentum": 0.99, "beta_constraint": null, "beta_initializer": {"class_name": "Zeros", "config": {}}, "name": "batch_normalization_3", "beta_regularizer": null, "center": true, "moving_variance_initializer": {"class_name": "Ones", "config": {}}, "epsilon": 0.001, "moving_mean_initializer": {"class_name": "Zeros", "config": {}}, "axis": 1}}, {"name": "add_1", "class_name": "Add", "inbound_nodes": [[["activation_1", 0, 0, {}], ["batch_normalization_3", 0, 0, {}]]], "config": {"name": "add_1", "trainable": true}}, {"name": "activation_3", "class_name": "Activation", "inbound_nodes": [[["add_1", 0, 0, {}]]], "config": {"activation": "relu", "name": "activation_3", "trainable": true}}, {"name": "conv1d_4", "class_name": "Conv1D", "inbound_nodes": [[["activation_3", 0, 0, {}]]], "config": {"padding": "same", "strides": [1], "bias_initializer": {"class_name": "Zeros", "config": {}}, "dilation_rate": [1], "kernel_regularizer": {"class_name": "L1L2", "config": {"l1": 0.0, "l2": 9.999999747378752e-05}}, "bias_regularizer": null, "trainable": true, "activation": "linear", "name": "conv1d_4", "kernel_initializer": {"class_name": "VarianceScaling", "config": {"seed": null, "mode": "fan_avg", "distribution": "uniform", "scale": 1.0}}, "kernel_size": [3], "use_bias": true, "filters": 30, "bias_constraint": null, "activity_regularizer": null, "kernel_constraint": null}}, {"name": "batch_normalization_4", "class_name": "BatchNormalization", "inbound_nodes": [[["conv1d_4", 0, 0, {}]]], "config": {"gamma_initializer": {"class_name": "Ones", "config": {}}, "gamma_constraint": null, "scale": true, "gamma_regularizer": null, "trainable": true, "momentum": 0.99, "beta_constraint": null, "beta_initializer": {"class_name": "Zeros", "config": {}}, "name": "batch_normalization_4", "beta_regularizer": null, "center": true, "moving_variance_initializer": {"class_name": "Ones", "config": {}}, "epsilon": 0.001, "moving_mean_initializer": {"class_name": "Zeros", "config": {}}, "axis": 1}}, {"name": "activation_4", "class_name": "Activation", "inbound_nodes": [[["batch_normalization_4", 0, 0, {}]]], "config": {"activation": "relu", "name": "activation_4", "trainable": true}}, {"name": "conv1d_5", "class_name": "Conv1D", "inbound_nodes": [[["activation_4", 0, 0, {}]]], "config": {"padding": "same", "strides": [1], "bias_initializer": {"class_name": "Zeros", "config": {}}, "dilation_rate": [1], "kernel_regularizer": {"class_name": "L1L2", "config": {"l1": 0.0, "l2": 9.999999747378752e-05}}, "bias_regularizer": null, "trainable": true, "activation": "linear", "name": "conv1d_5", "kernel_initializer": {"class_name": "VarianceScaling", "config": {"seed": null, "mode": "fan_avg", "distribution": "uniform", "scale": 1.0}}, "kernel_size": [3], "use_bias": true, "filters": 30, "bias_constraint": null, "activity_regularizer": null, "kernel_constraint": null}}, {"name": "batch_normalization_5", "class_name": "BatchNormalization", "inbound_nodes": [[["conv1d_5", 0, 0, {}]]], "config": {"gamma_initializer": {"class_name": "Ones", "config": {}}, "gamma_constraint": null, "scale": true, "gamma_regularizer": null, "trainable": true, "momentum": 0.99, "beta_constraint": null, "beta_initializer": {"class_name": "Zeros", "config": {}}, "name": "batch_normalization_5", "beta_regularizer": null, "center": true, "moving_variance_initializer": {"class_name": "Ones", "config": {}}, "epsilon": 0.001, "moving_mean_initializer": {"class_name": "Zeros", "config": {}}, "axis": 1}}, {"name": "add_2", "class_name": "Add", "inbound_nodes": [[["activation_3", 0, 0, {}], ["batch_normalization_5", 0, 0, {}]]], "config": {"name": "add_2", "trainable": true}}, {"name": "activation_5", "class_name": "Activation", "inbound_nodes": [[["add_2", 0, 0, {}]]], "config": {"activation": "relu", "name": "activation_5", "trainable": true}}, {"name": "conv1d_7", "class_name": "Conv1D", "inbound_nodes": [[["activation_5", 0, 0, {}]]], "config": {"padding": "valid", "strides": [1], "bias_initializer": {"class_name": "Zeros", "config": {}}, "dilation_rate": [1], "kernel_regularizer": {"class_name": "L1L2", "config": {"l1": 0.0, "l2": 9.999999747378752e-05}}, "bias_regularizer": null, "trainable": true, "activation": "linear", "name": "conv1d_7", "kernel_initializer": {"class_name": "VarianceScaling", "config": {"seed": null, "mode": "fan_avg", "distribution": "uniform", "scale": 1.0}}, "kernel_size": [1], "use_bias": true, "filters": 1, "bias_constraint": null, "activity_regularizer": null, "kernel_constraint": null}}, {"name": "conv1d_6", "class_name": "Conv1D", "inbound_nodes": [[["activation_5", 0, 0, {}]]], "config": {"padding": "valid", "strides": [1], "bias_initializer": {"class_name": "Zeros", "config": {}}, "dilation_rate": [1], "kernel_regularizer": {"class_name": "L1L2", "config": {"l1": 0.0, "l2": 9.999999747378752e-05}}, "bias_regularizer": null, "trainable": true, "activation": "linear", "name": "conv1d_6", "kernel_initializer": {"class_name": "VarianceScaling", "config": {"seed": null, "mode": "fan_avg", "distribution": "uniform", "scale": 1.0}}, "kernel_size": [1], "use_bias": true, "filters": 2, "bias_constraint": null, "activity_regularizer": null, "kernel_constraint": null}}, {"name": "batch_normalization_7", "class_name": "BatchNormalization", "inbound_nodes": [[["conv1d_7", 0, 0, {}]]], "config": {"gamma_initializer": {"class_name": "Ones", "config": {}}, "gamma_constraint": null, "scale": true, "gamma_regularizer": null, "trainable": true, "momentum": 0.99, "beta_constraint": null, "beta_initializer": {"class_name": "Zeros", "config": {}}, "name": "batch_normalization_7", "beta_regularizer": null, "center": true, "moving_variance_initializer": {"class_name": "Ones", "config": {}}, "epsilon": 0.001, "moving_mean_initializer": {"class_name": "Zeros", "config": {}}, "axis": 1}}, {"name": "batch_normalization_6", "class_name": "BatchNormalization", "inbound_nodes": [[["conv1d_6", 0, 0, {}]]], "config": {"gamma_initializer": {"class_name": "Ones", "config": {}}, "gamma_constraint": null, "scale": true, "gamma_regularizer": null, "trainable": true, "momentum": 0.99, "beta_constraint": null, "beta_initializer": {"class_name": "Zeros", "config": {}}, "name": "batch_normalization_6", "beta_regularizer": null, "center": true, "moving_variance_initializer": {"class_name": "Ones", "config": {}}, "epsilon": 0.001, "moving_mean_initializer": {"class_name": "Zeros", "config": {}}, "axis": 1}}, {"name": "activation_7", "class_name": "Activation", "inbound_nodes": [[["batch_normalization_7", 0, 0, {}]]], "config": {"activation": "relu", "name": "activation_7", "trainable": true}}, {"name": "activation_6", "class_name": "Activation", "inbound_nodes": [[["batch_normalization_6", 0, 0, {}]]], "config": {"activation": "relu", "name": "activation_6", "trainable": true}}, {"name": "flatten_2", "class_name": "Flatten", "inbound_nodes": [[["activation_7", 0, 0, {}]]], "config": {"name": "flatten_2", "trainable": true}}, {"name": "flatten_1", "class_name": "Flatten", "inbound_nodes": [[["activation_6", 0, 0, {}]]], "config": {"name": "flatten_1", "trainable": true}}, {"name": "dense_1", "class_name": "Dense", "inbound_nodes": [[["flatten_2", 0, 0, {}]]], "config": {"bias_initializer": {"class_name": "Zeros", "config": {}}, "kernel_regularizer": {"class_name": "L1L2", "config": {"l1": 0.0, "l2": 9.999999747378752e-05}}, "bias_regularizer": null, "trainable": true, "use_bias": true, "name": "dense_1", "kernel_initializer": {"class_name": "VarianceScaling", "config": {"seed": null, "mode": "fan_avg", "distribution": "uniform", "scale": 1.0}}, "activation": "relu", "units": 30, "bias_constraint": null, "activity_regularizer": null, "kernel_constraint": null}}, {"name": "policy_out", "class_name": "Dense", "inbound_nodes": [[["flatten_1", 0, 0, {}]]], "config": {"bias_initializer": {"class_name": "Zeros", "config": {}}, "kernel_regularizer": {"class_name": "L1L2", "config": {"l1": 0.0, "l2": 9.999999747378752e-05}}, "bias_regularizer": null, "trainable": true, "use_bias": true, "name": "policy_out", "kernel_initializer": {"class_name": "VarianceScaling", "config": {"seed": null, "mode": "fan_avg", "distribution": "uniform", "scale": 1.0}}, "activation": "softmax", "units": 43, "bias_constraint": null, "activity_regularizer": null, "kernel_constraint": null}}, {"name": "value_out", "class_name": "Dense", "inbound_nodes": [[["dense_1", 0, 0, {}]]], "config": {"bias_initializer": {"class_name": "Zeros", "config": {}}, "kernel_regularizer": {"class_name": "L1L2", "config": {"l1": 0.0, "l2": 9.999999747378752e-05}}, "bias_regularizer": null, "trainable": true, "use_bias": true, "name": "value_out", "kernel_initializer": {"class_name": "VarianceScaling", "config": {"seed": null, "mode": "fan_avg", "distribution": "uniform", "scale": 1.0}}, "activation": "tanh", "units": 1, "bias_constraint": null, "activity_regularizer": null, "kernel_constraint": null}}], "input_layers": [["input_1", 0, 0]]}