{"name": "animation_model", "OptimizeCount": 0, "output_layers": [["policy_out", 0, 0], ["value_out", 0, 0]], "input_layers": [["input_1", 0, 0]], "layers": [{"config": {"batch_input_shape": [null, 3, 21], "sparse": false, "dtype": "float32", "name": "input_1"}, "name": "input_1", "class_name": "InputLayer", "inbound_nodes": []}, {"config": {"activity_regularizer": null, "activation": "linear", "use_bias": true, "name": "conv1d_1", "bias_initializer": {"config": {}, "class_name": "Zeros"}, "strides": [1], "kernel_initializer": {"config": {"seed": null, "mode": "fan_avg", "scale": 1.0, "distribution": "uniform"}, "class_name": "VarianceScaling"}, "bias_regularizer": null, "filters": 30, "bias_constraint": null, "padding": "same", "trainable": true, "kernel_size": [3], "dilation_rate": [1], "kernel_constraint": null, "kernel_regularizer": {"config": {"l1": 0.0, "l2": 9.999999747378752e-05}, "class_name": "L1L2"}}, "name": "conv1d_1", "class_name": "Conv1D", "inbound_nodes": [[["input_1", 0, 0, {}]]]}, {"config": {"gamma_constraint": null, "momentum": 0.99, "moving_mean_initializer": {"config": {}, "class_name": "Zeros"}, "beta_regularizer": null, "beta_constraint": null, "moving_variance_initializer": {"config": {}, "class_name": "Ones"}, "gamma_regularizer": null, "epsilon": 0.001, "name": "batch_normalization_1", "scale": true, "axis": 1, "trainable": true, "gamma_initializer": {"config": {}, "class_name": "Ones"}, "beta_initializer": {"config": {}, "class_name": "Zeros"}, "center": true}, "name": "batch_normalization_1", "class_name": "BatchNormalization", "inbound_nodes": [[["conv1d_1", 0, 0, {}]]]}, {"config": {"trainable": true, "activation": "relu", "name": "activation_1"}, "name": "activation_1", "class_name": "Activation", "inbound_nodes": [[["batch_normalization_1", 0, 0, {}]]]}, {"config": {"activity_regularizer": null, "activation": "linear", "use_bias": true, "name": "conv1d_2", "bias_initializer": {"config": {}, "class_name": "Zeros"}, "strides": [1], "kernel_initializer": {"config": {"seed": null, "mode": "fan_avg", "scale": 1.0, "distribution": "uniform"}, "class_name": "VarianceScaling"}, "bias_regularizer": null, "filters": 30, "bias_constraint": null, "padding": "same", "trainable": true, "kernel_size": [3], "dilation_rate": [1], "kernel_constraint": null, "kernel_regularizer": {"config": {"l1": 0.0, "l2": 9.999999747378752e-05}, "class_name": "L1L2"}}, "name": "conv1d_2", "class_name": "Conv1D", "inbound_nodes": [[["activation_1", 0, 0, {}]]]}, {"config": {"gamma_constraint": null, "momentum": 0.99, "moving_mean_initializer": {"config": {}, "class_name": "Zeros"}, "beta_regularizer": null, "beta_constraint": null, "moving_variance_initializer": {"config": {}, "class_name": "Ones"}, "gamma_regularizer": null, "epsilon": 0.001, "name": "batch_normalization_2", "scale": true, "axis": 1, "trainable": true, "gamma_initializer": {"config": {}, "class_name": "Ones"}, "beta_initializer": {"config": {}, "class_name": "Zeros"}, "center": true}, "name": "batch_normalization_2", "class_name": "BatchNormalization", "inbound_nodes": [[["conv1d_2", 0, 0, {}]]]}, {"config": {"trainable": true, "activation": "relu", "name": "activation_2"}, "name": "activation_2", "class_name": "Activation", "inbound_nodes": [[["batch_normalization_2", 0, 0, {}]]]}, {"config": {"activity_regularizer": null, "activation": "linear", "use_bias": true, "name": "conv1d_3", "bias_initializer": {"config": {}, "class_name": "Zeros"}, "strides": [1], "kernel_initializer": {"config": {"seed": null, "mode": "fan_avg", "scale": 1.0, "distribution": "uniform"}, "class_name": "VarianceScaling"}, "bias_regularizer": null, "filters": 30, "bias_constraint": null, "padding": "same", "trainable": true, "kernel_size": [3], "dilation_rate": [1], "kernel_constraint": null, "kernel_regularizer": {"config": {"l1": 0.0, "l2": 9.999999747378752e-05}, "class_name": "L1L2"}}, "name": "conv1d_3", "class_name": "Conv1D", "inbound_nodes": [[["activation_2", 0, 0, {}]]]}, {"config": {"gamma_constraint": null, "momentum": 0.99, "moving_mean_initializer": {"config": {}, "class_name": "Zeros"}, "beta_regularizer": null, "beta_constraint": null, "moving_variance_initializer": {"config": {}, "class_name": "Ones"}, "gamma_regularizer": null, "epsilon": 0.001, "name": "batch_normalization_3", "scale": true, "axis": 1, "trainable": true, "gamma_initializer": {"config": {}, "class_name": "Ones"}, "beta_initializer": {"config": {}, "class_name": "Zeros"}, "center": true}, "name": "batch_normalization_3", "class_name": "BatchNormalization", "inbound_nodes": [[["conv1d_3", 0, 0, {}]]]}, {"config": {"trainable": true, "name": "add_1"}, "name": "add_1", "class_name": "Add", "inbound_nodes": [[["activation_1", 0, 0, {}], ["batch_normalization_3", 0, 0, {}]]]}, {"config": {"trainable": true, "activation": "relu", "name": "activation_3"}, "name": "activation_3", "class_name": "Activation", "inbound_nodes": [[["add_1", 0, 0, {}]]]}, {"config": {"activity_regularizer": null, "activation": "linear", "use_bias": true, "name": "conv1d_4", "bias_initializer": {"config": {}, "class_name": "Zeros"}, "strides": [1], "kernel_initializer": {"config": {"seed": null, "mode": "fan_avg", "scale": 1.0, "distribution": "uniform"}, "class_name": "VarianceScaling"}, "bias_regularizer": null, "filters": 30, "bias_constraint": null, "padding": "same", "trainable": true, "kernel_size": [3], "dilation_rate": [1], "kernel_constraint": null, "kernel_regularizer": {"config": {"l1": 0.0, "l2": 9.999999747378752e-05}, "class_name": "L1L2"}}, "name": "conv1d_4", "class_name": "Conv1D", "inbound_nodes": [[["activation_3", 0, 0, {}]]]}, {"config": {"gamma_constraint": null, "momentum": 0.99, "moving_mean_initializer": {"config": {}, "class_name": "Zeros"}, "beta_regularizer": null, "beta_constraint": null, "moving_variance_initializer": {"config": {}, "class_name": "Ones"}, "gamma_regularizer": null, "epsilon": 0.001, "name": "batch_normalization_4", "scale": true, "axis": 1, "trainable": true, "gamma_initializer": {"config": {}, "class_name": "Ones"}, "beta_initializer": {"config": {}, "class_name": "Zeros"}, "center": true}, "name": "batch_normalization_4", "class_name": "BatchNormalization", "inbound_nodes": [[["conv1d_4", 0, 0, {}]]]}, {"config": {"trainable": true, "activation": "relu", "name": "activation_4"}, "name": "activation_4", "class_name": "Activation", "inbound_nodes": [[["batch_normalization_4", 0, 0, {}]]]}, {"config": {"activity_regularizer": null, "activation": "linear", "use_bias": true, "name": "conv1d_5", "bias_initializer": {"config": {}, "class_name": "Zeros"}, "strides": [1], "kernel_initializer": {"config": {"seed": null, "mode": "fan_avg", "scale": 1.0, "distribution": "uniform"}, "class_name": "VarianceScaling"}, "bias_regularizer": null, "filters": 30, "bias_constraint": null, "padding": "same", "trainable": true, "kernel_size": [3], "dilation_rate": [1], "kernel_constraint": null, "kernel_regularizer": {"config": {"l1": 0.0, "l2": 9.999999747378752e-05}, "class_name": "L1L2"}}, "name": "conv1d_5", "class_name": "Conv1D", "inbound_nodes": [[["activation_4", 0, 0, {}]]]}, {"config": {"gamma_constraint": null, "momentum": 0.99, "moving_mean_initializer": {"config": {}, "class_name": "Zeros"}, "beta_regularizer": null, "beta_constraint": null, "moving_variance_initializer": {"config": {}, "class_name": "Ones"}, "gamma_regularizer": null, "epsilon": 0.001, "name": "batch_normalization_5", "scale": true, "axis": 1, "trainable": true, "gamma_initializer": {"config": {}, "class_name": "Ones"}, "beta_initializer": {"config": {}, "class_name": "Zeros"}, "center": true}, "name": "batch_normalization_5", "class_name": "BatchNormalization", "inbound_nodes": [[["conv1d_5", 0, 0, {}]]]}, {"config": {"trainable": true, "name": "add_2"}, "name": "add_2", "class_name": "Add", "inbound_nodes": [[["activation_3", 0, 0, {}], ["batch_normalization_5", 0, 0, {}]]]}, {"config": {"trainable": true, "activation": "relu", "name": "activation_5"}, "name": "activation_5", "class_name": "Activation", "inbound_nodes": [[["add_2", 0, 0, {}]]]}, {"config": {"activity_regularizer": null, "activation": "linear", "use_bias": true, "name": "conv1d_7", "bias_initializer": {"config": {}, "class_name": "Zeros"}, "strides": [1], "kernel_initializer": {"config": {"seed": null, "mode": "fan_avg", "scale": 1.0, "distribution": "uniform"}, "class_name": "VarianceScaling"}, "bias_regularizer": null, "filters": 1, "bias_constraint": null, "padding": "valid", "trainable": true, "kernel_size": [1], "dilation_rate": [1], "kernel_constraint": null, "kernel_regularizer": {"config": {"l1": 0.0, "l2": 9.999999747378752e-05}, "class_name": "L1L2"}}, "name": "conv1d_7", "class_name": "Conv1D", "inbound_nodes": [[["activation_5", 0, 0, {}]]]}, {"config": {"activity_regularizer": null, "activation": "linear", "use_bias": true, "name": "conv1d_6", "bias_initializer": {"config": {}, "class_name": "Zeros"}, "strides": [1], "kernel_initializer": {"config": {"seed": null, "mode": "fan_avg", "scale": 1.0, "distribution": "uniform"}, "class_name": "VarianceScaling"}, "bias_regularizer": null, "filters": 2, "bias_constraint": null, "padding": "valid", "trainable": true, "kernel_size": [1], "dilation_rate": [1], "kernel_constraint": null, "kernel_regularizer": {"config": {"l1": 0.0, "l2": 9.999999747378752e-05}, "class_name": "L1L2"}}, "name": "conv1d_6", "class_name": "Conv1D", "inbound_nodes": [[["activation_5", 0, 0, {}]]]}, {"config": {"gamma_constraint": null, "momentum": 0.99, "moving_mean_initializer": {"config": {}, "class_name": "Zeros"}, "beta_regularizer": null, "beta_constraint": null, "moving_variance_initializer": {"config": {}, "class_name": "Ones"}, "gamma_regularizer": null, "epsilon": 0.001, "name": "batch_normalization_7", "scale": true, "axis": 1, "trainable": true, "gamma_initializer": {"config": {}, "class_name": "Ones"}, "beta_initializer": {"config": {}, "class_name": "Zeros"}, "center": true}, "name": "batch_normalization_7", "class_name": "BatchNormalization", "inbound_nodes": [[["conv1d_7", 0, 0, {}]]]}, {"config": {"gamma_constraint": null, "momentum": 0.99, "moving_mean_initializer": {"config": {}, "class_name": "Zeros"}, "beta_regularizer": null, "beta_constraint": null, "moving_variance_initializer": {"config": {}, "class_name": "Ones"}, "gamma_regularizer": null, "epsilon": 0.001, "name": "batch_normalization_6", "scale": true, "axis": 1, "trainable": true, "gamma_initializer": {"config": {}, "class_name": "Ones"}, "beta_initializer": {"config": {}, "class_name": "Zeros"}, "center": true}, "name": "batch_normalization_6", "class_name": "BatchNormalization", "inbound_nodes": [[["conv1d_6", 0, 0, {}]]]}, {"config": {"trainable": true, "activation": "relu", "name": "activation_7"}, "name": "activation_7", "class_name": "Activation", "inbound_nodes": [[["batch_normalization_7", 0, 0, {}]]]}, {"config": {"trainable": true, "activation": "relu", "name": "activation_6"}, "name": "activation_6", "class_name": "Activation", "inbound_nodes": [[["batch_normalization_6", 0, 0, {}]]]}, {"config": {"trainable": true, "name": "flatten_2"}, "name": "flatten_2", "class_name": "Flatten", "inbound_nodes": [[["activation_7", 0, 0, {}]]]}, {"config": {"trainable": true, "name": "flatten_1"}, "name": "flatten_1", "class_name": "Flatten", "inbound_nodes": [[["activation_6", 0, 0, {}]]]}, {"config": {"activity_regularizer": null, "activation": "relu", "use_bias": true, "bias_initializer": {"config": {}, "class_name": "Zeros"}, "trainable": true, "bias_regularizer": null, "units": 30, "bias_constraint": null, "kernel_initializer": {"config": {"seed": null, "mode": "fan_avg", "scale": 1.0, "distribution": "uniform"}, "class_name": "VarianceScaling"}, "name": "dense_1", "kernel_constraint": null, "kernel_regularizer": {"config": {"l1": 0.0, "l2": 9.999999747378752e-05}, "class_name": "L1L2"}}, "name": "dense_1", "class_name": "Dense", "inbound_nodes": [[["flatten_2", 0, 0, {}]]]}, {"config": {"activity_regularizer": null, "activation": "softmax", "use_bias": true, "bias_initializer": {"config": {}, "class_name": "Zeros"}, "trainable": true, "bias_regularizer": null, "units": 7, "bias_constraint": null, "kernel_initializer": {"config": {"seed": null, "mode": "fan_avg", "scale": 1.0, "distribution": "uniform"}, "class_name": "VarianceScaling"}, "name": "policy_out", "kernel_constraint": null, "kernel_regularizer": {"config": {"l1": 0.0, "l2": 9.999999747378752e-05}, "class_name": "L1L2"}}, "name": "policy_out", "class_name": "Dense", "inbound_nodes": [[["flatten_1", 0, 0, {}]]]}, {"config": {"activity_regularizer": null, "activation": "tanh", "use_bias": true, "bias_initializer": {"config": {}, "class_name": "Zeros"}, "trainable": true, "bias_regularizer": null, "units": 1, "bias_constraint": null, "kernel_initializer": {"config": {"seed": null, "mode": "fan_avg", "scale": 1.0, "distribution": "uniform"}, "class_name": "VarianceScaling"}, "name": "value_out", "kernel_constraint": null, "kernel_regularizer": {"config": {"l1": 0.0, "l2": 9.999999747378752e-05}, "class_name": "L1L2"}}, "name": "value_out", "class_name": "Dense", "inbound_nodes": [[["dense_1", 0, 0, {}]]]}]}