{"OptimizeCount": 0, "name": "animation_model", "input_layers": [["input_1", 0, 0]], "layers": [{"name": "input_1", "inbound_nodes": [], "config": {"batch_input_shape": [null, 21, 21], "sparse": false, "name": "input_1", "dtype": "float32"}, "class_name": "InputLayer"}, {"name": "conv1d_1", "inbound_nodes": [[["input_1", 0, 0, {}]]], "config": {"bias_initializer": {"config": {}, "class_name": "Zeros"}, "kernel_constraint": null, "strides": [1], "kernel_size": [3], "activity_regularizer": null, "bias_regularizer": null, "name": "conv1d_1", "kernel_regularizer": {"config": {"l1": 0.0, "l2": 9.999999747378752e-05}, "class_name": "L1L2"}, "dilation_rate": [1], "bias_constraint": null, "activation": "linear", "use_bias": true, "filters": 30, "trainable": true, "padding": "same", "kernel_initializer": {"config": {"seed": null, "mode": "fan_avg", "scale": 1.0, "distribution": "uniform"}, "class_name": "VarianceScaling"}}, "class_name": "Conv1D"}, {"name": "batch_normalization_1", "inbound_nodes": [[["conv1d_1", 0, 0, {}]]], "config": {"epsilon": 0.001, "axis": 1, "beta_initializer": {"config": {}, "class_name": "Zeros"}, "beta_regularizer": null, "name": "batch_normalization_1", "center": true, "gamma_constraint": null, "trainable": true, "moving_mean_initializer": {"config": {}, "class_name": "Zeros"}, "scale": true, "gamma_regularizer": null, "momentum": 0.99, "beta_constraint": null, "moving_variance_initializer": {"config": {}, "class_name": "Ones"}, "gamma_initializer": {"config": {}, "class_name": "Ones"}}, "class_name": "BatchNormalization"}, {"name": "activation_1", "inbound_nodes": [[["batch_normalization_1", 0, 0, {}]]], "config": {"name": "activation_1", "activation": "relu", "trainable": true}, "class_name": "Activation"}, {"name": "conv1d_2", "inbound_nodes": [[["activation_1", 0, 0, {}]]], "config": {"bias_initializer": {"config": {}, "class_name": "Zeros"}, "kernel_constraint": null, "strides": [1], "kernel_size": [3], "activity_regularizer": null, "bias_regularizer": null, "name": "conv1d_2", "kernel_regularizer": {"config": {"l1": 0.0, "l2": 9.999999747378752e-05}, "class_name": "L1L2"}, "dilation_rate": [1], "bias_constraint": null, "activation": "linear", "use_bias": true, "filters": 30, "trainable": true, "padding": "same", "kernel_initializer": {"config": {"seed": null, "mode": "fan_avg", "scale": 1.0, "distribution": "uniform"}, "class_name": "VarianceScaling"}}, "class_name": "Conv1D"}, {"name": "batch_normalization_2", "inbound_nodes": [[["conv1d_2", 0, 0, {}]]], "config": {"epsilon": 0.001, "axis": 1, "beta_initializer": {"config": {}, "class_name": "Zeros"}, "beta_regularizer": null, "name": "batch_normalization_2", "center": true, "gamma_constraint": null, "trainable": true, "moving_mean_initializer": {"config": {}, "class_name": "Zeros"}, "scale": true, "gamma_regularizer": null, "momentum": 0.99, "beta_constraint": null, "moving_variance_initializer": {"config": {}, "class_name": "Ones"}, "gamma_initializer": {"config": {}, "class_name": "Ones"}}, "class_name": "BatchNormalization"}, {"name": "activation_2", "inbound_nodes": [[["batch_normalization_2", 0, 0, {}]]], "config": {"name": "activation_2", "activation": "relu", "trainable": true}, "class_name": "Activation"}, {"name": "conv1d_3", "inbound_nodes": [[["activation_2", 0, 0, {}]]], "config": {"bias_initializer": {"config": {}, "class_name": "Zeros"}, "kernel_constraint": null, "strides": [1], "kernel_size": [3], "activity_regularizer": null, "bias_regularizer": null, "name": "conv1d_3", "kernel_regularizer": {"config": {"l1": 0.0, "l2": 9.999999747378752e-05}, "class_name": "L1L2"}, "dilation_rate": [1], "bias_constraint": null, "activation": "linear", "use_bias": true, "filters": 30, "trainable": true, "padding": "same", "kernel_initializer": {"config": {"seed": null, "mode": "fan_avg", "scale": 1.0, "distribution": "uniform"}, "class_name": "VarianceScaling"}}, "class_name": "Conv1D"}, {"name": "batch_normalization_3", "inbound_nodes": [[["conv1d_3", 0, 0, {}]]], "config": {"epsilon": 0.001, "axis": 1, "beta_initializer": {"config": {}, "class_name": "Zeros"}, "beta_regularizer": null, "name": "batch_normalization_3", "center": true, "gamma_constraint": null, "trainable": true, "moving_mean_initializer": {"config": {}, "class_name": "Zeros"}, "scale": true, "gamma_regularizer": null, "momentum": 0.99, "beta_constraint": null, "moving_variance_initializer": {"config": {}, "class_name": "Ones"}, "gamma_initializer": {"config": {}, "class_name": "Ones"}}, "class_name": "BatchNormalization"}, {"name": "add_1", "inbound_nodes": [[["activation_1", 0, 0, {}], ["batch_normalization_3", 0, 0, {}]]], "config": {"name": "add_1", "trainable": true}, "class_name": "Add"}, {"name": "activation_3", "inbound_nodes": [[["add_1", 0, 0, {}]]], "config": {"name": "activation_3", "activation": "relu", "trainable": true}, "class_name": "Activation"}, {"name": "conv1d_4", "inbound_nodes": [[["activation_3", 0, 0, {}]]], "config": {"bias_initializer": {"config": {}, "class_name": "Zeros"}, "kernel_constraint": null, "strides": [1], "kernel_size": [3], "activity_regularizer": null, "bias_regularizer": null, "name": "conv1d_4", "kernel_regularizer": {"config": {"l1": 0.0, "l2": 9.999999747378752e-05}, "class_name": "L1L2"}, "dilation_rate": [1], "bias_constraint": null, "activation": "linear", "use_bias": true, "filters": 30, "trainable": true, "padding": "same", "kernel_initializer": {"config": {"seed": null, "mode": "fan_avg", "scale": 1.0, "distribution": "uniform"}, "class_name": "VarianceScaling"}}, "class_name": "Conv1D"}, {"name": "batch_normalization_4", "inbound_nodes": [[["conv1d_4", 0, 0, {}]]], "config": {"epsilon": 0.001, "axis": 1, "beta_initializer": {"config": {}, "class_name": "Zeros"}, "beta_regularizer": null, "name": "batch_normalization_4", "center": true, "gamma_constraint": null, "trainable": true, "moving_mean_initializer": {"config": {}, "class_name": "Zeros"}, "scale": true, "gamma_regularizer": null, "momentum": 0.99, "beta_constraint": null, "moving_variance_initializer": {"config": {}, "class_name": "Ones"}, "gamma_initializer": {"config": {}, "class_name": "Ones"}}, "class_name": "BatchNormalization"}, {"name": "activation_4", "inbound_nodes": [[["batch_normalization_4", 0, 0, {}]]], "config": {"name": "activation_4", "activation": "relu", "trainable": true}, "class_name": "Activation"}, {"name": "conv1d_5", "inbound_nodes": [[["activation_4", 0, 0, {}]]], "config": {"bias_initializer": {"config": {}, "class_name": "Zeros"}, "kernel_constraint": null, "strides": [1], "kernel_size": [3], "activity_regularizer": null, "bias_regularizer": null, "name": "conv1d_5", "kernel_regularizer": {"config": {"l1": 0.0, "l2": 9.999999747378752e-05}, "class_name": "L1L2"}, "dilation_rate": [1], "bias_constraint": null, "activation": "linear", "use_bias": true, "filters": 30, "trainable": true, "padding": "same", "kernel_initializer": {"config": {"seed": null, "mode": "fan_avg", "scale": 1.0, "distribution": "uniform"}, "class_name": "VarianceScaling"}}, "class_name": "Conv1D"}, {"name": "batch_normalization_5", "inbound_nodes": [[["conv1d_5", 0, 0, {}]]], "config": {"epsilon": 0.001, "axis": 1, "beta_initializer": {"config": {}, "class_name": "Zeros"}, "beta_regularizer": null, "name": "batch_normalization_5", "center": true, "gamma_constraint": null, "trainable": true, "moving_mean_initializer": {"config": {}, "class_name": "Zeros"}, "scale": true, "gamma_regularizer": null, "momentum": 0.99, "beta_constraint": null, "moving_variance_initializer": {"config": {}, "class_name": "Ones"}, "gamma_initializer": {"config": {}, "class_name": "Ones"}}, "class_name": "BatchNormalization"}, {"name": "add_2", "inbound_nodes": [[["activation_3", 0, 0, {}], ["batch_normalization_5", 0, 0, {}]]], "config": {"name": "add_2", "trainable": true}, "class_name": "Add"}, {"name": "activation_5", "inbound_nodes": [[["add_2", 0, 0, {}]]], "config": {"name": "activation_5", "activation": "relu", "trainable": true}, "class_name": "Activation"}, {"name": "conv1d_7", "inbound_nodes": [[["activation_5", 0, 0, {}]]], "config": {"bias_initializer": {"config": {}, "class_name": "Zeros"}, "kernel_constraint": null, "strides": [1], "kernel_size": [1], "activity_regularizer": null, "bias_regularizer": null, "name": "conv1d_7", "kernel_regularizer": {"config": {"l1": 0.0, "l2": 9.999999747378752e-05}, "class_name": "L1L2"}, "dilation_rate": [1], "bias_constraint": null, "activation": "linear", "use_bias": true, "filters": 1, "trainable": true, "padding": "valid", "kernel_initializer": {"config": {"seed": null, "mode": "fan_avg", "scale": 1.0, "distribution": "uniform"}, "class_name": "VarianceScaling"}}, "class_name": "Conv1D"}, {"name": "conv1d_6", "inbound_nodes": [[["activation_5", 0, 0, {}]]], "config": {"bias_initializer": {"config": {}, "class_name": "Zeros"}, "kernel_constraint": null, "strides": [1], "kernel_size": [1], "activity_regularizer": null, "bias_regularizer": null, "name": "conv1d_6", "kernel_regularizer": {"config": {"l1": 0.0, "l2": 9.999999747378752e-05}, "class_name": "L1L2"}, "dilation_rate": [1], "bias_constraint": null, "activation": "linear", "use_bias": true, "filters": 2, "trainable": true, "padding": "valid", "kernel_initializer": {"config": {"seed": null, "mode": "fan_avg", "scale": 1.0, "distribution": "uniform"}, "class_name": "VarianceScaling"}}, "class_name": "Conv1D"}, {"name": "batch_normalization_7", "inbound_nodes": [[["conv1d_7", 0, 0, {}]]], "config": {"epsilon": 0.001, "axis": 1, "beta_initializer": {"config": {}, "class_name": "Zeros"}, "beta_regularizer": null, "name": "batch_normalization_7", "center": true, "gamma_constraint": null, "trainable": true, "moving_mean_initializer": {"config": {}, "class_name": "Zeros"}, "scale": true, "gamma_regularizer": null, "momentum": 0.99, "beta_constraint": null, "moving_variance_initializer": {"config": {}, "class_name": "Ones"}, "gamma_initializer": {"config": {}, "class_name": "Ones"}}, "class_name": "BatchNormalization"}, {"name": "batch_normalization_6", "inbound_nodes": [[["conv1d_6", 0, 0, {}]]], "config": {"epsilon": 0.001, "axis": 1, "beta_initializer": {"config": {}, "class_name": "Zeros"}, "beta_regularizer": null, "name": "batch_normalization_6", "center": true, "gamma_constraint": null, "trainable": true, "moving_mean_initializer": {"config": {}, "class_name": "Zeros"}, "scale": true, "gamma_regularizer": null, "momentum": 0.99, "beta_constraint": null, "moving_variance_initializer": {"config": {}, "class_name": "Ones"}, "gamma_initializer": {"config": {}, "class_name": "Ones"}}, "class_name": "BatchNormalization"}, {"name": "activation_7", "inbound_nodes": [[["batch_normalization_7", 0, 0, {}]]], "config": {"name": "activation_7", "activation": "relu", "trainable": true}, "class_name": "Activation"}, {"name": "activation_6", "inbound_nodes": [[["batch_normalization_6", 0, 0, {}]]], "config": {"name": "activation_6", "activation": "relu", "trainable": true}, "class_name": "Activation"}, {"name": "flatten_2", "inbound_nodes": [[["activation_7", 0, 0, {}]]], "config": {"name": "flatten_2", "trainable": true}, "class_name": "Flatten"}, {"name": "flatten_1", "inbound_nodes": [[["activation_6", 0, 0, {}]]], "config": {"name": "flatten_1", "trainable": true}, "class_name": "Flatten"}, {"name": "dense_1", "inbound_nodes": [[["flatten_2", 0, 0, {}]]], "config": {"bias_initializer": {"config": {}, "class_name": "Zeros"}, "kernel_constraint": null, "activity_regularizer": null, "units": 30, "bias_regularizer": null, "name": "dense_1", "kernel_regularizer": {"config": {"l1": 0.0, "l2": 9.999999747378752e-05}, "class_name": "L1L2"}, "bias_constraint": null, "activation": "relu", "kernel_initializer": {"config": {"seed": null, "mode": "fan_avg", "scale": 1.0, "distribution": "uniform"}, "class_name": "VarianceScaling"}, "trainable": true, "use_bias": true}, "class_name": "Dense"}, {"name": "policy_out", "inbound_nodes": [[["flatten_1", 0, 0, {}]]], "config": {"bias_initializer": {"config": {}, "class_name": "Zeros"}, "kernel_constraint": null, "activity_regularizer": null, "units": 43, "bias_regularizer": null, "name": "policy_out", "kernel_regularizer": {"config": {"l1": 0.0, "l2": 9.999999747378752e-05}, "class_name": "L1L2"}, "bias_constraint": null, "activation": "softmax", "kernel_initializer": {"config": {"seed": null, "mode": "fan_avg", "scale": 1.0, "distribution": "uniform"}, "class_name": "VarianceScaling"}, "trainable": true, "use_bias": true}, "class_name": "Dense"}, {"name": "value_out", "inbound_nodes": [[["dense_1", 0, 0, {}]]], "config": {"bias_initializer": {"config": {}, "class_name": "Zeros"}, "kernel_constraint": null, "activity_regularizer": null, "units": 1, "bias_regularizer": null, "name": "value_out", "kernel_regularizer": {"config": {"l1": 0.0, "l2": 9.999999747378752e-05}, "class_name": "L1L2"}, "bias_constraint": null, "activation": "tanh", "kernel_initializer": {"config": {"seed": null, "mode": "fan_avg", "scale": 1.0, "distribution": "uniform"}, "class_name": "VarianceScaling"}, "trainable": true, "use_bias": true}, "class_name": "Dense"}], "output_layers": [["policy_out", 0, 0], ["value_out", 0, 0]]}