{"OptimizeCount": 0, "output_layers": [["policy_out", 0, 0], ["value_out", 0, 0]], "input_layers": [["input_1", 0, 0]], "layers": [{"name": "input_1", "class_name": "InputLayer", "config": {"sparse": false, "batch_input_shape": [null, 3, 21], "dtype": "float32", "name": "input_1"}, "inbound_nodes": []}, {"name": "conv1d_1", "class_name": "Conv1D", "config": {"bias_constraint": null, "bias_initializer": {"class_name": "Zeros", "config": {}}, "activity_regularizer": null, "trainable": true, "kernel_initializer": {"class_name": "VarianceScaling", "config": {"seed": null, "mode": "fan_avg", "distribution": "uniform", "scale": 1.0}}, "filters": 30, "kernel_constraint": null, "dilation_rate": [1], "kernel_regularizer": {"class_name": "L1L2", "config": {"l1": 0.0, "l2": 9.999999747378752e-05}}, "strides": [1], "padding": "same", "use_bias": true, "bias_regularizer": null, "activation": "linear", "kernel_size": [3], "name": "conv1d_1"}, "inbound_nodes": [[["input_1", 0, 0, {}]]]}, {"name": "batch_normalization_1", "class_name": "BatchNormalization", "config": {"center": true, "trainable": true, "scale": true, "beta_initializer": {"class_name": "Zeros", "config": {}}, "gamma_constraint": null, "moving_variance_initializer": {"class_name": "Ones", "config": {}}, "epsilon": 0.001, "axis": 1, "moving_mean_initializer": {"class_name": "Zeros", "config": {}}, "gamma_initializer": {"class_name": "Ones", "config": {}}, "beta_constraint": null, "gamma_regularizer": null, "beta_regularizer": null, "momentum": 0.99, "name": "batch_normalization_1"}, "inbound_nodes": [[["conv1d_1", 0, 0, {}]]]}, {"name": "activation_1", "class_name": "Activation", "config": {"name": "activation_1", "trainable": true, "activation": "relu"}, "inbound_nodes": [[["batch_normalization_1", 0, 0, {}]]]}, {"name": "conv1d_2", "class_name": "Conv1D", "config": {"bias_constraint": null, "bias_initializer": {"class_name": "Zeros", "config": {}}, "activity_regularizer": null, "trainable": true, "kernel_initializer": {"class_name": "VarianceScaling", "config": {"seed": null, "mode": "fan_avg", "distribution": "uniform", "scale": 1.0}}, "filters": 30, "kernel_constraint": null, "dilation_rate": [1], "kernel_regularizer": {"class_name": "L1L2", "config": {"l1": 0.0, "l2": 9.999999747378752e-05}}, "strides": [1], "padding": "same", "use_bias": true, "bias_regularizer": null, "activation": "linear", "kernel_size": [3], "name": "conv1d_2"}, "inbound_nodes": [[["activation_1", 0, 0, {}]]]}, {"name": "batch_normalization_2", "class_name": "BatchNormalization", "config": {"center": true, "trainable": true, "scale": true, "beta_initializer": {"class_name": "Zeros", "config": {}}, "gamma_constraint": null, "moving_variance_initializer": {"class_name": "Ones", "config": {}}, "epsilon": 0.001, "axis": 1, "moving_mean_initializer": {"class_name": "Zeros", "config": {}}, "gamma_initializer": {"class_name": "Ones", "config": {}}, "beta_constraint": null, "gamma_regularizer": null, "beta_regularizer": null, "momentum": 0.99, "name": "batch_normalization_2"}, "inbound_nodes": [[["conv1d_2", 0, 0, {}]]]}, {"name": "activation_2", "class_name": "Activation", "config": {"name": "activation_2", "trainable": true, "activation": "relu"}, "inbound_nodes": [[["batch_normalization_2", 0, 0, {}]]]}, {"name": "conv1d_3", "class_name": "Conv1D", "config": {"bias_constraint": null, "bias_initializer": {"class_name": "Zeros", "config": {}}, "activity_regularizer": null, "trainable": true, "kernel_initializer": {"class_name": "VarianceScaling", "config": {"seed": null, "mode": "fan_avg", "distribution": "uniform", "scale": 1.0}}, "filters": 30, "kernel_constraint": null, "dilation_rate": [1], "kernel_regularizer": {"class_name": "L1L2", "config": {"l1": 0.0, "l2": 9.999999747378752e-05}}, "strides": [1], "padding": "same", "use_bias": true, "bias_regularizer": null, "activation": "linear", "kernel_size": [3], "name": "conv1d_3"}, "inbound_nodes": [[["activation_2", 0, 0, {}]]]}, {"name": "batch_normalization_3", "class_name": "BatchNormalization", "config": {"center": true, "trainable": true, "scale": true, "beta_initializer": {"class_name": "Zeros", "config": {}}, "gamma_constraint": null, "moving_variance_initializer": {"class_name": "Ones", "config": {}}, "epsilon": 0.001, "axis": 1, "moving_mean_initializer": {"class_name": "Zeros", "config": {}}, "gamma_initializer": {"class_name": "Ones", "config": {}}, "beta_constraint": null, "gamma_regularizer": null, "beta_regularizer": null, "momentum": 0.99, "name": "batch_normalization_3"}, "inbound_nodes": [[["conv1d_3", 0, 0, {}]]]}, {"name": "add_1", "class_name": "Add", "config": {"trainable": true, "name": "add_1"}, "inbound_nodes": [[["activation_1", 0, 0, {}], ["batch_normalization_3", 0, 0, {}]]]}, {"name": "activation_3", "class_name": "Activation", "config": {"name": "activation_3", "trainable": true, "activation": "relu"}, "inbound_nodes": [[["add_1", 0, 0, {}]]]}, {"name": "conv1d_4", "class_name": "Conv1D", "config": {"bias_constraint": null, "bias_initializer": {"class_name": "Zeros", "config": {}}, "activity_regularizer": null, "trainable": true, "kernel_initializer": {"class_name": "VarianceScaling", "config": {"seed": null, "mode": "fan_avg", "distribution": "uniform", "scale": 1.0}}, "filters": 30, "kernel_constraint": null, "dilation_rate": [1], "kernel_regularizer": {"class_name": "L1L2", "config": {"l1": 0.0, "l2": 9.999999747378752e-05}}, "strides": [1], "padding": "same", "use_bias": true, "bias_regularizer": null, "activation": "linear", "kernel_size": [3], "name": "conv1d_4"}, "inbound_nodes": [[["activation_3", 0, 0, {}]]]}, {"name": "batch_normalization_4", "class_name": "BatchNormalization", "config": {"center": true, "trainable": true, "scale": true, "beta_initializer": {"class_name": "Zeros", "config": {}}, "gamma_constraint": null, "moving_variance_initializer": {"class_name": "Ones", "config": {}}, "epsilon": 0.001, "axis": 1, "moving_mean_initializer": {"class_name": "Zeros", "config": {}}, "gamma_initializer": {"class_name": "Ones", "config": {}}, "beta_constraint": null, "gamma_regularizer": null, "beta_regularizer": null, "momentum": 0.99, "name": "batch_normalization_4"}, "inbound_nodes": [[["conv1d_4", 0, 0, {}]]]}, {"name": "activation_4", "class_name": "Activation", "config": {"name": "activation_4", "trainable": true, "activation": "relu"}, "inbound_nodes": [[["batch_normalization_4", 0, 0, {}]]]}, {"name": "conv1d_5", "class_name": "Conv1D", "config": {"bias_constraint": null, "bias_initializer": {"class_name": "Zeros", "config": {}}, "activity_regularizer": null, "trainable": true, "kernel_initializer": {"class_name": "VarianceScaling", "config": {"seed": null, "mode": "fan_avg", "distribution": "uniform", "scale": 1.0}}, "filters": 30, "kernel_constraint": null, "dilation_rate": [1], "kernel_regularizer": {"class_name": "L1L2", "config": {"l1": 0.0, "l2": 9.999999747378752e-05}}, "strides": [1], "padding": "same", "use_bias": true, "bias_regularizer": null, "activation": "linear", "kernel_size": [3], "name": "conv1d_5"}, "inbound_nodes": [[["activation_4", 0, 0, {}]]]}, {"name": "batch_normalization_5", "class_name": "BatchNormalization", "config": {"center": true, "trainable": true, "scale": true, "beta_initializer": {"class_name": "Zeros", "config": {}}, "gamma_constraint": null, "moving_variance_initializer": {"class_name": "Ones", "config": {}}, "epsilon": 0.001, "axis": 1, "moving_mean_initializer": {"class_name": "Zeros", "config": {}}, "gamma_initializer": {"class_name": "Ones", "config": {}}, "beta_constraint": null, "gamma_regularizer": null, "beta_regularizer": null, "momentum": 0.99, "name": "batch_normalization_5"}, "inbound_nodes": [[["conv1d_5", 0, 0, {}]]]}, {"name": "add_2", "class_name": "Add", "config": {"trainable": true, "name": "add_2"}, "inbound_nodes": [[["activation_3", 0, 0, {}], ["batch_normalization_5", 0, 0, {}]]]}, {"name": "activation_5", "class_name": "Activation", "config": {"name": "activation_5", "trainable": true, "activation": "relu"}, "inbound_nodes": [[["add_2", 0, 0, {}]]]}, {"name": "conv1d_7", "class_name": "Conv1D", "config": {"bias_constraint": null, "bias_initializer": {"class_name": "Zeros", "config": {}}, "activity_regularizer": null, "trainable": true, "kernel_initializer": {"class_name": "VarianceScaling", "config": {"seed": null, "mode": "fan_avg", "distribution": "uniform", "scale": 1.0}}, "filters": 1, "kernel_constraint": null, "dilation_rate": [1], "kernel_regularizer": {"class_name": "L1L2", "config": {"l1": 0.0, "l2": 9.999999747378752e-05}}, "strides": [1], "padding": "valid", "use_bias": true, "bias_regularizer": null, "activation": "linear", "kernel_size": [1], "name": "conv1d_7"}, "inbound_nodes": [[["activation_5", 0, 0, {}]]]}, {"name": "conv1d_6", "class_name": "Conv1D", "config": {"bias_constraint": null, "bias_initializer": {"class_name": "Zeros", "config": {}}, "activity_regularizer": null, "trainable": true, "kernel_initializer": {"class_name": "VarianceScaling", "config": {"seed": null, "mode": "fan_avg", "distribution": "uniform", "scale": 1.0}}, "filters": 2, "kernel_constraint": null, "dilation_rate": [1], "kernel_regularizer": {"class_name": "L1L2", "config": {"l1": 0.0, "l2": 9.999999747378752e-05}}, "strides": [1], "padding": "valid", "use_bias": true, "bias_regularizer": null, "activation": "linear", "kernel_size": [1], "name": "conv1d_6"}, "inbound_nodes": [[["activation_5", 0, 0, {}]]]}, {"name": "batch_normalization_7", "class_name": "BatchNormalization", "config": {"center": true, "trainable": true, "scale": true, "beta_initializer": {"class_name": "Zeros", "config": {}}, "gamma_constraint": null, "moving_variance_initializer": {"class_name": "Ones", "config": {}}, "epsilon": 0.001, "axis": 1, "moving_mean_initializer": {"class_name": "Zeros", "config": {}}, "gamma_initializer": {"class_name": "Ones", "config": {}}, "beta_constraint": null, "gamma_regularizer": null, "beta_regularizer": null, "momentum": 0.99, "name": "batch_normalization_7"}, "inbound_nodes": [[["conv1d_7", 0, 0, {}]]]}, {"name": "batch_normalization_6", "class_name": "BatchNormalization", "config": {"center": true, "trainable": true, "scale": true, "beta_initializer": {"class_name": "Zeros", "config": {}}, "gamma_constraint": null, "moving_variance_initializer": {"class_name": "Ones", "config": {}}, "epsilon": 0.001, "axis": 1, "moving_mean_initializer": {"class_name": "Zeros", "config": {}}, "gamma_initializer": {"class_name": "Ones", "config": {}}, "beta_constraint": null, "gamma_regularizer": null, "beta_regularizer": null, "momentum": 0.99, "name": "batch_normalization_6"}, "inbound_nodes": [[["conv1d_6", 0, 0, {}]]]}, {"name": "activation_7", "class_name": "Activation", "config": {"name": "activation_7", "trainable": true, "activation": "relu"}, "inbound_nodes": [[["batch_normalization_7", 0, 0, {}]]]}, {"name": "activation_6", "class_name": "Activation", "config": {"name": "activation_6", "trainable": true, "activation": "relu"}, "inbound_nodes": [[["batch_normalization_6", 0, 0, {}]]]}, {"name": "flatten_2", "class_name": "Flatten", "config": {"trainable": true, "name": "flatten_2"}, "inbound_nodes": [[["activation_7", 0, 0, {}]]]}, {"name": "flatten_1", "class_name": "Flatten", "config": {"trainable": true, "name": "flatten_1"}, "inbound_nodes": [[["activation_6", 0, 0, {}]]]}, {"name": "dense_1", "class_name": "Dense", "config": {"name": "dense_1", "bias_initializer": {"class_name": "Zeros", "config": {}}, "activity_regularizer": null, "trainable": true, "kernel_initializer": {"class_name": "VarianceScaling", "config": {"seed": null, "mode": "fan_avg", "distribution": "uniform", "scale": 1.0}}, "kernel_constraint": null, "kernel_regularizer": {"class_name": "L1L2", "config": {"l1": 0.0, "l2": 9.999999747378752e-05}}, "use_bias": true, "bias_regularizer": null, "bias_constraint": null, "activation": "relu", "units": 30}, "inbound_nodes": [[["flatten_2", 0, 0, {}]]]}, {"name": "policy_out", "class_name": "Dense", "config": {"name": "policy_out", "bias_initializer": {"class_name": "Zeros", "config": {}}, "activity_regularizer": null, "trainable": true, "kernel_initializer": {"class_name": "VarianceScaling", "config": {"seed": null, "mode": "fan_avg", "distribution": "uniform", "scale": 1.0}}, "kernel_constraint": null, "kernel_regularizer": {"class_name": "L1L2", "config": {"l1": 0.0, "l2": 9.999999747378752e-05}}, "use_bias": true, "bias_regularizer": null, "bias_constraint": null, "activation": "softmax", "units": 7}, "inbound_nodes": [[["flatten_1", 0, 0, {}]]]}, {"name": "value_out", "class_name": "Dense", "config": {"name": "value_out", "bias_initializer": {"class_name": "Zeros", "config": {}}, "activity_regularizer": null, "trainable": true, "kernel_initializer": {"class_name": "VarianceScaling", "config": {"seed": null, "mode": "fan_avg", "distribution": "uniform", "scale": 1.0}}, "kernel_constraint": null, "kernel_regularizer": {"class_name": "L1L2", "config": {"l1": 0.0, "l2": 9.999999747378752e-05}}, "use_bias": true, "bias_regularizer": null, "bias_constraint": null, "activation": "tanh", "units": 1}, "inbound_nodes": [[["dense_1", 0, 0, {}]]]}], "name": "animation_model"}