{"output_layers": [["policy_out", 0, 0], ["value_out", 0, 0]], "OptimizeCount": 0, "input_layers": [["input_1", 0, 0]], "layers": [{"config": {"dtype": "float32", "batch_input_shape": [null, 5, 5], "name": "input_1", "sparse": false}, "class_name": "InputLayer", "name": "input_1", "inbound_nodes": []}, {"config": {"padding": "same", "trainable": true, "kernel_initializer": {"config": {"scale": 1.0, "mode": "fan_avg", "seed": null, "distribution": "uniform"}, "class_name": "VarianceScaling"}, "bias_initializer": {"config": {}, "class_name": "Zeros"}, "strides": [1], "activity_regularizer": null, "use_bias": true, "bias_regularizer": null, "kernel_constraint": null, "activation": "linear", "kernel_regularizer": {"config": {"l1": 0.0, "l2": 9.999999747378752e-05}, "class_name": "L1L2"}, "dilation_rate": [1], "kernel_size": [1], "bias_constraint": null, "filters": 512, "name": "conv1d_1"}, "class_name": "Conv1D", "name": "conv1d_1", "inbound_nodes": [[["input_1", 0, 0, {}]]]}, {"config": {"gamma_initializer": {"config": {}, "class_name": "Ones"}, "trainable": true, "epsilon": 0.001, "moving_variance_initializer": {"config": {}, "class_name": "Ones"}, "name": "batch_normalization_1", "momentum": 0.99, "beta_constraint": null, "gamma_constraint": null, "gamma_regularizer": null, "moving_mean_initializer": {"config": {}, "class_name": "Zeros"}, "beta_initializer": {"config": {}, "class_name": "Zeros"}, "axis": 1, "center": true, "scale": true, "beta_regularizer": null}, "class_name": "BatchNormalization", "name": "batch_normalization_1", "inbound_nodes": [[["conv1d_1", 0, 0, {}]]]}, {"config": {"padding": "same", "trainable": true, "kernel_initializer": {"config": {"scale": 1.0, "mode": "fan_avg", "seed": null, "distribution": "uniform"}, "class_name": "VarianceScaling"}, "bias_initializer": {"config": {}, "class_name": "Zeros"}, "strides": [1], "activity_regularizer": null, "use_bias": true, "bias_regularizer": null, "kernel_constraint": null, "activation": "linear", "kernel_regularizer": {"config": {"l1": 0.0, "l2": 9.999999747378752e-05}, "class_name": "L1L2"}, "dilation_rate": [1], "kernel_size": [3], "bias_constraint": null, "filters": 256, "name": "conv1d_2"}, "class_name": "Conv1D", "name": "conv1d_2", "inbound_nodes": [[["batch_normalization_1", 0, 0, {}]]]}, {"config": {"gamma_initializer": {"config": {}, "class_name": "Ones"}, "trainable": true, "epsilon": 0.001, "moving_variance_initializer": {"config": {}, "class_name": "Ones"}, "name": "batch_normalization_2", "momentum": 0.99, "beta_constraint": null, "gamma_constraint": null, "gamma_regularizer": null, "moving_mean_initializer": {"config": {}, "class_name": "Zeros"}, "beta_initializer": {"config": {}, "class_name": "Zeros"}, "axis": 1, "center": true, "scale": true, "beta_regularizer": null}, "class_name": "BatchNormalization", "name": "batch_normalization_2", "inbound_nodes": [[["conv1d_2", 0, 0, {}]]]}, {"config": {"trainable": true, "name": "activation_1", "activation": "relu"}, "class_name": "Activation", "name": "activation_1", "inbound_nodes": [[["batch_normalization_2", 0, 0, {}]]]}, {"config": {"padding": "same", "trainable": true, "kernel_initializer": {"config": {"scale": 1.0, "mode": "fan_avg", "seed": null, "distribution": "uniform"}, "class_name": "VarianceScaling"}, "bias_initializer": {"config": {}, "class_name": "Zeros"}, "strides": [1], "activity_regularizer": null, "use_bias": true, "bias_regularizer": null, "kernel_constraint": null, "activation": "linear", "kernel_regularizer": {"config": {"l1": 0.0, "l2": 9.999999747378752e-05}, "class_name": "L1L2"}, "dilation_rate": [1], "kernel_size": [3], "bias_constraint": null, "filters": 256, "name": "conv1d_3"}, "class_name": "Conv1D", "name": "conv1d_3", "inbound_nodes": [[["activation_1", 0, 0, {}]]]}, {"config": {"gamma_initializer": {"config": {}, "class_name": "Ones"}, "trainable": true, "epsilon": 0.001, "moving_variance_initializer": {"config": {}, "class_name": "Ones"}, "name": "batch_normalization_3", "momentum": 0.99, "beta_constraint": null, "gamma_constraint": null, "gamma_regularizer": null, "moving_mean_initializer": {"config": {}, "class_name": "Zeros"}, "beta_initializer": {"config": {}, "class_name": "Zeros"}, "axis": 1, "center": true, "scale": true, "beta_regularizer": null}, "class_name": "BatchNormalization", "name": "batch_normalization_3", "inbound_nodes": [[["conv1d_3", 0, 0, {}]]]}, {"config": {"trainable": true, "name": "activation_2", "activation": "relu"}, "class_name": "Activation", "name": "activation_2", "inbound_nodes": [[["batch_normalization_3", 0, 0, {}]]]}, {"config": {"padding": "same", "trainable": true, "kernel_initializer": {"config": {"scale": 1.0, "mode": "fan_avg", "seed": null, "distribution": "uniform"}, "class_name": "VarianceScaling"}, "bias_initializer": {"config": {}, "class_name": "Zeros"}, "strides": [1], "activity_regularizer": null, "use_bias": true, "bias_regularizer": null, "kernel_constraint": null, "activation": "linear", "kernel_regularizer": {"config": {"l1": 0.0, "l2": 9.999999747378752e-05}, "class_name": "L1L2"}, "dilation_rate": [1], "kernel_size": [3], "bias_constraint": null, "filters": 256, "name": "conv1d_4"}, "class_name": "Conv1D", "name": "conv1d_4", "inbound_nodes": [[["activation_2", 0, 0, {}]]]}, {"config": {"gamma_initializer": {"config": {}, "class_name": "Ones"}, "trainable": true, "epsilon": 0.001, "moving_variance_initializer": {"config": {}, "class_name": "Ones"}, "name": "batch_normalization_4", "momentum": 0.99, "beta_constraint": null, "gamma_constraint": null, "gamma_regularizer": null, "moving_mean_initializer": {"config": {}, "class_name": "Zeros"}, "beta_initializer": {"config": {}, "class_name": "Zeros"}, "axis": 1, "center": true, "scale": true, "beta_regularizer": null}, "class_name": "BatchNormalization", "name": "batch_normalization_4", "inbound_nodes": [[["conv1d_4", 0, 0, {}]]]}, {"config": {"trainable": true, "name": "add_1"}, "class_name": "Add", "name": "add_1", "inbound_nodes": [[["activation_1", 0, 0, {}], ["batch_normalization_4", 0, 0, {}]]]}, {"config": {"trainable": true, "name": "activation_3", "activation": "relu"}, "class_name": "Activation", "name": "activation_3", "inbound_nodes": [[["add_1", 0, 0, {}]]]}, {"config": {"padding": "same", "trainable": true, "kernel_initializer": {"config": {"scale": 1.0, "mode": "fan_avg", "seed": null, "distribution": "uniform"}, "class_name": "VarianceScaling"}, "bias_initializer": {"config": {}, "class_name": "Zeros"}, "strides": [1], "activity_regularizer": null, "use_bias": true, "bias_regularizer": null, "kernel_constraint": null, "activation": "linear", "kernel_regularizer": {"config": {"l1": 0.0, "l2": 9.999999747378752e-05}, "class_name": "L1L2"}, "dilation_rate": [1], "kernel_size": [3], "bias_constraint": null, "filters": 256, "name": "conv1d_5"}, "class_name": "Conv1D", "name": "conv1d_5", "inbound_nodes": [[["activation_3", 0, 0, {}]]]}, {"config": {"gamma_initializer": {"config": {}, "class_name": "Ones"}, "trainable": true, "epsilon": 0.001, "moving_variance_initializer": {"config": {}, "class_name": "Ones"}, "name": "batch_normalization_5", "momentum": 0.99, "beta_constraint": null, "gamma_constraint": null, "gamma_regularizer": null, "moving_mean_initializer": {"config": {}, "class_name": "Zeros"}, "beta_initializer": {"config": {}, "class_name": "Zeros"}, "axis": 1, "center": true, "scale": true, "beta_regularizer": null}, "class_name": "BatchNormalization", "name": "batch_normalization_5", "inbound_nodes": [[["conv1d_5", 0, 0, {}]]]}, {"config": {"trainable": true, "name": "activation_4", "activation": "relu"}, "class_name": "Activation", "name": "activation_4", "inbound_nodes": [[["batch_normalization_5", 0, 0, {}]]]}, {"config": {"padding": "same", "trainable": true, "kernel_initializer": {"config": {"scale": 1.0, "mode": "fan_avg", "seed": null, "distribution": "uniform"}, "class_name": "VarianceScaling"}, "bias_initializer": {"config": {}, "class_name": "Zeros"}, "strides": [1], "activity_regularizer": null, "use_bias": true, "bias_regularizer": null, "kernel_constraint": null, "activation": "linear", "kernel_regularizer": {"config": {"l1": 0.0, "l2": 9.999999747378752e-05}, "class_name": "L1L2"}, "dilation_rate": [1], "kernel_size": [3], "bias_constraint": null, "filters": 256, "name": "conv1d_6"}, "class_name": "Conv1D", "name": "conv1d_6", "inbound_nodes": [[["activation_4", 0, 0, {}]]]}, {"config": {"gamma_initializer": {"config": {}, "class_name": "Ones"}, "trainable": true, "epsilon": 0.001, "moving_variance_initializer": {"config": {}, "class_name": "Ones"}, "name": "batch_normalization_6", "momentum": 0.99, "beta_constraint": null, "gamma_constraint": null, "gamma_regularizer": null, "moving_mean_initializer": {"config": {}, "class_name": "Zeros"}, "beta_initializer": {"config": {}, "class_name": "Zeros"}, "axis": 1, "center": true, "scale": true, "beta_regularizer": null}, "class_name": "BatchNormalization", "name": "batch_normalization_6", "inbound_nodes": [[["conv1d_6", 0, 0, {}]]]}, {"config": {"trainable": true, "name": "add_2"}, "class_name": "Add", "name": "add_2", "inbound_nodes": [[["activation_3", 0, 0, {}], ["batch_normalization_6", 0, 0, {}]]]}, {"config": {"trainable": true, "name": "activation_5", "activation": "relu"}, "class_name": "Activation", "name": "activation_5", "inbound_nodes": [[["add_2", 0, 0, {}]]]}, {"config": {"padding": "same", "trainable": true, "kernel_initializer": {"config": {"scale": 1.0, "mode": "fan_avg", "seed": null, "distribution": "uniform"}, "class_name": "VarianceScaling"}, "bias_initializer": {"config": {}, "class_name": "Zeros"}, "strides": [1], "activity_regularizer": null, "use_bias": true, "bias_regularizer": null, "kernel_constraint": null, "activation": "linear", "kernel_regularizer": {"config": {"l1": 0.0, "l2": 9.999999747378752e-05}, "class_name": "L1L2"}, "dilation_rate": [1], "kernel_size": [3], "bias_constraint": null, "filters": 256, "name": "conv1d_7"}, "class_name": "Conv1D", "name": "conv1d_7", "inbound_nodes": [[["activation_5", 0, 0, {}]]]}, {"config": {"gamma_initializer": {"config": {}, "class_name": "Ones"}, "trainable": true, "epsilon": 0.001, "moving_variance_initializer": {"config": {}, "class_name": "Ones"}, "name": "batch_normalization_7", "momentum": 0.99, "beta_constraint": null, "gamma_constraint": null, "gamma_regularizer": null, "moving_mean_initializer": {"config": {}, "class_name": "Zeros"}, "beta_initializer": {"config": {}, "class_name": "Zeros"}, "axis": 1, "center": true, "scale": true, "beta_regularizer": null}, "class_name": "BatchNormalization", "name": "batch_normalization_7", "inbound_nodes": [[["conv1d_7", 0, 0, {}]]]}, {"config": {"trainable": true, "name": "activation_6", "activation": "relu"}, "class_name": "Activation", "name": "activation_6", "inbound_nodes": [[["batch_normalization_7", 0, 0, {}]]]}, {"config": {"padding": "same", "trainable": true, "kernel_initializer": {"config": {"scale": 1.0, "mode": "fan_avg", "seed": null, "distribution": "uniform"}, "class_name": "VarianceScaling"}, "bias_initializer": {"config": {}, "class_name": "Zeros"}, "strides": [1], "activity_regularizer": null, "use_bias": true, "bias_regularizer": null, "kernel_constraint": null, "activation": "linear", "kernel_regularizer": {"config": {"l1": 0.0, "l2": 9.999999747378752e-05}, "class_name": "L1L2"}, "dilation_rate": [1], "kernel_size": [3], "bias_constraint": null, "filters": 256, "name": "conv1d_8"}, "class_name": "Conv1D", "name": "conv1d_8", "inbound_nodes": [[["activation_6", 0, 0, {}]]]}, {"config": {"gamma_initializer": {"config": {}, "class_name": "Ones"}, "trainable": true, "epsilon": 0.001, "moving_variance_initializer": {"config": {}, "class_name": "Ones"}, "name": "batch_normalization_8", "momentum": 0.99, "beta_constraint": null, "gamma_constraint": null, "gamma_regularizer": null, "moving_mean_initializer": {"config": {}, "class_name": "Zeros"}, "beta_initializer": {"config": {}, "class_name": "Zeros"}, "axis": 1, "center": true, "scale": true, "beta_regularizer": null}, "class_name": "BatchNormalization", "name": "batch_normalization_8", "inbound_nodes": [[["conv1d_8", 0, 0, {}]]]}, {"config": {"trainable": true, "name": "add_3"}, "class_name": "Add", "name": "add_3", "inbound_nodes": [[["activation_5", 0, 0, {}], ["batch_normalization_8", 0, 0, {}]]]}, {"config": {"trainable": true, "name": "activation_7", "activation": "relu"}, "class_name": "Activation", "name": "activation_7", "inbound_nodes": [[["add_3", 0, 0, {}]]]}, {"config": {"padding": "valid", "trainable": true, "kernel_initializer": {"config": {"scale": 1.0, "mode": "fan_avg", "seed": null, "distribution": "uniform"}, "class_name": "VarianceScaling"}, "bias_initializer": {"config": {}, "class_name": "Zeros"}, "strides": [1], "activity_regularizer": null, "use_bias": true, "bias_regularizer": null, "kernel_constraint": null, "activation": "linear", "kernel_regularizer": {"config": {"l1": 0.0, "l2": 9.999999747378752e-05}, "class_name": "L1L2"}, "dilation_rate": [1], "kernel_size": [1], "bias_constraint": null, "filters": 1, "name": "conv1d_10"}, "class_name": "Conv1D", "name": "conv1d_10", "inbound_nodes": [[["activation_7", 0, 0, {}]]]}, {"config": {"padding": "valid", "trainable": true, "kernel_initializer": {"config": {"scale": 1.0, "mode": "fan_avg", "seed": null, "distribution": "uniform"}, "class_name": "VarianceScaling"}, "bias_initializer": {"config": {}, "class_name": "Zeros"}, "strides": [1], "activity_regularizer": null, "use_bias": true, "bias_regularizer": null, "kernel_constraint": null, "activation": "linear", "kernel_regularizer": {"config": {"l1": 0.0, "l2": 9.999999747378752e-05}, "class_name": "L1L2"}, "dilation_rate": [1], "kernel_size": [1], "bias_constraint": null, "filters": 2, "name": "conv1d_9"}, "class_name": "Conv1D", "name": "conv1d_9", "inbound_nodes": [[["activation_7", 0, 0, {}]]]}, {"config": {"gamma_initializer": {"config": {}, "class_name": "Ones"}, "trainable": true, "epsilon": 0.001, "moving_variance_initializer": {"config": {}, "class_name": "Ones"}, "name": "batch_normalization_10", "momentum": 0.99, "beta_constraint": null, "gamma_constraint": null, "gamma_regularizer": null, "moving_mean_initializer": {"config": {}, "class_name": "Zeros"}, "beta_initializer": {"config": {}, "class_name": "Zeros"}, "axis": 1, "center": true, "scale": true, "beta_regularizer": null}, "class_name": "BatchNormalization", "name": "batch_normalization_10", "inbound_nodes": [[["conv1d_10", 0, 0, {}]]]}, {"config": {"gamma_initializer": {"config": {}, "class_name": "Ones"}, "trainable": true, "epsilon": 0.001, "moving_variance_initializer": {"config": {}, "class_name": "Ones"}, "name": "batch_normalization_9", "momentum": 0.99, "beta_constraint": null, "gamma_constraint": null, "gamma_regularizer": null, "moving_mean_initializer": {"config": {}, "class_name": "Zeros"}, "beta_initializer": {"config": {}, "class_name": "Zeros"}, "axis": 1, "center": true, "scale": true, "beta_regularizer": null}, "class_name": "BatchNormalization", "name": "batch_normalization_9", "inbound_nodes": [[["conv1d_9", 0, 0, {}]]]}, {"config": {"trainable": true, "name": "activation_9", "activation": "relu"}, "class_name": "Activation", "name": "activation_9", "inbound_nodes": [[["batch_normalization_10", 0, 0, {}]]]}, {"config": {"trainable": true, "name": "activation_8", "activation": "relu"}, "class_name": "Activation", "name": "activation_8", "inbound_nodes": [[["batch_normalization_9", 0, 0, {}]]]}, {"config": {"trainable": true, "name": "flatten_2"}, "class_name": "Flatten", "name": "flatten_2", "inbound_nodes": [[["activation_9", 0, 0, {}]]]}, {"config": {"trainable": true, "name": "flatten_1"}, "class_name": "Flatten", "name": "flatten_1", "inbound_nodes": [[["activation_8", 0, 0, {}]]]}, {"config": {"kernel_initializer": {"config": {"scale": 1.0, "mode": "fan_avg", "seed": null, "distribution": "uniform"}, "class_name": "VarianceScaling"}, "bias_initializer": {"config": {}, "class_name": "Zeros"}, "units": 256, "activity_regularizer": null, "activation": "relu", "kernel_constraint": null, "bias_regularizer": null, "kernel_regularizer": {"config": {"l1": 0.0, "l2": 9.999999747378752e-05}, "class_name": "L1L2"}, "use_bias": true, "bias_constraint": null, "trainable": true, "name": "dense_1"}, "class_name": "Dense", "name": "dense_1", "inbound_nodes": [[["flatten_2", 0, 0, {}]]]}, {"config": {"kernel_initializer": {"config": {"scale": 1.0, "mode": "fan_avg", "seed": null, "distribution": "uniform"}, "class_name": "VarianceScaling"}, "bias_initializer": {"config": {}, "class_name": "Zeros"}, "units": 7, "activity_regularizer": null, "activation": "softmax", "kernel_constraint": null, "bias_regularizer": null, "kernel_regularizer": {"config": {"l1": 0.0, "l2": 9.999999747378752e-05}, "class_name": "L1L2"}, "use_bias": true, "bias_constraint": null, "trainable": true, "name": "policy_out"}, "class_name": "Dense", "name": "policy_out", "inbound_nodes": [[["flatten_1", 0, 0, {}]]]}, {"config": {"kernel_initializer": {"config": {"scale": 1.0, "mode": "fan_avg", "seed": null, "distribution": "uniform"}, "class_name": "VarianceScaling"}, "bias_initializer": {"config": {}, "class_name": "Zeros"}, "units": 1, "activity_regularizer": null, "activation": "tanh", "kernel_constraint": null, "bias_regularizer": null, "kernel_regularizer": {"config": {"l1": 0.0, "l2": 9.999999747378752e-05}, "class_name": "L1L2"}, "use_bias": true, "bias_constraint": null, "trainable": true, "name": "value_out"}, "class_name": "Dense", "name": "value_out", "inbound_nodes": [[["dense_1", 0, 0, {}]]]}], "name": "animation_model", "TimeLimit": 0.63}