{"name": "animation_model", "input_layers": [["input_1", 0, 0]], "output_layers": [["policy_out", 0, 0], ["value_out", 0, 0]], "layers": [{"name": "input_1", "config": {"name": "input_1", "batch_input_shape": [null, 3, 21], "dtype": "float32", "sparse": false}, "class_name": "InputLayer", "inbound_nodes": []}, {"name": "conv1d_1", "config": {"bias_constraint": null, "use_bias": true, "trainable": true, "activation": "linear", "kernel_initializer": {"config": {"seed": null, "distribution": "uniform", "mode": "fan_avg", "scale": 1.0}, "class_name": "VarianceScaling"}, "kernel_regularizer": {"config": {"l1": 0.0, "l2": 9.999999747378752e-05}, "class_name": "L1L2"}, "strides": [1], "kernel_constraint": null, "dilation_rate": [1], "activity_regularizer": null, "padding": "same", "bias_regularizer": null, "name": "conv1d_1", "kernel_size": [3], "filters": 30, "bias_initializer": {"config": {}, "class_name": "Zeros"}}, "class_name": "Conv1D", "inbound_nodes": [[["input_1", 0, 0, {}]]]}, {"name": "batch_normalization_1", "config": {"moving_mean_initializer": {"config": {}, "class_name": "Zeros"}, "gamma_initializer": {"config": {}, "class_name": "Ones"}, "scale": true, "trainable": true, "name": "batch_normalization_1", "center": true, "beta_constraint": null, "gamma_constraint": null, "epsilon": 0.001, "beta_regularizer": null, "gamma_regularizer": null, "beta_initializer": {"config": {}, "class_name": "Zeros"}, "momentum": 0.99, "moving_variance_initializer": {"config": {}, "class_name": "Ones"}, "axis": 1}, "class_name": "BatchNormalization", "inbound_nodes": [[["conv1d_1", 0, 0, {}]]]}, {"name": "activation_1", "config": {"name": "activation_1", "trainable": true, "activation": "relu"}, "class_name": "Activation", "inbound_nodes": [[["batch_normalization_1", 0, 0, {}]]]}, {"name": "conv1d_2", "config": {"bias_constraint": null, "use_bias": true, "trainable": true, "activation": "linear", "kernel_initializer": {"config": {"seed": null, "distribution": "uniform", "mode": "fan_avg", "scale": 1.0}, "class_name": "VarianceScaling"}, "kernel_regularizer": {"config": {"l1": 0.0, "l2": 9.999999747378752e-05}, "class_name": "L1L2"}, "strides": [1], "kernel_constraint": null, "dilation_rate": [1], "activity_regularizer": null, "padding": "same", "bias_regularizer": null, "name": "conv1d_2", "kernel_size": [3], "filters": 30, "bias_initializer": {"config": {}, "class_name": "Zeros"}}, "class_name": "Conv1D", "inbound_nodes": [[["activation_1", 0, 0, {}]]]}, {"name": "batch_normalization_2", "config": {"moving_mean_initializer": {"config": {}, "class_name": "Zeros"}, "gamma_initializer": {"config": {}, "class_name": "Ones"}, "scale": true, "trainable": true, "name": "batch_normalization_2", "center": true, "beta_constraint": null, "gamma_constraint": null, "epsilon": 0.001, "beta_regularizer": null, "gamma_regularizer": null, "beta_initializer": {"config": {}, "class_name": "Zeros"}, "momentum": 0.99, "moving_variance_initializer": {"config": {}, "class_name": "Ones"}, "axis": 1}, "class_name": "BatchNormalization", "inbound_nodes": [[["conv1d_2", 0, 0, {}]]]}, {"name": "activation_2", "config": {"name": "activation_2", "trainable": true, "activation": "relu"}, "class_name": "Activation", "inbound_nodes": [[["batch_normalization_2", 0, 0, {}]]]}, {"name": "conv1d_3", "config": {"bias_constraint": null, "use_bias": true, "trainable": true, "activation": "linear", "kernel_initializer": {"config": {"seed": null, "distribution": "uniform", "mode": "fan_avg", "scale": 1.0}, "class_name": "VarianceScaling"}, "kernel_regularizer": {"config": {"l1": 0.0, "l2": 9.999999747378752e-05}, "class_name": "L1L2"}, "strides": [1], "kernel_constraint": null, "dilation_rate": [1], "activity_regularizer": null, "padding": "same", "bias_regularizer": null, "name": "conv1d_3", "kernel_size": [3], "filters": 30, "bias_initializer": {"config": {}, "class_name": "Zeros"}}, "class_name": "Conv1D", "inbound_nodes": [[["activation_2", 0, 0, {}]]]}, {"name": "batch_normalization_3", "config": {"moving_mean_initializer": {"config": {}, "class_name": "Zeros"}, "gamma_initializer": {"config": {}, "class_name": "Ones"}, "scale": true, "trainable": true, "name": "batch_normalization_3", "center": true, "beta_constraint": null, "gamma_constraint": null, "epsilon": 0.001, "beta_regularizer": null, "gamma_regularizer": null, "beta_initializer": {"config": {}, "class_name": "Zeros"}, "momentum": 0.99, "moving_variance_initializer": {"config": {}, "class_name": "Ones"}, "axis": 1}, "class_name": "BatchNormalization", "inbound_nodes": [[["conv1d_3", 0, 0, {}]]]}, {"name": "add_1", "config": {"name": "add_1", "trainable": true}, "class_name": "Add", "inbound_nodes": [[["activation_1", 0, 0, {}], ["batch_normalization_3", 0, 0, {}]]]}, {"name": "activation_3", "config": {"name": "activation_3", "trainable": true, "activation": "relu"}, "class_name": "Activation", "inbound_nodes": [[["add_1", 0, 0, {}]]]}, {"name": "conv1d_4", "config": {"bias_constraint": null, "use_bias": true, "trainable": true, "activation": "linear", "kernel_initializer": {"config": {"seed": null, "distribution": "uniform", "mode": "fan_avg", "scale": 1.0}, "class_name": "VarianceScaling"}, "kernel_regularizer": {"config": {"l1": 0.0, "l2": 9.999999747378752e-05}, "class_name": "L1L2"}, "strides": [1], "kernel_constraint": null, "dilation_rate": [1], "activity_regularizer": null, "padding": "same", "bias_regularizer": null, "name": "conv1d_4", "kernel_size": [3], "filters": 30, "bias_initializer": {"config": {}, "class_name": "Zeros"}}, "class_name": "Conv1D", "inbound_nodes": [[["activation_3", 0, 0, {}]]]}, {"name": "batch_normalization_4", "config": {"moving_mean_initializer": {"config": {}, "class_name": "Zeros"}, "gamma_initializer": {"config": {}, "class_name": "Ones"}, "scale": true, "trainable": true, "name": "batch_normalization_4", "center": true, "beta_constraint": null, "gamma_constraint": null, "epsilon": 0.001, "beta_regularizer": null, "gamma_regularizer": null, "beta_initializer": {"config": {}, "class_name": "Zeros"}, "momentum": 0.99, "moving_variance_initializer": {"config": {}, "class_name": "Ones"}, "axis": 1}, "class_name": "BatchNormalization", "inbound_nodes": [[["conv1d_4", 0, 0, {}]]]}, {"name": "activation_4", "config": {"name": "activation_4", "trainable": true, "activation": "relu"}, "class_name": "Activation", "inbound_nodes": [[["batch_normalization_4", 0, 0, {}]]]}, {"name": "conv1d_5", "config": {"bias_constraint": null, "use_bias": true, "trainable": true, "activation": "linear", "kernel_initializer": {"config": {"seed": null, "distribution": "uniform", "mode": "fan_avg", "scale": 1.0}, "class_name": "VarianceScaling"}, "kernel_regularizer": {"config": {"l1": 0.0, "l2": 9.999999747378752e-05}, "class_name": "L1L2"}, "strides": [1], "kernel_constraint": null, "dilation_rate": [1], "activity_regularizer": null, "padding": "same", "bias_regularizer": null, "name": "conv1d_5", "kernel_size": [3], "filters": 30, "bias_initializer": {"config": {}, "class_name": "Zeros"}}, "class_name": "Conv1D", "inbound_nodes": [[["activation_4", 0, 0, {}]]]}, {"name": "batch_normalization_5", "config": {"moving_mean_initializer": {"config": {}, "class_name": "Zeros"}, "gamma_initializer": {"config": {}, "class_name": "Ones"}, "scale": true, "trainable": true, "name": "batch_normalization_5", "center": true, "beta_constraint": null, "gamma_constraint": null, "epsilon": 0.001, "beta_regularizer": null, "gamma_regularizer": null, "beta_initializer": {"config": {}, "class_name": "Zeros"}, "momentum": 0.99, "moving_variance_initializer": {"config": {}, "class_name": "Ones"}, "axis": 1}, "class_name": "BatchNormalization", "inbound_nodes": [[["conv1d_5", 0, 0, {}]]]}, {"name": "add_2", "config": {"name": "add_2", "trainable": true}, "class_name": "Add", "inbound_nodes": [[["activation_3", 0, 0, {}], ["batch_normalization_5", 0, 0, {}]]]}, {"name": "activation_5", "config": {"name": "activation_5", "trainable": true, "activation": "relu"}, "class_name": "Activation", "inbound_nodes": [[["add_2", 0, 0, {}]]]}, {"name": "conv1d_7", "config": {"bias_constraint": null, "use_bias": true, "trainable": true, "activation": "linear", "kernel_initializer": {"config": {"seed": null, "distribution": "uniform", "mode": "fan_avg", "scale": 1.0}, "class_name": "VarianceScaling"}, "kernel_regularizer": {"config": {"l1": 0.0, "l2": 9.999999747378752e-05}, "class_name": "L1L2"}, "strides": [1], "kernel_constraint": null, "dilation_rate": [1], "activity_regularizer": null, "padding": "valid", "bias_regularizer": null, "name": "conv1d_7", "kernel_size": [1], "filters": 1, "bias_initializer": {"config": {}, "class_name": "Zeros"}}, "class_name": "Conv1D", "inbound_nodes": [[["activation_5", 0, 0, {}]]]}, {"name": "conv1d_6", "config": {"bias_constraint": null, "use_bias": true, "trainable": true, "activation": "linear", "kernel_initializer": {"config": {"seed": null, "distribution": "uniform", "mode": "fan_avg", "scale": 1.0}, "class_name": "VarianceScaling"}, "kernel_regularizer": {"config": {"l1": 0.0, "l2": 9.999999747378752e-05}, "class_name": "L1L2"}, "strides": [1], "kernel_constraint": null, "dilation_rate": [1], "activity_regularizer": null, "padding": "valid", "bias_regularizer": null, "name": "conv1d_6", "kernel_size": [1], "filters": 2, "bias_initializer": {"config": {}, "class_name": "Zeros"}}, "class_name": "Conv1D", "inbound_nodes": [[["activation_5", 0, 0, {}]]]}, {"name": "batch_normalization_7", "config": {"moving_mean_initializer": {"config": {}, "class_name": "Zeros"}, "gamma_initializer": {"config": {}, "class_name": "Ones"}, "scale": true, "trainable": true, "name": "batch_normalization_7", "center": true, "beta_constraint": null, "gamma_constraint": null, "epsilon": 0.001, "beta_regularizer": null, "gamma_regularizer": null, "beta_initializer": {"config": {}, "class_name": "Zeros"}, "momentum": 0.99, "moving_variance_initializer": {"config": {}, "class_name": "Ones"}, "axis": 1}, "class_name": "BatchNormalization", "inbound_nodes": [[["conv1d_7", 0, 0, {}]]]}, {"name": "batch_normalization_6", "config": {"moving_mean_initializer": {"config": {}, "class_name": "Zeros"}, "gamma_initializer": {"config": {}, "class_name": "Ones"}, "scale": true, "trainable": true, "name": "batch_normalization_6", "center": true, "beta_constraint": null, "gamma_constraint": null, "epsilon": 0.001, "beta_regularizer": null, "gamma_regularizer": null, "beta_initializer": {"config": {}, "class_name": "Zeros"}, "momentum": 0.99, "moving_variance_initializer": {"config": {}, "class_name": "Ones"}, "axis": 1}, "class_name": "BatchNormalization", "inbound_nodes": [[["conv1d_6", 0, 0, {}]]]}, {"name": "activation_7", "config": {"name": "activation_7", "trainable": true, "activation": "relu"}, "class_name": "Activation", "inbound_nodes": [[["batch_normalization_7", 0, 0, {}]]]}, {"name": "activation_6", "config": {"name": "activation_6", "trainable": true, "activation": "relu"}, "class_name": "Activation", "inbound_nodes": [[["batch_normalization_6", 0, 0, {}]]]}, {"name": "flatten_2", "config": {"name": "flatten_2", "trainable": true}, "class_name": "Flatten", "inbound_nodes": [[["activation_7", 0, 0, {}]]]}, {"name": "flatten_1", "config": {"name": "flatten_1", "trainable": true}, "class_name": "Flatten", "inbound_nodes": [[["activation_6", 0, 0, {}]]]}, {"name": "dense_1", "config": {"bias_constraint": null, "use_bias": true, "kernel_regularizer": {"config": {"l1": 0.0, "l2": 9.999999747378752e-05}, "class_name": "L1L2"}, "trainable": true, "activation": "relu", "kernel_initializer": {"config": {"seed": null, "distribution": "uniform", "mode": "fan_avg", "scale": 1.0}, "class_name": "VarianceScaling"}, "kernel_constraint": null, "activity_regularizer": null, "units": 30, "name": "dense_1", "bias_regularizer": null, "bias_initializer": {"config": {}, "class_name": "Zeros"}}, "class_name": "Dense", "inbound_nodes": [[["flatten_2", 0, 0, {}]]]}, {"name": "policy_out", "config": {"bias_constraint": null, "use_bias": true, "kernel_regularizer": {"config": {"l1": 0.0, "l2": 9.999999747378752e-05}, "class_name": "L1L2"}, "trainable": true, "activation": "softmax", "kernel_initializer": {"config": {"seed": null, "distribution": "uniform", "mode": "fan_avg", "scale": 1.0}, "class_name": "VarianceScaling"}, "kernel_constraint": null, "activity_regularizer": null, "units": 7, "name": "policy_out", "bias_regularizer": null, "bias_initializer": {"config": {}, "class_name": "Zeros"}}, "class_name": "Dense", "inbound_nodes": [[["flatten_1", 0, 0, {}]]]}, {"name": "value_out", "config": {"bias_constraint": null, "use_bias": true, "kernel_regularizer": {"config": {"l1": 0.0, "l2": 9.999999747378752e-05}, "class_name": "L1L2"}, "trainable": true, "activation": "tanh", "kernel_initializer": {"config": {"seed": null, "distribution": "uniform", "mode": "fan_avg", "scale": 1.0}, "class_name": "VarianceScaling"}, "kernel_constraint": null, "activity_regularizer": null, "units": 1, "name": "value_out", "bias_regularizer": null, "bias_initializer": {"config": {}, "class_name": "Zeros"}}, "class_name": "Dense", "inbound_nodes": [[["dense_1", 0, 0, {}]]]}], "OptimizeCount": 0}