{"OptimizeCount": 0, "name": "animation_model", "input_layers": [["input_1", 0, 0]], "layers": [{"name": "input_1", "inbound_nodes": [], "class_name": "InputLayer", "config": {"dtype": "float32", "sparse": false, "batch_input_shape": [null, 3, 18], "name": "input_1"}}, {"name": "conv1d_1", "inbound_nodes": [[["input_1", 0, 0, {}]]], "class_name": "Conv1D", "config": {"padding": "same", "dilation_rate": [1], "kernel_regularizer": {"class_name": "L1L2", "config": {"l2": 9.999999747378752e-05, "l1": 0.0}}, "strides": [1], "kernel_initializer": {"class_name": "VarianceScaling", "config": {"seed": null, "scale": 1.0, "distribution": "uniform", "mode": "fan_avg"}}, "trainable": true, "kernel_size": [3], "use_bias": true, "activation": "linear", "bias_initializer": {"class_name": "Zeros", "config": {}}, "kernel_constraint": null, "activity_regularizer": null, "bias_regularizer": null, "name": "conv1d_1", "bias_constraint": null, "filters": 30}}, {"name": "batch_normalization_1", "inbound_nodes": [[["conv1d_1", 0, 0, {}]]], "class_name": "BatchNormalization", "config": {"momentum": 0.99, "beta_regularizer": null, "gamma_initializer": {"class_name": "Ones", "config": {}}, "trainable": true, "axis": 1, "gamma_constraint": null, "moving_mean_initializer": {"class_name": "Zeros", "config": {}}, "moving_variance_initializer": {"class_name": "Ones", "config": {}}, "scale": true, "name": "batch_normalization_1", "epsilon": 0.001, "center": true, "gamma_regularizer": null, "beta_constraint": null, "beta_initializer": {"class_name": "Zeros", "config": {}}}}, {"name": "activation_1", "inbound_nodes": [[["batch_normalization_1", 0, 0, {}]]], "class_name": "Activation", "config": {"trainable": true, "name": "activation_1", "activation": "relu"}}, {"name": "conv1d_2", "inbound_nodes": [[["activation_1", 0, 0, {}]]], "class_name": "Conv1D", "config": {"padding": "same", "dilation_rate": [1], "kernel_regularizer": {"class_name": "L1L2", "config": {"l2": 9.999999747378752e-05, "l1": 0.0}}, "strides": [1], "kernel_initializer": {"class_name": "VarianceScaling", "config": {"seed": null, "scale": 1.0, "distribution": "uniform", "mode": "fan_avg"}}, "trainable": true, "kernel_size": [3], "use_bias": true, "activation": "linear", "bias_initializer": {"class_name": "Zeros", "config": {}}, "kernel_constraint": null, "activity_regularizer": null, "bias_regularizer": null, "name": "conv1d_2", "bias_constraint": null, "filters": 30}}, {"name": "batch_normalization_2", "inbound_nodes": [[["conv1d_2", 0, 0, {}]]], "class_name": "BatchNormalization", "config": {"momentum": 0.99, "beta_regularizer": null, "gamma_initializer": {"class_name": "Ones", "config": {}}, "trainable": true, "axis": 1, "gamma_constraint": null, "moving_mean_initializer": {"class_name": "Zeros", "config": {}}, "moving_variance_initializer": {"class_name": "Ones", "config": {}}, "scale": true, "name": "batch_normalization_2", "epsilon": 0.001, "center": true, "gamma_regularizer": null, "beta_constraint": null, "beta_initializer": {"class_name": "Zeros", "config": {}}}}, {"name": "activation_2", "inbound_nodes": [[["batch_normalization_2", 0, 0, {}]]], "class_name": "Activation", "config": {"trainable": true, "name": "activation_2", "activation": "relu"}}, {"name": "conv1d_3", "inbound_nodes": [[["activation_2", 0, 0, {}]]], "class_name": "Conv1D", "config": {"padding": "same", "dilation_rate": [1], "kernel_regularizer": {"class_name": "L1L2", "config": {"l2": 9.999999747378752e-05, "l1": 0.0}}, "strides": [1], "kernel_initializer": {"class_name": "VarianceScaling", "config": {"seed": null, "scale": 1.0, "distribution": "uniform", "mode": "fan_avg"}}, "trainable": true, "kernel_size": [3], "use_bias": true, "activation": "linear", "bias_initializer": {"class_name": "Zeros", "config": {}}, "kernel_constraint": null, "activity_regularizer": null, "bias_regularizer": null, "name": "conv1d_3", "bias_constraint": null, "filters": 30}}, {"name": "batch_normalization_3", "inbound_nodes": [[["conv1d_3", 0, 0, {}]]], "class_name": "BatchNormalization", "config": {"momentum": 0.99, "beta_regularizer": null, "gamma_initializer": {"class_name": "Ones", "config": {}}, "trainable": true, "axis": 1, "gamma_constraint": null, "moving_mean_initializer": {"class_name": "Zeros", "config": {}}, "moving_variance_initializer": {"class_name": "Ones", "config": {}}, "scale": true, "name": "batch_normalization_3", "epsilon": 0.001, "center": true, "gamma_regularizer": null, "beta_constraint": null, "beta_initializer": {"class_name": "Zeros", "config": {}}}}, {"name": "add_1", "inbound_nodes": [[["activation_1", 0, 0, {}], ["batch_normalization_3", 0, 0, {}]]], "class_name": "Add", "config": {"trainable": true, "name": "add_1"}}, {"name": "activation_3", "inbound_nodes": [[["add_1", 0, 0, {}]]], "class_name": "Activation", "config": {"trainable": true, "name": "activation_3", "activation": "relu"}}, {"name": "conv1d_4", "inbound_nodes": [[["activation_3", 0, 0, {}]]], "class_name": "Conv1D", "config": {"padding": "same", "dilation_rate": [1], "kernel_regularizer": {"class_name": "L1L2", "config": {"l2": 9.999999747378752e-05, "l1": 0.0}}, "strides": [1], "kernel_initializer": {"class_name": "VarianceScaling", "config": {"seed": null, "scale": 1.0, "distribution": "uniform", "mode": "fan_avg"}}, "trainable": true, "kernel_size": [3], "use_bias": true, "activation": "linear", "bias_initializer": {"class_name": "Zeros", "config": {}}, "kernel_constraint": null, "activity_regularizer": null, "bias_regularizer": null, "name": "conv1d_4", "bias_constraint": null, "filters": 30}}, {"name": "batch_normalization_4", "inbound_nodes": [[["conv1d_4", 0, 0, {}]]], "class_name": "BatchNormalization", "config": {"momentum": 0.99, "beta_regularizer": null, "gamma_initializer": {"class_name": "Ones", "config": {}}, "trainable": true, "axis": 1, "gamma_constraint": null, "moving_mean_initializer": {"class_name": "Zeros", "config": {}}, "moving_variance_initializer": {"class_name": "Ones", "config": {}}, "scale": true, "name": "batch_normalization_4", "epsilon": 0.001, "center": true, "gamma_regularizer": null, "beta_constraint": null, "beta_initializer": {"class_name": "Zeros", "config": {}}}}, {"name": "activation_4", "inbound_nodes": [[["batch_normalization_4", 0, 0, {}]]], "class_name": "Activation", "config": {"trainable": true, "name": "activation_4", "activation": "relu"}}, {"name": "conv1d_5", "inbound_nodes": [[["activation_4", 0, 0, {}]]], "class_name": "Conv1D", "config": {"padding": "same", "dilation_rate": [1], "kernel_regularizer": {"class_name": "L1L2", "config": {"l2": 9.999999747378752e-05, "l1": 0.0}}, "strides": [1], "kernel_initializer": {"class_name": "VarianceScaling", "config": {"seed": null, "scale": 1.0, "distribution": "uniform", "mode": "fan_avg"}}, "trainable": true, "kernel_size": [3], "use_bias": true, "activation": "linear", "bias_initializer": {"class_name": "Zeros", "config": {}}, "kernel_constraint": null, "activity_regularizer": null, "bias_regularizer": null, "name": "conv1d_5", "bias_constraint": null, "filters": 30}}, {"name": "batch_normalization_5", "inbound_nodes": [[["conv1d_5", 0, 0, {}]]], "class_name": "BatchNormalization", "config": {"momentum": 0.99, "beta_regularizer": null, "gamma_initializer": {"class_name": "Ones", "config": {}}, "trainable": true, "axis": 1, "gamma_constraint": null, "moving_mean_initializer": {"class_name": "Zeros", "config": {}}, "moving_variance_initializer": {"class_name": "Ones", "config": {}}, "scale": true, "name": "batch_normalization_5", "epsilon": 0.001, "center": true, "gamma_regularizer": null, "beta_constraint": null, "beta_initializer": {"class_name": "Zeros", "config": {}}}}, {"name": "add_2", "inbound_nodes": [[["activation_3", 0, 0, {}], ["batch_normalization_5", 0, 0, {}]]], "class_name": "Add", "config": {"trainable": true, "name": "add_2"}}, {"name": "activation_5", "inbound_nodes": [[["add_2", 0, 0, {}]]], "class_name": "Activation", "config": {"trainable": true, "name": "activation_5", "activation": "relu"}}, {"name": "conv1d_7", "inbound_nodes": [[["activation_5", 0, 0, {}]]], "class_name": "Conv1D", "config": {"padding": "valid", "dilation_rate": [1], "kernel_regularizer": {"class_name": "L1L2", "config": {"l2": 9.999999747378752e-05, "l1": 0.0}}, "strides": [1], "kernel_initializer": {"class_name": "VarianceScaling", "config": {"seed": null, "scale": 1.0, "distribution": "uniform", "mode": "fan_avg"}}, "trainable": true, "kernel_size": [1], "use_bias": true, "activation": "linear", "bias_initializer": {"class_name": "Zeros", "config": {}}, "kernel_constraint": null, "activity_regularizer": null, "bias_regularizer": null, "name": "conv1d_7", "bias_constraint": null, "filters": 1}}, {"name": "conv1d_6", "inbound_nodes": [[["activation_5", 0, 0, {}]]], "class_name": "Conv1D", "config": {"padding": "valid", "dilation_rate": [1], "kernel_regularizer": {"class_name": "L1L2", "config": {"l2": 9.999999747378752e-05, "l1": 0.0}}, "strides": [1], "kernel_initializer": {"class_name": "VarianceScaling", "config": {"seed": null, "scale": 1.0, "distribution": "uniform", "mode": "fan_avg"}}, "trainable": true, "kernel_size": [1], "use_bias": true, "activation": "linear", "bias_initializer": {"class_name": "Zeros", "config": {}}, "kernel_constraint": null, "activity_regularizer": null, "bias_regularizer": null, "name": "conv1d_6", "bias_constraint": null, "filters": 2}}, {"name": "batch_normalization_7", "inbound_nodes": [[["conv1d_7", 0, 0, {}]]], "class_name": "BatchNormalization", "config": {"momentum": 0.99, "beta_regularizer": null, "gamma_initializer": {"class_name": "Ones", "config": {}}, "trainable": true, "axis": 1, "gamma_constraint": null, "moving_mean_initializer": {"class_name": "Zeros", "config": {}}, "moving_variance_initializer": {"class_name": "Ones", "config": {}}, "scale": true, "name": "batch_normalization_7", "epsilon": 0.001, "center": true, "gamma_regularizer": null, "beta_constraint": null, "beta_initializer": {"class_name": "Zeros", "config": {}}}}, {"name": "batch_normalization_6", "inbound_nodes": [[["conv1d_6", 0, 0, {}]]], "class_name": "BatchNormalization", "config": {"momentum": 0.99, "beta_regularizer": null, "gamma_initializer": {"class_name": "Ones", "config": {}}, "trainable": true, "axis": 1, "gamma_constraint": null, "moving_mean_initializer": {"class_name": "Zeros", "config": {}}, "moving_variance_initializer": {"class_name": "Ones", "config": {}}, "scale": true, "name": "batch_normalization_6", "epsilon": 0.001, "center": true, "gamma_regularizer": null, "beta_constraint": null, "beta_initializer": {"class_name": "Zeros", "config": {}}}}, {"name": "activation_7", "inbound_nodes": [[["batch_normalization_7", 0, 0, {}]]], "class_name": "Activation", "config": {"trainable": true, "name": "activation_7", "activation": "relu"}}, {"name": "activation_6", "inbound_nodes": [[["batch_normalization_6", 0, 0, {}]]], "class_name": "Activation", "config": {"trainable": true, "name": "activation_6", "activation": "relu"}}, {"name": "flatten_2", "inbound_nodes": [[["activation_7", 0, 0, {}]]], "class_name": "Flatten", "config": {"trainable": true, "name": "flatten_2"}}, {"name": "flatten_1", "inbound_nodes": [[["activation_6", 0, 0, {}]]], "class_name": "Flatten", "config": {"trainable": true, "name": "flatten_1"}}, {"name": "dense_1", "inbound_nodes": [[["flatten_2", 0, 0, {}]]], "class_name": "Dense", "config": {"bias_regularizer": null, "kernel_regularizer": {"class_name": "L1L2", "config": {"l2": 9.999999747378752e-05, "l1": 0.0}}, "kernel_initializer": {"class_name": "VarianceScaling", "config": {"seed": null, "scale": 1.0, "distribution": "uniform", "mode": "fan_avg"}}, "trainable": true, "use_bias": true, "activation": "relu", "bias_initializer": {"class_name": "Zeros", "config": {}}, "kernel_constraint": null, "activity_regularizer": null, "units": 30, "name": "dense_1", "bias_constraint": null}}, {"name": "policy_out", "inbound_nodes": [[["flatten_1", 0, 0, {}]]], "class_name": "Dense", "config": {"bias_regularizer": null, "kernel_regularizer": {"class_name": "L1L2", "config": {"l2": 9.999999747378752e-05, "l1": 0.0}}, "kernel_initializer": {"class_name": "VarianceScaling", "config": {"seed": null, "scale": 1.0, "distribution": "uniform", "mode": "fan_avg"}}, "trainable": true, "use_bias": true, "activation": "softmax", "bias_initializer": {"class_name": "Zeros", "config": {}}, "kernel_constraint": null, "activity_regularizer": null, "units": 7, "name": "policy_out", "bias_constraint": null}}, {"name": "value_out", "inbound_nodes": [[["dense_1", 0, 0, {}]]], "class_name": "Dense", "config": {"bias_regularizer": null, "kernel_regularizer": {"class_name": "L1L2", "config": {"l2": 9.999999747378752e-05, "l1": 0.0}}, "kernel_initializer": {"class_name": "VarianceScaling", "config": {"seed": null, "scale": 1.0, "distribution": "uniform", "mode": "fan_avg"}}, "trainable": true, "use_bias": true, "activation": "tanh", "bias_initializer": {"class_name": "Zeros", "config": {}}, "kernel_constraint": null, "activity_regularizer": null, "units": 1, "name": "value_out", "bias_constraint": null}}], "output_layers": [["policy_out", 0, 0], ["value_out", 0, 0]]}