{"name": "animation_model", "OptimizeCount": 0, "input_layers": [["input_1", 0, 0]], "layers": [{"class_name": "InputLayer", "name": "input_1", "config": {"sparse": false, "name": "input_1", "batch_input_shape": [null, 3, 21], "dtype": "float32"}, "inbound_nodes": []}, {"class_name": "Conv1D", "name": "conv1d_1", "config": {"kernel_initializer": {"class_name": "VarianceScaling", "config": {"scale": 1.0, "seed": null, "mode": "fan_avg", "distribution": "uniform"}}, "activation": "linear", "bias_constraint": null, "bias_regularizer": null, "activity_regularizer": null, "filters": 30, "padding": "same", "strides": [1], "bias_initializer": {"class_name": "Zeros", "config": {}}, "use_bias": true, "kernel_constraint": null, "dilation_rate": [1], "kernel_size": [3], "name": "conv1d_1", "trainable": true, "kernel_regularizer": {"class_name": "L1L2", "config": {"l1": 0.0, "l2": 9.999999747378752e-05}}}, "inbound_nodes": [[["input_1", 0, 0, {}]]]}, {"class_name": "BatchNormalization", "name": "batch_normalization_1", "config": {"trainable": true, "beta_regularizer": null, "gamma_constraint": null, "center": true, "moving_variance_initializer": {"class_name": "Ones", "config": {}}, "beta_initializer": {"class_name": "Zeros", "config": {}}, "momentum": 0.99, "beta_constraint": null, "epsilon": 0.001, "scale": true, "axis": 1, "name": "batch_normalization_1", "gamma_regularizer": null, "gamma_initializer": {"class_name": "Ones", "config": {}}, "moving_mean_initializer": {"class_name": "Zeros", "config": {}}}, "inbound_nodes": [[["conv1d_1", 0, 0, {}]]]}, {"class_name": "Activation", "name": "activation_1", "config": {"activation": "relu", "name": "activation_1", "trainable": true}, "inbound_nodes": [[["batch_normalization_1", 0, 0, {}]]]}, {"class_name": "Conv1D", "name": "conv1d_2", "config": {"kernel_initializer": {"class_name": "VarianceScaling", "config": {"scale": 1.0, "seed": null, "mode": "fan_avg", "distribution": "uniform"}}, "activation": "linear", "bias_constraint": null, "bias_regularizer": null, "activity_regularizer": null, "filters": 30, "padding": "same", "strides": [1], "bias_initializer": {"class_name": "Zeros", "config": {}}, "use_bias": true, "kernel_constraint": null, "dilation_rate": [1], "kernel_size": [3], "name": "conv1d_2", "trainable": true, "kernel_regularizer": {"class_name": "L1L2", "config": {"l1": 0.0, "l2": 9.999999747378752e-05}}}, "inbound_nodes": [[["activation_1", 0, 0, {}]]]}, {"class_name": "BatchNormalization", "name": "batch_normalization_2", "config": {"trainable": true, "beta_regularizer": null, "gamma_constraint": null, "center": true, "moving_variance_initializer": {"class_name": "Ones", "config": {}}, "beta_initializer": {"class_name": "Zeros", "config": {}}, "momentum": 0.99, "beta_constraint": null, "epsilon": 0.001, "scale": true, "axis": 1, "name": "batch_normalization_2", "gamma_regularizer": null, "gamma_initializer": {"class_name": "Ones", "config": {}}, "moving_mean_initializer": {"class_name": "Zeros", "config": {}}}, "inbound_nodes": [[["conv1d_2", 0, 0, {}]]]}, {"class_name": "Activation", "name": "activation_2", "config": {"activation": "relu", "name": "activation_2", "trainable": true}, "inbound_nodes": [[["batch_normalization_2", 0, 0, {}]]]}, {"class_name": "Conv1D", "name": "conv1d_3", "config": {"kernel_initializer": {"class_name": "VarianceScaling", "config": {"scale": 1.0, "seed": null, "mode": "fan_avg", "distribution": "uniform"}}, "activation": "linear", "bias_constraint": null, "bias_regularizer": null, "activity_regularizer": null, "filters": 30, "padding": "same", "strides": [1], "bias_initializer": {"class_name": "Zeros", "config": {}}, "use_bias": true, "kernel_constraint": null, "dilation_rate": [1], "kernel_size": [3], "name": "conv1d_3", "trainable": true, "kernel_regularizer": {"class_name": "L1L2", "config": {"l1": 0.0, "l2": 9.999999747378752e-05}}}, "inbound_nodes": [[["activation_2", 0, 0, {}]]]}, {"class_name": "BatchNormalization", "name": "batch_normalization_3", "config": {"trainable": true, "beta_regularizer": null, "gamma_constraint": null, "center": true, "moving_variance_initializer": {"class_name": "Ones", "config": {}}, "beta_initializer": {"class_name": "Zeros", "config": {}}, "momentum": 0.99, "beta_constraint": null, "epsilon": 0.001, "scale": true, "axis": 1, "name": "batch_normalization_3", "gamma_regularizer": null, "gamma_initializer": {"class_name": "Ones", "config": {}}, "moving_mean_initializer": {"class_name": "Zeros", "config": {}}}, "inbound_nodes": [[["conv1d_3", 0, 0, {}]]]}, {"class_name": "Add", "name": "add_1", "config": {"name": "add_1", "trainable": true}, "inbound_nodes": [[["activation_1", 0, 0, {}], ["batch_normalization_3", 0, 0, {}]]]}, {"class_name": "Activation", "name": "activation_3", "config": {"activation": "relu", "name": "activation_3", "trainable": true}, "inbound_nodes": [[["add_1", 0, 0, {}]]]}, {"class_name": "Conv1D", "name": "conv1d_4", "config": {"kernel_initializer": {"class_name": "VarianceScaling", "config": {"scale": 1.0, "seed": null, "mode": "fan_avg", "distribution": "uniform"}}, "activation": "linear", "bias_constraint": null, "bias_regularizer": null, "activity_regularizer": null, "filters": 30, "padding": "same", "strides": [1], "bias_initializer": {"class_name": "Zeros", "config": {}}, "use_bias": true, "kernel_constraint": null, "dilation_rate": [1], "kernel_size": [3], "name": "conv1d_4", "trainable": true, "kernel_regularizer": {"class_name": "L1L2", "config": {"l1": 0.0, "l2": 9.999999747378752e-05}}}, "inbound_nodes": [[["activation_3", 0, 0, {}]]]}, {"class_name": "BatchNormalization", "name": "batch_normalization_4", "config": {"trainable": true, "beta_regularizer": null, "gamma_constraint": null, "center": true, "moving_variance_initializer": {"class_name": "Ones", "config": {}}, "beta_initializer": {"class_name": "Zeros", "config": {}}, "momentum": 0.99, "beta_constraint": null, "epsilon": 0.001, "scale": true, "axis": 1, "name": "batch_normalization_4", "gamma_regularizer": null, "gamma_initializer": {"class_name": "Ones", "config": {}}, "moving_mean_initializer": {"class_name": "Zeros", "config": {}}}, "inbound_nodes": [[["conv1d_4", 0, 0, {}]]]}, {"class_name": "Activation", "name": "activation_4", "config": {"activation": "relu", "name": "activation_4", "trainable": true}, "inbound_nodes": [[["batch_normalization_4", 0, 0, {}]]]}, {"class_name": "Conv1D", "name": "conv1d_5", "config": {"kernel_initializer": {"class_name": "VarianceScaling", "config": {"scale": 1.0, "seed": null, "mode": "fan_avg", "distribution": "uniform"}}, "activation": "linear", "bias_constraint": null, "bias_regularizer": null, "activity_regularizer": null, "filters": 30, "padding": "same", "strides": [1], "bias_initializer": {"class_name": "Zeros", "config": {}}, "use_bias": true, "kernel_constraint": null, "dilation_rate": [1], "kernel_size": [3], "name": "conv1d_5", "trainable": true, "kernel_regularizer": {"class_name": "L1L2", "config": {"l1": 0.0, "l2": 9.999999747378752e-05}}}, "inbound_nodes": [[["activation_4", 0, 0, {}]]]}, {"class_name": "BatchNormalization", "name": "batch_normalization_5", "config": {"trainable": true, "beta_regularizer": null, "gamma_constraint": null, "center": true, "moving_variance_initializer": {"class_name": "Ones", "config": {}}, "beta_initializer": {"class_name": "Zeros", "config": {}}, "momentum": 0.99, "beta_constraint": null, "epsilon": 0.001, "scale": true, "axis": 1, "name": "batch_normalization_5", "gamma_regularizer": null, "gamma_initializer": {"class_name": "Ones", "config": {}}, "moving_mean_initializer": {"class_name": "Zeros", "config": {}}}, "inbound_nodes": [[["conv1d_5", 0, 0, {}]]]}, {"class_name": "Add", "name": "add_2", "config": {"name": "add_2", "trainable": true}, "inbound_nodes": [[["activation_3", 0, 0, {}], ["batch_normalization_5", 0, 0, {}]]]}, {"class_name": "Activation", "name": "activation_5", "config": {"activation": "relu", "name": "activation_5", "trainable": true}, "inbound_nodes": [[["add_2", 0, 0, {}]]]}, {"class_name": "Conv1D", "name": "conv1d_7", "config": {"kernel_initializer": {"class_name": "VarianceScaling", "config": {"scale": 1.0, "seed": null, "mode": "fan_avg", "distribution": "uniform"}}, "activation": "linear", "bias_constraint": null, "bias_regularizer": null, "activity_regularizer": null, "filters": 1, "padding": "valid", "strides": [1], "bias_initializer": {"class_name": "Zeros", "config": {}}, "use_bias": true, "kernel_constraint": null, "dilation_rate": [1], "kernel_size": [1], "name": "conv1d_7", "trainable": true, "kernel_regularizer": {"class_name": "L1L2", "config": {"l1": 0.0, "l2": 9.999999747378752e-05}}}, "inbound_nodes": [[["activation_5", 0, 0, {}]]]}, {"class_name": "Conv1D", "name": "conv1d_6", "config": {"kernel_initializer": {"class_name": "VarianceScaling", "config": {"scale": 1.0, "seed": null, "mode": "fan_avg", "distribution": "uniform"}}, "activation": "linear", "bias_constraint": null, "bias_regularizer": null, "activity_regularizer": null, "filters": 2, "padding": "valid", "strides": [1], "bias_initializer": {"class_name": "Zeros", "config": {}}, "use_bias": true, "kernel_constraint": null, "dilation_rate": [1], "kernel_size": [1], "name": "conv1d_6", "trainable": true, "kernel_regularizer": {"class_name": "L1L2", "config": {"l1": 0.0, "l2": 9.999999747378752e-05}}}, "inbound_nodes": [[["activation_5", 0, 0, {}]]]}, {"class_name": "BatchNormalization", "name": "batch_normalization_7", "config": {"trainable": true, "beta_regularizer": null, "gamma_constraint": null, "center": true, "moving_variance_initializer": {"class_name": "Ones", "config": {}}, "beta_initializer": {"class_name": "Zeros", "config": {}}, "momentum": 0.99, "beta_constraint": null, "epsilon": 0.001, "scale": true, "axis": 1, "name": "batch_normalization_7", "gamma_regularizer": null, "gamma_initializer": {"class_name": "Ones", "config": {}}, "moving_mean_initializer": {"class_name": "Zeros", "config": {}}}, "inbound_nodes": [[["conv1d_7", 0, 0, {}]]]}, {"class_name": "BatchNormalization", "name": "batch_normalization_6", "config": {"trainable": true, "beta_regularizer": null, "gamma_constraint": null, "center": true, "moving_variance_initializer": {"class_name": "Ones", "config": {}}, "beta_initializer": {"class_name": "Zeros", "config": {}}, "momentum": 0.99, "beta_constraint": null, "epsilon": 0.001, "scale": true, "axis": 1, "name": "batch_normalization_6", "gamma_regularizer": null, "gamma_initializer": {"class_name": "Ones", "config": {}}, "moving_mean_initializer": {"class_name": "Zeros", "config": {}}}, "inbound_nodes": [[["conv1d_6", 0, 0, {}]]]}, {"class_name": "Activation", "name": "activation_7", "config": {"activation": "relu", "name": "activation_7", "trainable": true}, "inbound_nodes": [[["batch_normalization_7", 0, 0, {}]]]}, {"class_name": "Activation", "name": "activation_6", "config": {"activation": "relu", "name": "activation_6", "trainable": true}, "inbound_nodes": [[["batch_normalization_6", 0, 0, {}]]]}, {"class_name": "Flatten", "name": "flatten_2", "config": {"name": "flatten_2", "trainable": true}, "inbound_nodes": [[["activation_7", 0, 0, {}]]]}, {"class_name": "Flatten", "name": "flatten_1", "config": {"name": "flatten_1", "trainable": true}, "inbound_nodes": [[["activation_6", 0, 0, {}]]]}, {"class_name": "Dense", "name": "dense_1", "config": {"kernel_initializer": {"class_name": "VarianceScaling", "config": {"scale": 1.0, "seed": null, "mode": "fan_avg", "distribution": "uniform"}}, "activation": "relu", "bias_constraint": null, "units": 30, "bias_regularizer": null, "bias_initializer": {"class_name": "Zeros", "config": {}}, "use_bias": true, "kernel_constraint": null, "activity_regularizer": null, "name": "dense_1", "trainable": true, "kernel_regularizer": {"class_name": "L1L2", "config": {"l1": 0.0, "l2": 9.999999747378752e-05}}}, "inbound_nodes": [[["flatten_2", 0, 0, {}]]]}, {"class_name": "Dense", "name": "policy_out", "config": {"kernel_initializer": {"class_name": "VarianceScaling", "config": {"scale": 1.0, "seed": null, "mode": "fan_avg", "distribution": "uniform"}}, "activation": "softmax", "bias_constraint": null, "units": 7, "bias_regularizer": null, "bias_initializer": {"class_name": "Zeros", "config": {}}, "use_bias": true, "kernel_constraint": null, "activity_regularizer": null, "name": "policy_out", "trainable": true, "kernel_regularizer": {"class_name": "L1L2", "config": {"l1": 0.0, "l2": 9.999999747378752e-05}}}, "inbound_nodes": [[["flatten_1", 0, 0, {}]]]}, {"class_name": "Dense", "name": "value_out", "config": {"kernel_initializer": {"class_name": "VarianceScaling", "config": {"scale": 1.0, "seed": null, "mode": "fan_avg", "distribution": "uniform"}}, "activation": "tanh", "bias_constraint": null, "units": 1, "bias_regularizer": null, "bias_initializer": {"class_name": "Zeros", "config": {}}, "use_bias": true, "kernel_constraint": null, "activity_regularizer": null, "name": "value_out", "trainable": true, "kernel_regularizer": {"class_name": "L1L2", "config": {"l1": 0.0, "l2": 9.999999747378752e-05}}}, "inbound_nodes": [[["dense_1", 0, 0, {}]]]}], "output_layers": [["policy_out", 0, 0], ["value_out", 0, 0]]}