{"layers": [{"inbound_nodes": [], "name": "input_1", "class_name": "InputLayer", "config": {"sparse": false, "dtype": "float32", "name": "input_1", "batch_input_shape": [null, 3, 18]}}, {"inbound_nodes": [[["input_1", 0, 0, {}]]], "name": "conv1d_1", "class_name": "Conv1D", "config": {"bias_regularizer": null, "padding": "same", "kernel_constraint": null, "activation": "linear", "kernel_regularizer": {"class_name": "L1L2", "config": {"l2": 9.999999747378752e-05, "l1": 0.0}}, "trainable": true, "bias_constraint": null, "kernel_initializer": {"class_name": "VarianceScaling", "config": {"seed": null, "mode": "fan_avg", "scale": 1.0, "distribution": "uniform"}}, "bias_initializer": {"class_name": "Zeros", "config": {}}, "name": "conv1d_1", "activity_regularizer": null, "kernel_size": [3], "strides": [1], "use_bias": true, "dilation_rate": [1], "filters": 50}}, {"inbound_nodes": [[["conv1d_1", 0, 0, {}]]], "name": "batch_normalization_1", "class_name": "BatchNormalization", "config": {"center": true, "axis": 1, "beta_regularizer": null, "moving_variance_initializer": {"class_name": "Ones", "config": {}}, "momentum": 0.99, "trainable": true, "scale": true, "gamma_constraint": null, "name": "batch_normalization_1", "gamma_initializer": {"class_name": "Ones", "config": {}}, "gamma_regularizer": null, "moving_mean_initializer": {"class_name": "Zeros", "config": {}}, "beta_constraint": null, "beta_initializer": {"class_name": "Zeros", "config": {}}, "epsilon": 0.001}}, {"inbound_nodes": [[["batch_normalization_1", 0, 0, {}]]], "name": "activation_1", "class_name": "Activation", "config": {"trainable": true, "name": "activation_1", "activation": "relu"}}, {"inbound_nodes": [[["activation_1", 0, 0, {}]]], "name": "conv1d_2", "class_name": "Conv1D", "config": {"bias_regularizer": null, "padding": "same", "kernel_constraint": null, "activation": "linear", "kernel_regularizer": {"class_name": "L1L2", "config": {"l2": 9.999999747378752e-05, "l1": 0.0}}, "trainable": true, "bias_constraint": null, "kernel_initializer": {"class_name": "VarianceScaling", "config": {"seed": null, "mode": "fan_avg", "scale": 1.0, "distribution": "uniform"}}, "bias_initializer": {"class_name": "Zeros", "config": {}}, "name": "conv1d_2", "activity_regularizer": null, "kernel_size": [3], "strides": [1], "use_bias": true, "dilation_rate": [1], "filters": 50}}, {"inbound_nodes": [[["conv1d_2", 0, 0, {}]]], "name": "batch_normalization_2", "class_name": "BatchNormalization", "config": {"center": true, "axis": 1, "beta_regularizer": null, "moving_variance_initializer": {"class_name": "Ones", "config": {}}, "momentum": 0.99, "trainable": true, "scale": true, "gamma_constraint": null, "name": "batch_normalization_2", "gamma_initializer": {"class_name": "Ones", "config": {}}, "gamma_regularizer": null, "moving_mean_initializer": {"class_name": "Zeros", "config": {}}, "beta_constraint": null, "beta_initializer": {"class_name": "Zeros", "config": {}}, "epsilon": 0.001}}, {"inbound_nodes": [[["batch_normalization_2", 0, 0, {}]]], "name": "activation_2", "class_name": "Activation", "config": {"trainable": true, "name": "activation_2", "activation": "relu"}}, {"inbound_nodes": [[["activation_2", 0, 0, {}]]], "name": "conv1d_3", "class_name": "Conv1D", "config": {"bias_regularizer": null, "padding": "same", "kernel_constraint": null, "activation": "linear", "kernel_regularizer": {"class_name": "L1L2", "config": {"l2": 9.999999747378752e-05, "l1": 0.0}}, "trainable": true, "bias_constraint": null, "kernel_initializer": {"class_name": "VarianceScaling", "config": {"seed": null, "mode": "fan_avg", "scale": 1.0, "distribution": "uniform"}}, "bias_initializer": {"class_name": "Zeros", "config": {}}, "name": "conv1d_3", "activity_regularizer": null, "kernel_size": [3], "strides": [1], "use_bias": true, "dilation_rate": [1], "filters": 50}}, {"inbound_nodes": [[["conv1d_3", 0, 0, {}]]], "name": "batch_normalization_3", "class_name": "BatchNormalization", "config": {"center": true, "axis": 1, "beta_regularizer": null, "moving_variance_initializer": {"class_name": "Ones", "config": {}}, "momentum": 0.99, "trainable": true, "scale": true, "gamma_constraint": null, "name": "batch_normalization_3", "gamma_initializer": {"class_name": "Ones", "config": {}}, "gamma_regularizer": null, "moving_mean_initializer": {"class_name": "Zeros", "config": {}}, "beta_constraint": null, "beta_initializer": {"class_name": "Zeros", "config": {}}, "epsilon": 0.001}}, {"inbound_nodes": [[["activation_1", 0, 0, {}], ["batch_normalization_3", 0, 0, {}]]], "name": "add_1", "class_name": "Add", "config": {"trainable": true, "name": "add_1"}}, {"inbound_nodes": [[["add_1", 0, 0, {}]]], "name": "activation_3", "class_name": "Activation", "config": {"trainable": true, "name": "activation_3", "activation": "relu"}}, {"inbound_nodes": [[["activation_3", 0, 0, {}]]], "name": "conv1d_5", "class_name": "Conv1D", "config": {"bias_regularizer": null, "padding": "valid", "kernel_constraint": null, "activation": "linear", "kernel_regularizer": {"class_name": "L1L2", "config": {"l2": 9.999999747378752e-05, "l1": 0.0}}, "trainable": true, "bias_constraint": null, "kernel_initializer": {"class_name": "VarianceScaling", "config": {"seed": null, "mode": "fan_avg", "scale": 1.0, "distribution": "uniform"}}, "bias_initializer": {"class_name": "Zeros", "config": {}}, "name": "conv1d_5", "activity_regularizer": null, "kernel_size": [1], "strides": [1], "use_bias": true, "dilation_rate": [1], "filters": 1}}, {"inbound_nodes": [[["activation_3", 0, 0, {}]]], "name": "conv1d_4", "class_name": "Conv1D", "config": {"bias_regularizer": null, "padding": "valid", "kernel_constraint": null, "activation": "linear", "kernel_regularizer": {"class_name": "L1L2", "config": {"l2": 9.999999747378752e-05, "l1": 0.0}}, "trainable": true, "bias_constraint": null, "kernel_initializer": {"class_name": "VarianceScaling", "config": {"seed": null, "mode": "fan_avg", "scale": 1.0, "distribution": "uniform"}}, "bias_initializer": {"class_name": "Zeros", "config": {}}, "name": "conv1d_4", "activity_regularizer": null, "kernel_size": [1], "strides": [1], "use_bias": true, "dilation_rate": [1], "filters": 2}}, {"inbound_nodes": [[["conv1d_5", 0, 0, {}]]], "name": "batch_normalization_5", "class_name": "BatchNormalization", "config": {"center": true, "axis": 1, "beta_regularizer": null, "moving_variance_initializer": {"class_name": "Ones", "config": {}}, "momentum": 0.99, "trainable": true, "scale": true, "gamma_constraint": null, "name": "batch_normalization_5", "gamma_initializer": {"class_name": "Ones", "config": {}}, "gamma_regularizer": null, "moving_mean_initializer": {"class_name": "Zeros", "config": {}}, "beta_constraint": null, "beta_initializer": {"class_name": "Zeros", "config": {}}, "epsilon": 0.001}}, {"inbound_nodes": [[["conv1d_4", 0, 0, {}]]], "name": "batch_normalization_4", "class_name": "BatchNormalization", "config": {"center": true, "axis": 1, "beta_regularizer": null, "moving_variance_initializer": {"class_name": "Ones", "config": {}}, "momentum": 0.99, "trainable": true, "scale": true, "gamma_constraint": null, "name": "batch_normalization_4", "gamma_initializer": {"class_name": "Ones", "config": {}}, "gamma_regularizer": null, "moving_mean_initializer": {"class_name": "Zeros", "config": {}}, "beta_constraint": null, "beta_initializer": {"class_name": "Zeros", "config": {}}, "epsilon": 0.001}}, {"inbound_nodes": [[["batch_normalization_5", 0, 0, {}]]], "name": "activation_5", "class_name": "Activation", "config": {"trainable": true, "name": "activation_5", "activation": "relu"}}, {"inbound_nodes": [[["batch_normalization_4", 0, 0, {}]]], "name": "activation_4", "class_name": "Activation", "config": {"trainable": true, "name": "activation_4", "activation": "relu"}}, {"inbound_nodes": [[["activation_5", 0, 0, {}]]], "name": "flatten_2", "class_name": "Flatten", "config": {"trainable": true, "name": "flatten_2"}}, {"inbound_nodes": [[["activation_4", 0, 0, {}]]], "name": "flatten_1", "class_name": "Flatten", "config": {"trainable": true, "name": "flatten_1"}}, {"inbound_nodes": [[["flatten_2", 0, 0, {}]]], "name": "dense_1", "class_name": "Dense", "config": {"bias_regularizer": null, "bias_initializer": {"class_name": "Zeros", "config": {}}, "kernel_constraint": null, "trainable": true, "kernel_initializer": {"class_name": "VarianceScaling", "config": {"seed": null, "mode": "fan_avg", "scale": 1.0, "distribution": "uniform"}}, "units": 30, "kernel_regularizer": {"class_name": "L1L2", "config": {"l2": 9.999999747378752e-05, "l1": 0.0}}, "bias_constraint": null, "name": "dense_1", "activity_regularizer": null, "activation": "relu", "use_bias": true}}, {"inbound_nodes": [[["flatten_1", 0, 0, {}]]], "name": "policy_out", "class_name": "Dense", "config": {"bias_regularizer": null, "bias_initializer": {"class_name": "Zeros", "config": {}}, "kernel_constraint": null, "trainable": true, "kernel_initializer": {"class_name": "VarianceScaling", "config": {"seed": null, "mode": "fan_avg", "scale": 1.0, "distribution": "uniform"}}, "units": 7, "kernel_regularizer": {"class_name": "L1L2", "config": {"l2": 9.999999747378752e-05, "l1": 0.0}}, "bias_constraint": null, "name": "policy_out", "activity_regularizer": null, "activation": "softmax", "use_bias": true}}, {"inbound_nodes": [[["dense_1", 0, 0, {}]]], "name": "value_out", "class_name": "Dense", "config": {"bias_regularizer": null, "bias_initializer": {"class_name": "Zeros", "config": {}}, "kernel_constraint": null, "trainable": true, "kernel_initializer": {"class_name": "VarianceScaling", "config": {"seed": null, "mode": "fan_avg", "scale": 1.0, "distribution": "uniform"}}, "units": 1, "kernel_regularizer": {"class_name": "L1L2", "config": {"l2": 9.999999747378752e-05, "l1": 0.0}}, "bias_constraint": null, "name": "value_out", "activity_regularizer": null, "activation": "tanh", "use_bias": true}}], "name": "animation_model", "OptimizeCount": 0, "input_layers": [["input_1", 0, 0]], "output_layers": [["policy_out", 0, 0], ["value_out", 0, 0]]}