{"OptimizeCount": 0, "TimeLimit": 0.8315712717645476, "input_layers": [["input_1", 0, 0]], "name": "animation_model", "output_layers": [["policy_out", 0, 0], ["value_out", 0, 0]], "layers": [{"class_name": "InputLayer", "config": {"dtype": "float32", "batch_input_shape": [null, 5, 26], "sparse": false, "name": "input_1"}, "name": "input_1", "inbound_nodes": []}, {"class_name": "Conv1D", "config": {"kernel_constraint": null, "trainable": true, "bias_constraint": null, "bias_regularizer": null, "activity_regularizer": null, "kernel_regularizer": {"class_name": "L1L2", "config": {"l1": 0.0, "l2": 9.999999747378752e-05}}, "kernel_initializer": {"class_name": "VarianceScaling", "config": {"distribution": "uniform", "scale": 1.0, "seed": null, "mode": "fan_avg"}}, "filters": 512, "name": "conv1d_1", "strides": [1], "activation": "linear", "kernel_size": [1], "use_bias": true, "padding": "same", "bias_initializer": {"class_name": "Zeros", "config": {}}, "dilation_rate": [1]}, "name": "conv1d_1", "inbound_nodes": [[["input_1", 0, 0, {}]]]}, {"class_name": "BatchNormalization", "config": {"trainable": true, "scale": true, "moving_variance_initializer": {"class_name": "Ones", "config": {}}, "beta_initializer": {"class_name": "Zeros", "config": {}}, "moving_mean_initializer": {"class_name": "Zeros", "config": {}}, "epsilon": 0.001, "beta_regularizer": null, "beta_constraint": null, "gamma_constraint": null, "gamma_initializer": {"class_name": "Ones", "config": {}}, "gamma_regularizer": null, "name": "batch_normalization_1", "axis": 1, "center": true, "momentum": 0.99}, "name": "batch_normalization_1", "inbound_nodes": [[["conv1d_1", 0, 0, {}]]]}, {"class_name": "Conv1D", "config": {"kernel_constraint": null, "trainable": true, "bias_constraint": null, "bias_regularizer": null, "activity_regularizer": null, "kernel_regularizer": {"class_name": "L1L2", "config": {"l1": 0.0, "l2": 9.999999747378752e-05}}, "kernel_initializer": {"class_name": "VarianceScaling", "config": {"distribution": "uniform", "scale": 1.0, "seed": null, "mode": "fan_avg"}}, "filters": 128, "name": "conv1d_2", "strides": [1], "activation": "linear", "kernel_size": [3], "use_bias": true, "padding": "same", "bias_initializer": {"class_name": "Zeros", "config": {}}, "dilation_rate": [1]}, "name": "conv1d_2", "inbound_nodes": [[["batch_normalization_1", 0, 0, {}]]]}, {"class_name": "BatchNormalization", "config": {"trainable": true, "scale": true, "moving_variance_initializer": {"class_name": "Ones", "config": {}}, "beta_initializer": {"class_name": "Zeros", "config": {}}, "moving_mean_initializer": {"class_name": "Zeros", "config": {}}, "epsilon": 0.001, "beta_regularizer": null, "beta_constraint": null, "gamma_constraint": null, "gamma_initializer": {"class_name": "Ones", "config": {}}, "gamma_regularizer": null, "name": "batch_normalization_2", "axis": 1, "center": true, "momentum": 0.99}, "name": "batch_normalization_2", "inbound_nodes": [[["conv1d_2", 0, 0, {}]]]}, {"class_name": "Activation", "config": {"trainable": true, "name": "activation_1", "activation": "relu"}, "name": "activation_1", "inbound_nodes": [[["batch_normalization_2", 0, 0, {}]]]}, {"class_name": "Conv1D", "config": {"kernel_constraint": null, "trainable": true, "bias_constraint": null, "bias_regularizer": null, "activity_regularizer": null, "kernel_regularizer": {"class_name": "L1L2", "config": {"l1": 0.0, "l2": 9.999999747378752e-05}}, "kernel_initializer": {"class_name": "VarianceScaling", "config": {"distribution": "uniform", "scale": 1.0, "seed": null, "mode": "fan_avg"}}, "filters": 128, "name": "conv1d_3", "strides": [1], "activation": "linear", "kernel_size": [3], "use_bias": true, "padding": "same", "bias_initializer": {"class_name": "Zeros", "config": {}}, "dilation_rate": [1]}, "name": "conv1d_3", "inbound_nodes": [[["activation_1", 0, 0, {}]]]}, {"class_name": "BatchNormalization", "config": {"trainable": true, "scale": true, "moving_variance_initializer": {"class_name": "Ones", "config": {}}, "beta_initializer": {"class_name": "Zeros", "config": {}}, "moving_mean_initializer": {"class_name": "Zeros", "config": {}}, "epsilon": 0.001, "beta_regularizer": null, "beta_constraint": null, "gamma_constraint": null, "gamma_initializer": {"class_name": "Ones", "config": {}}, "gamma_regularizer": null, "name": "batch_normalization_3", "axis": 1, "center": true, "momentum": 0.99}, "name": "batch_normalization_3", "inbound_nodes": [[["conv1d_3", 0, 0, {}]]]}, {"class_name": "Activation", "config": {"trainable": true, "name": "activation_2", "activation": "relu"}, "name": "activation_2", "inbound_nodes": [[["batch_normalization_3", 0, 0, {}]]]}, {"class_name": "Conv1D", "config": {"kernel_constraint": null, "trainable": true, "bias_constraint": null, "bias_regularizer": null, "activity_regularizer": null, "kernel_regularizer": {"class_name": "L1L2", "config": {"l1": 0.0, "l2": 9.999999747378752e-05}}, "kernel_initializer": {"class_name": "VarianceScaling", "config": {"distribution": "uniform", "scale": 1.0, "seed": null, "mode": "fan_avg"}}, "filters": 128, "name": "conv1d_4", "strides": [1], "activation": "linear", "kernel_size": [3], "use_bias": true, "padding": "same", "bias_initializer": {"class_name": "Zeros", "config": {}}, "dilation_rate": [1]}, "name": "conv1d_4", "inbound_nodes": [[["activation_2", 0, 0, {}]]]}, {"class_name": "BatchNormalization", "config": {"trainable": true, "scale": true, "moving_variance_initializer": {"class_name": "Ones", "config": {}}, "beta_initializer": {"class_name": "Zeros", "config": {}}, "moving_mean_initializer": {"class_name": "Zeros", "config": {}}, "epsilon": 0.001, "beta_regularizer": null, "beta_constraint": null, "gamma_constraint": null, "gamma_initializer": {"class_name": "Ones", "config": {}}, "gamma_regularizer": null, "name": "batch_normalization_4", "axis": 1, "center": true, "momentum": 0.99}, "name": "batch_normalization_4", "inbound_nodes": [[["conv1d_4", 0, 0, {}]]]}, {"class_name": "Add", "config": {"trainable": true, "name": "add_1"}, "name": "add_1", "inbound_nodes": [[["activation_1", 0, 0, {}], ["batch_normalization_4", 0, 0, {}]]]}, {"class_name": "Activation", "config": {"trainable": true, "name": "activation_3", "activation": "relu"}, "name": "activation_3", "inbound_nodes": [[["add_1", 0, 0, {}]]]}, {"class_name": "Conv1D", "config": {"kernel_constraint": null, "trainable": true, "bias_constraint": null, "bias_regularizer": null, "activity_regularizer": null, "kernel_regularizer": {"class_name": "L1L2", "config": {"l1": 0.0, "l2": 9.999999747378752e-05}}, "kernel_initializer": {"class_name": "VarianceScaling", "config": {"distribution": "uniform", "scale": 1.0, "seed": null, "mode": "fan_avg"}}, "filters": 128, "name": "conv1d_5", "strides": [1], "activation": "linear", "kernel_size": [3], "use_bias": true, "padding": "same", "bias_initializer": {"class_name": "Zeros", "config": {}}, "dilation_rate": [1]}, "name": "conv1d_5", "inbound_nodes": [[["activation_3", 0, 0, {}]]]}, {"class_name": "BatchNormalization", "config": {"trainable": true, "scale": true, "moving_variance_initializer": {"class_name": "Ones", "config": {}}, "beta_initializer": {"class_name": "Zeros", "config": {}}, "moving_mean_initializer": {"class_name": "Zeros", "config": {}}, "epsilon": 0.001, "beta_regularizer": null, "beta_constraint": null, "gamma_constraint": null, "gamma_initializer": {"class_name": "Ones", "config": {}}, "gamma_regularizer": null, "name": "batch_normalization_5", "axis": 1, "center": true, "momentum": 0.99}, "name": "batch_normalization_5", "inbound_nodes": [[["conv1d_5", 0, 0, {}]]]}, {"class_name": "Activation", "config": {"trainable": true, "name": "activation_4", "activation": "relu"}, "name": "activation_4", "inbound_nodes": [[["batch_normalization_5", 0, 0, {}]]]}, {"class_name": "Conv1D", "config": {"kernel_constraint": null, "trainable": true, "bias_constraint": null, "bias_regularizer": null, "activity_regularizer": null, "kernel_regularizer": {"class_name": "L1L2", "config": {"l1": 0.0, "l2": 9.999999747378752e-05}}, "kernel_initializer": {"class_name": "VarianceScaling", "config": {"distribution": "uniform", "scale": 1.0, "seed": null, "mode": "fan_avg"}}, "filters": 128, "name": "conv1d_6", "strides": [1], "activation": "linear", "kernel_size": [3], "use_bias": true, "padding": "same", "bias_initializer": {"class_name": "Zeros", "config": {}}, "dilation_rate": [1]}, "name": "conv1d_6", "inbound_nodes": [[["activation_4", 0, 0, {}]]]}, {"class_name": "BatchNormalization", "config": {"trainable": true, "scale": true, "moving_variance_initializer": {"class_name": "Ones", "config": {}}, "beta_initializer": {"class_name": "Zeros", "config": {}}, "moving_mean_initializer": {"class_name": "Zeros", "config": {}}, "epsilon": 0.001, "beta_regularizer": null, "beta_constraint": null, "gamma_constraint": null, "gamma_initializer": {"class_name": "Ones", "config": {}}, "gamma_regularizer": null, "name": "batch_normalization_6", "axis": 1, "center": true, "momentum": 0.99}, "name": "batch_normalization_6", "inbound_nodes": [[["conv1d_6", 0, 0, {}]]]}, {"class_name": "Add", "config": {"trainable": true, "name": "add_2"}, "name": "add_2", "inbound_nodes": [[["activation_3", 0, 0, {}], ["batch_normalization_6", 0, 0, {}]]]}, {"class_name": "Activation", "config": {"trainable": true, "name": "activation_5", "activation": "relu"}, "name": "activation_5", "inbound_nodes": [[["add_2", 0, 0, {}]]]}, {"class_name": "Conv1D", "config": {"kernel_constraint": null, "trainable": true, "bias_constraint": null, "bias_regularizer": null, "activity_regularizer": null, "kernel_regularizer": {"class_name": "L1L2", "config": {"l1": 0.0, "l2": 9.999999747378752e-05}}, "kernel_initializer": {"class_name": "VarianceScaling", "config": {"distribution": "uniform", "scale": 1.0, "seed": null, "mode": "fan_avg"}}, "filters": 128, "name": "conv1d_7", "strides": [1], "activation": "linear", "kernel_size": [3], "use_bias": true, "padding": "same", "bias_initializer": {"class_name": "Zeros", "config": {}}, "dilation_rate": [1]}, "name": "conv1d_7", "inbound_nodes": [[["activation_5", 0, 0, {}]]]}, {"class_name": "BatchNormalization", "config": {"trainable": true, "scale": true, "moving_variance_initializer": {"class_name": "Ones", "config": {}}, "beta_initializer": {"class_name": "Zeros", "config": {}}, "moving_mean_initializer": {"class_name": "Zeros", "config": {}}, "epsilon": 0.001, "beta_regularizer": null, "beta_constraint": null, "gamma_constraint": null, "gamma_initializer": {"class_name": "Ones", "config": {}}, "gamma_regularizer": null, "name": "batch_normalization_7", "axis": 1, "center": true, "momentum": 0.99}, "name": "batch_normalization_7", "inbound_nodes": [[["conv1d_7", 0, 0, {}]]]}, {"class_name": "Activation", "config": {"trainable": true, "name": "activation_6", "activation": "relu"}, "name": "activation_6", "inbound_nodes": [[["batch_normalization_7", 0, 0, {}]]]}, {"class_name": "Conv1D", "config": {"kernel_constraint": null, "trainable": true, "bias_constraint": null, "bias_regularizer": null, "activity_regularizer": null, "kernel_regularizer": {"class_name": "L1L2", "config": {"l1": 0.0, "l2": 9.999999747378752e-05}}, "kernel_initializer": {"class_name": "VarianceScaling", "config": {"distribution": "uniform", "scale": 1.0, "seed": null, "mode": "fan_avg"}}, "filters": 128, "name": "conv1d_8", "strides": [1], "activation": "linear", "kernel_size": [3], "use_bias": true, "padding": "same", "bias_initializer": {"class_name": "Zeros", "config": {}}, "dilation_rate": [1]}, "name": "conv1d_8", "inbound_nodes": [[["activation_6", 0, 0, {}]]]}, {"class_name": "BatchNormalization", "config": {"trainable": true, "scale": true, "moving_variance_initializer": {"class_name": "Ones", "config": {}}, "beta_initializer": {"class_name": "Zeros", "config": {}}, "moving_mean_initializer": {"class_name": "Zeros", "config": {}}, "epsilon": 0.001, "beta_regularizer": null, "beta_constraint": null, "gamma_constraint": null, "gamma_initializer": {"class_name": "Ones", "config": {}}, "gamma_regularizer": null, "name": "batch_normalization_8", "axis": 1, "center": true, "momentum": 0.99}, "name": "batch_normalization_8", "inbound_nodes": [[["conv1d_8", 0, 0, {}]]]}, {"class_name": "Add", "config": {"trainable": true, "name": "add_3"}, "name": "add_3", "inbound_nodes": [[["activation_5", 0, 0, {}], ["batch_normalization_8", 0, 0, {}]]]}, {"class_name": "Activation", "config": {"trainable": true, "name": "activation_7", "activation": "relu"}, "name": "activation_7", "inbound_nodes": [[["add_3", 0, 0, {}]]]}, {"class_name": "Conv1D", "config": {"kernel_constraint": null, "trainable": true, "bias_constraint": null, "bias_regularizer": null, "activity_regularizer": null, "kernel_regularizer": {"class_name": "L1L2", "config": {"l1": 0.0, "l2": 9.999999747378752e-05}}, "kernel_initializer": {"class_name": "VarianceScaling", "config": {"distribution": "uniform", "scale": 1.0, "seed": null, "mode": "fan_avg"}}, "filters": 128, "name": "conv1d_9", "strides": [1], "activation": "linear", "kernel_size": [3], "use_bias": true, "padding": "same", "bias_initializer": {"class_name": "Zeros", "config": {}}, "dilation_rate": [1]}, "name": "conv1d_9", "inbound_nodes": [[["activation_7", 0, 0, {}]]]}, {"class_name": "BatchNormalization", "config": {"trainable": true, "scale": true, "moving_variance_initializer": {"class_name": "Ones", "config": {}}, "beta_initializer": {"class_name": "Zeros", "config": {}}, "moving_mean_initializer": {"class_name": "Zeros", "config": {}}, "epsilon": 0.001, "beta_regularizer": null, "beta_constraint": null, "gamma_constraint": null, "gamma_initializer": {"class_name": "Ones", "config": {}}, "gamma_regularizer": null, "name": "batch_normalization_9", "axis": 1, "center": true, "momentum": 0.99}, "name": "batch_normalization_9", "inbound_nodes": [[["conv1d_9", 0, 0, {}]]]}, {"class_name": "Activation", "config": {"trainable": true, "name": "activation_8", "activation": "relu"}, "name": "activation_8", "inbound_nodes": [[["batch_normalization_9", 0, 0, {}]]]}, {"class_name": "Conv1D", "config": {"kernel_constraint": null, "trainable": true, "bias_constraint": null, "bias_regularizer": null, "activity_regularizer": null, "kernel_regularizer": {"class_name": "L1L2", "config": {"l1": 0.0, "l2": 9.999999747378752e-05}}, "kernel_initializer": {"class_name": "VarianceScaling", "config": {"distribution": "uniform", "scale": 1.0, "seed": null, "mode": "fan_avg"}}, "filters": 128, "name": "conv1d_10", "strides": [1], "activation": "linear", "kernel_size": [3], "use_bias": true, "padding": "same", "bias_initializer": {"class_name": "Zeros", "config": {}}, "dilation_rate": [1]}, "name": "conv1d_10", "inbound_nodes": [[["activation_8", 0, 0, {}]]]}, {"class_name": "BatchNormalization", "config": {"trainable": true, "scale": true, "moving_variance_initializer": {"class_name": "Ones", "config": {}}, "beta_initializer": {"class_name": "Zeros", "config": {}}, "moving_mean_initializer": {"class_name": "Zeros", "config": {}}, "epsilon": 0.001, "beta_regularizer": null, "beta_constraint": null, "gamma_constraint": null, "gamma_initializer": {"class_name": "Ones", "config": {}}, "gamma_regularizer": null, "name": "batch_normalization_10", "axis": 1, "center": true, "momentum": 0.99}, "name": "batch_normalization_10", "inbound_nodes": [[["conv1d_10", 0, 0, {}]]]}, {"class_name": "Add", "config": {"trainable": true, "name": "add_4"}, "name": "add_4", "inbound_nodes": [[["activation_7", 0, 0, {}], ["batch_normalization_10", 0, 0, {}]]]}, {"class_name": "Activation", "config": {"trainable": true, "name": "activation_9", "activation": "relu"}, "name": "activation_9", "inbound_nodes": [[["add_4", 0, 0, {}]]]}, {"class_name": "Conv1D", "config": {"kernel_constraint": null, "trainable": true, "bias_constraint": null, "bias_regularizer": null, "activity_regularizer": null, "kernel_regularizer": {"class_name": "L1L2", "config": {"l1": 0.0, "l2": 9.999999747378752e-05}}, "kernel_initializer": {"class_name": "VarianceScaling", "config": {"distribution": "uniform", "scale": 1.0, "seed": null, "mode": "fan_avg"}}, "filters": 128, "name": "conv1d_11", "strides": [1], "activation": "linear", "kernel_size": [3], "use_bias": true, "padding": "same", "bias_initializer": {"class_name": "Zeros", "config": {}}, "dilation_rate": [1]}, "name": "conv1d_11", "inbound_nodes": [[["activation_9", 0, 0, {}]]]}, {"class_name": "BatchNormalization", "config": {"trainable": true, "scale": true, "moving_variance_initializer": {"class_name": "Ones", "config": {}}, "beta_initializer": {"class_name": "Zeros", "config": {}}, "moving_mean_initializer": {"class_name": "Zeros", "config": {}}, "epsilon": 0.001, "beta_regularizer": null, "beta_constraint": null, "gamma_constraint": null, "gamma_initializer": {"class_name": "Ones", "config": {}}, "gamma_regularizer": null, "name": "batch_normalization_11", "axis": 1, "center": true, "momentum": 0.99}, "name": "batch_normalization_11", "inbound_nodes": [[["conv1d_11", 0, 0, {}]]]}, {"class_name": "Activation", "config": {"trainable": true, "name": "activation_10", "activation": "relu"}, "name": "activation_10", "inbound_nodes": [[["batch_normalization_11", 0, 0, {}]]]}, {"class_name": "Conv1D", "config": {"kernel_constraint": null, "trainable": true, "bias_constraint": null, "bias_regularizer": null, "activity_regularizer": null, "kernel_regularizer": {"class_name": "L1L2", "config": {"l1": 0.0, "l2": 9.999999747378752e-05}}, "kernel_initializer": {"class_name": "VarianceScaling", "config": {"distribution": "uniform", "scale": 1.0, "seed": null, "mode": "fan_avg"}}, "filters": 128, "name": "conv1d_12", "strides": [1], "activation": "linear", "kernel_size": [3], "use_bias": true, "padding": "same", "bias_initializer": {"class_name": "Zeros", "config": {}}, "dilation_rate": [1]}, "name": "conv1d_12", "inbound_nodes": [[["activation_10", 0, 0, {}]]]}, {"class_name": "BatchNormalization", "config": {"trainable": true, "scale": true, "moving_variance_initializer": {"class_name": "Ones", "config": {}}, "beta_initializer": {"class_name": "Zeros", "config": {}}, "moving_mean_initializer": {"class_name": "Zeros", "config": {}}, "epsilon": 0.001, "beta_regularizer": null, "beta_constraint": null, "gamma_constraint": null, "gamma_initializer": {"class_name": "Ones", "config": {}}, "gamma_regularizer": null, "name": "batch_normalization_12", "axis": 1, "center": true, "momentum": 0.99}, "name": "batch_normalization_12", "inbound_nodes": [[["conv1d_12", 0, 0, {}]]]}, {"class_name": "Add", "config": {"trainable": true, "name": "add_5"}, "name": "add_5", "inbound_nodes": [[["activation_9", 0, 0, {}], ["batch_normalization_12", 0, 0, {}]]]}, {"class_name": "Activation", "config": {"trainable": true, "name": "activation_11", "activation": "relu"}, "name": "activation_11", "inbound_nodes": [[["add_5", 0, 0, {}]]]}, {"class_name": "Conv1D", "config": {"kernel_constraint": null, "trainable": true, "bias_constraint": null, "bias_regularizer": null, "activity_regularizer": null, "kernel_regularizer": {"class_name": "L1L2", "config": {"l1": 0.0, "l2": 9.999999747378752e-05}}, "kernel_initializer": {"class_name": "VarianceScaling", "config": {"distribution": "uniform", "scale": 1.0, "seed": null, "mode": "fan_avg"}}, "filters": 1, "name": "conv1d_14", "strides": [1], "activation": "linear", "kernel_size": [1], "use_bias": true, "padding": "valid", "bias_initializer": {"class_name": "Zeros", "config": {}}, "dilation_rate": [1]}, "name": "conv1d_14", "inbound_nodes": [[["activation_11", 0, 0, {}]]]}, {"class_name": "Conv1D", "config": {"kernel_constraint": null, "trainable": true, "bias_constraint": null, "bias_regularizer": null, "activity_regularizer": null, "kernel_regularizer": {"class_name": "L1L2", "config": {"l1": 0.0, "l2": 9.999999747378752e-05}}, "kernel_initializer": {"class_name": "VarianceScaling", "config": {"distribution": "uniform", "scale": 1.0, "seed": null, "mode": "fan_avg"}}, "filters": 2, "name": "conv1d_13", "strides": [1], "activation": "linear", "kernel_size": [1], "use_bias": true, "padding": "valid", "bias_initializer": {"class_name": "Zeros", "config": {}}, "dilation_rate": [1]}, "name": "conv1d_13", "inbound_nodes": [[["activation_11", 0, 0, {}]]]}, {"class_name": "BatchNormalization", "config": {"trainable": true, "scale": true, "moving_variance_initializer": {"class_name": "Ones", "config": {}}, "beta_initializer": {"class_name": "Zeros", "config": {}}, "moving_mean_initializer": {"class_name": "Zeros", "config": {}}, "epsilon": 0.001, "beta_regularizer": null, "beta_constraint": null, "gamma_constraint": null, "gamma_initializer": {"class_name": "Ones", "config": {}}, "gamma_regularizer": null, "name": "batch_normalization_14", "axis": 1, "center": true, "momentum": 0.99}, "name": "batch_normalization_14", "inbound_nodes": [[["conv1d_14", 0, 0, {}]]]}, {"class_name": "BatchNormalization", "config": {"trainable": true, "scale": true, "moving_variance_initializer": {"class_name": "Ones", "config": {}}, "beta_initializer": {"class_name": "Zeros", "config": {}}, "moving_mean_initializer": {"class_name": "Zeros", "config": {}}, "epsilon": 0.001, "beta_regularizer": null, "beta_constraint": null, "gamma_constraint": null, "gamma_initializer": {"class_name": "Ones", "config": {}}, "gamma_regularizer": null, "name": "batch_normalization_13", "axis": 1, "center": true, "momentum": 0.99}, "name": "batch_normalization_13", "inbound_nodes": [[["conv1d_13", 0, 0, {}]]]}, {"class_name": "Activation", "config": {"trainable": true, "name": "activation_13", "activation": "relu"}, "name": "activation_13", "inbound_nodes": [[["batch_normalization_14", 0, 0, {}]]]}, {"class_name": "Activation", "config": {"trainable": true, "name": "activation_12", "activation": "relu"}, "name": "activation_12", "inbound_nodes": [[["batch_normalization_13", 0, 0, {}]]]}, {"class_name": "Flatten", "config": {"trainable": true, "name": "flatten_2"}, "name": "flatten_2", "inbound_nodes": [[["activation_13", 0, 0, {}]]]}, {"class_name": "Flatten", "config": {"trainable": true, "name": "flatten_1"}, "name": "flatten_1", "inbound_nodes": [[["activation_12", 0, 0, {}]]]}, {"class_name": "Dense", "config": {"kernel_constraint": null, "trainable": true, "bias_constraint": null, "bias_regularizer": null, "activation": "relu", "units": 128, "kernel_initializer": {"class_name": "VarianceScaling", "config": {"distribution": "uniform", "scale": 1.0, "seed": null, "mode": "fan_avg"}}, "kernel_regularizer": {"class_name": "L1L2", "config": {"l1": 0.0, "l2": 9.999999747378752e-05}}, "name": "dense_1", "activity_regularizer": null, "use_bias": true, "bias_initializer": {"class_name": "Zeros", "config": {}}}, "name": "dense_1", "inbound_nodes": [[["flatten_2", 0, 0, {}]]]}, {"class_name": "Dense", "config": {"kernel_constraint": null, "trainable": true, "bias_constraint": null, "bias_regularizer": null, "activation": "softmax", "units": 7, "kernel_initializer": {"class_name": "VarianceScaling", "config": {"distribution": "uniform", "scale": 1.0, "seed": null, "mode": "fan_avg"}}, "kernel_regularizer": {"class_name": "L1L2", "config": {"l1": 0.0, "l2": 9.999999747378752e-05}}, "name": "policy_out", "activity_regularizer": null, "use_bias": true, "bias_initializer": {"class_name": "Zeros", "config": {}}}, "name": "policy_out", "inbound_nodes": [[["flatten_1", 0, 0, {}]]]}, {"class_name": "Dense", "config": {"kernel_constraint": null, "trainable": true, "bias_constraint": null, "bias_regularizer": null, "activation": "tanh", "units": 100, "kernel_initializer": {"class_name": "VarianceScaling", "config": {"distribution": "uniform", "scale": 1.0, "seed": null, "mode": "fan_avg"}}, "kernel_regularizer": {"class_name": "L1L2", "config": {"l1": 0.0, "l2": 9.999999747378752e-05}}, "name": "value_out", "activity_regularizer": null, "use_bias": true, "bias_initializer": {"class_name": "Zeros", "config": {}}}, "name": "value_out", "inbound_nodes": [[["dense_1", 0, 0, {}]]]}]}