{"layers": [{"config": {"batch_input_shape": [null, 3, 21], "name": "input_1", "sparse": false, "dtype": "float32"}, "inbound_nodes": [], "name": "input_1", "class_name": "InputLayer"}, {"config": {"filters": 30, "kernel_initializer": {"config": {"distribution": "uniform", "mode": "fan_avg", "seed": null, "scale": 1.0}, "class_name": "VarianceScaling"}, "padding": "same", "dilation_rate": [1], "bias_regularizer": null, "use_bias": true, "kernel_size": [3], "kernel_regularizer": {"config": {"l1": 0.0, "l2": 9.999999747378752e-05}, "class_name": "L1L2"}, "activation": "linear", "bias_constraint": null, "name": "conv1d_1", "trainable": true, "bias_initializer": {"config": {}, "class_name": "Zeros"}, "activity_regularizer": null, "strides": [1], "kernel_constraint": null}, "inbound_nodes": [[["input_1", 0, 0, {}]]], "name": "conv1d_1", "class_name": "Conv1D"}, {"config": {"beta_initializer": {"config": {}, "class_name": "Zeros"}, "beta_constraint": null, "gamma_constraint": null, "momentum": 0.99, "epsilon": 0.001, "moving_variance_initializer": {"config": {}, "class_name": "Ones"}, "scale": true, "gamma_regularizer": null, "center": true, "beta_regularizer": null, "name": "batch_normalization_1", "trainable": true, "moving_mean_initializer": {"config": {}, "class_name": "Zeros"}, "gamma_initializer": {"config": {}, "class_name": "Ones"}, "axis": 1}, "inbound_nodes": [[["conv1d_1", 0, 0, {}]]], "name": "batch_normalization_1", "class_name": "BatchNormalization"}, {"config": {"activation": "relu", "name": "activation_1", "trainable": true}, "inbound_nodes": [[["batch_normalization_1", 0, 0, {}]]], "name": "activation_1", "class_name": "Activation"}, {"config": {"filters": 30, "kernel_initializer": {"config": {"distribution": "uniform", "mode": "fan_avg", "seed": null, "scale": 1.0}, "class_name": "VarianceScaling"}, "padding": "same", "dilation_rate": [1], "bias_regularizer": null, "use_bias": true, "kernel_size": [3], "kernel_regularizer": {"config": {"l1": 0.0, "l2": 9.999999747378752e-05}, "class_name": "L1L2"}, "activation": "linear", "bias_constraint": null, "name": "conv1d_2", "trainable": true, "bias_initializer": {"config": {}, "class_name": "Zeros"}, "activity_regularizer": null, "strides": [1], "kernel_constraint": null}, "inbound_nodes": [[["activation_1", 0, 0, {}]]], "name": "conv1d_2", "class_name": "Conv1D"}, {"config": {"beta_initializer": {"config": {}, "class_name": "Zeros"}, "beta_constraint": null, "gamma_constraint": null, "momentum": 0.99, "epsilon": 0.001, "moving_variance_initializer": {"config": {}, "class_name": "Ones"}, "scale": true, "gamma_regularizer": null, "center": true, "beta_regularizer": null, "name": "batch_normalization_2", "trainable": true, "moving_mean_initializer": {"config": {}, "class_name": "Zeros"}, "gamma_initializer": {"config": {}, "class_name": "Ones"}, "axis": 1}, "inbound_nodes": [[["conv1d_2", 0, 0, {}]]], "name": "batch_normalization_2", "class_name": "BatchNormalization"}, {"config": {"activation": "relu", "name": "activation_2", "trainable": true}, "inbound_nodes": [[["batch_normalization_2", 0, 0, {}]]], "name": "activation_2", "class_name": "Activation"}, {"config": {"filters": 30, "kernel_initializer": {"config": {"distribution": "uniform", "mode": "fan_avg", "seed": null, "scale": 1.0}, "class_name": "VarianceScaling"}, "padding": "same", "dilation_rate": [1], "bias_regularizer": null, "use_bias": true, "kernel_size": [3], "kernel_regularizer": {"config": {"l1": 0.0, "l2": 9.999999747378752e-05}, "class_name": "L1L2"}, "activation": "linear", "bias_constraint": null, "name": "conv1d_3", "trainable": true, "bias_initializer": {"config": {}, "class_name": "Zeros"}, "activity_regularizer": null, "strides": [1], "kernel_constraint": null}, "inbound_nodes": [[["activation_2", 0, 0, {}]]], "name": "conv1d_3", "class_name": "Conv1D"}, {"config": {"beta_initializer": {"config": {}, "class_name": "Zeros"}, "beta_constraint": null, "gamma_constraint": null, "momentum": 0.99, "epsilon": 0.001, "moving_variance_initializer": {"config": {}, "class_name": "Ones"}, "scale": true, "gamma_regularizer": null, "center": true, "beta_regularizer": null, "name": "batch_normalization_3", "trainable": true, "moving_mean_initializer": {"config": {}, "class_name": "Zeros"}, "gamma_initializer": {"config": {}, "class_name": "Ones"}, "axis": 1}, "inbound_nodes": [[["conv1d_3", 0, 0, {}]]], "name": "batch_normalization_3", "class_name": "BatchNormalization"}, {"config": {"name": "add_1", "trainable": true}, "inbound_nodes": [[["activation_1", 0, 0, {}], ["batch_normalization_3", 0, 0, {}]]], "name": "add_1", "class_name": "Add"}, {"config": {"activation": "relu", "name": "activation_3", "trainable": true}, "inbound_nodes": [[["add_1", 0, 0, {}]]], "name": "activation_3", "class_name": "Activation"}, {"config": {"filters": 30, "kernel_initializer": {"config": {"distribution": "uniform", "mode": "fan_avg", "seed": null, "scale": 1.0}, "class_name": "VarianceScaling"}, "padding": "same", "dilation_rate": [1], "bias_regularizer": null, "use_bias": true, "kernel_size": [3], "kernel_regularizer": {"config": {"l1": 0.0, "l2": 9.999999747378752e-05}, "class_name": "L1L2"}, "activation": "linear", "bias_constraint": null, "name": "conv1d_4", "trainable": true, "bias_initializer": {"config": {}, "class_name": "Zeros"}, "activity_regularizer": null, "strides": [1], "kernel_constraint": null}, "inbound_nodes": [[["activation_3", 0, 0, {}]]], "name": "conv1d_4", "class_name": "Conv1D"}, {"config": {"beta_initializer": {"config": {}, "class_name": "Zeros"}, "beta_constraint": null, "gamma_constraint": null, "momentum": 0.99, "epsilon": 0.001, "moving_variance_initializer": {"config": {}, "class_name": "Ones"}, "scale": true, "gamma_regularizer": null, "center": true, "beta_regularizer": null, "name": "batch_normalization_4", "trainable": true, "moving_mean_initializer": {"config": {}, "class_name": "Zeros"}, "gamma_initializer": {"config": {}, "class_name": "Ones"}, "axis": 1}, "inbound_nodes": [[["conv1d_4", 0, 0, {}]]], "name": "batch_normalization_4", "class_name": "BatchNormalization"}, {"config": {"activation": "relu", "name": "activation_4", "trainable": true}, "inbound_nodes": [[["batch_normalization_4", 0, 0, {}]]], "name": "activation_4", "class_name": "Activation"}, {"config": {"filters": 30, "kernel_initializer": {"config": {"distribution": "uniform", "mode": "fan_avg", "seed": null, "scale": 1.0}, "class_name": "VarianceScaling"}, "padding": "same", "dilation_rate": [1], "bias_regularizer": null, "use_bias": true, "kernel_size": [3], "kernel_regularizer": {"config": {"l1": 0.0, "l2": 9.999999747378752e-05}, "class_name": "L1L2"}, "activation": "linear", "bias_constraint": null, "name": "conv1d_5", "trainable": true, "bias_initializer": {"config": {}, "class_name": "Zeros"}, "activity_regularizer": null, "strides": [1], "kernel_constraint": null}, "inbound_nodes": [[["activation_4", 0, 0, {}]]], "name": "conv1d_5", "class_name": "Conv1D"}, {"config": {"beta_initializer": {"config": {}, "class_name": "Zeros"}, "beta_constraint": null, "gamma_constraint": null, "momentum": 0.99, "epsilon": 0.001, "moving_variance_initializer": {"config": {}, "class_name": "Ones"}, "scale": true, "gamma_regularizer": null, "center": true, "beta_regularizer": null, "name": "batch_normalization_5", "trainable": true, "moving_mean_initializer": {"config": {}, "class_name": "Zeros"}, "gamma_initializer": {"config": {}, "class_name": "Ones"}, "axis": 1}, "inbound_nodes": [[["conv1d_5", 0, 0, {}]]], "name": "batch_normalization_5", "class_name": "BatchNormalization"}, {"config": {"name": "add_2", "trainable": true}, "inbound_nodes": [[["activation_3", 0, 0, {}], ["batch_normalization_5", 0, 0, {}]]], "name": "add_2", "class_name": "Add"}, {"config": {"activation": "relu", "name": "activation_5", "trainable": true}, "inbound_nodes": [[["add_2", 0, 0, {}]]], "name": "activation_5", "class_name": "Activation"}, {"config": {"filters": 1, "kernel_initializer": {"config": {"distribution": "uniform", "mode": "fan_avg", "seed": null, "scale": 1.0}, "class_name": "VarianceScaling"}, "padding": "valid", "dilation_rate": [1], "bias_regularizer": null, "use_bias": true, "kernel_size": [1], "kernel_regularizer": {"config": {"l1": 0.0, "l2": 9.999999747378752e-05}, "class_name": "L1L2"}, "activation": "linear", "bias_constraint": null, "name": "conv1d_7", "trainable": true, "bias_initializer": {"config": {}, "class_name": "Zeros"}, "activity_regularizer": null, "strides": [1], "kernel_constraint": null}, "inbound_nodes": [[["activation_5", 0, 0, {}]]], "name": "conv1d_7", "class_name": "Conv1D"}, {"config": {"filters": 2, "kernel_initializer": {"config": {"distribution": "uniform", "mode": "fan_avg", "seed": null, "scale": 1.0}, "class_name": "VarianceScaling"}, "padding": "valid", "dilation_rate": [1], "bias_regularizer": null, "use_bias": true, "kernel_size": [1], "kernel_regularizer": {"config": {"l1": 0.0, "l2": 9.999999747378752e-05}, "class_name": "L1L2"}, "activation": "linear", "bias_constraint": null, "name": "conv1d_6", "trainable": true, "bias_initializer": {"config": {}, "class_name": "Zeros"}, "activity_regularizer": null, "strides": [1], "kernel_constraint": null}, "inbound_nodes": [[["activation_5", 0, 0, {}]]], "name": "conv1d_6", "class_name": "Conv1D"}, {"config": {"beta_initializer": {"config": {}, "class_name": "Zeros"}, "beta_constraint": null, "gamma_constraint": null, "momentum": 0.99, "epsilon": 0.001, "moving_variance_initializer": {"config": {}, "class_name": "Ones"}, "scale": true, "gamma_regularizer": null, "center": true, "beta_regularizer": null, "name": "batch_normalization_7", "trainable": true, "moving_mean_initializer": {"config": {}, "class_name": "Zeros"}, "gamma_initializer": {"config": {}, "class_name": "Ones"}, "axis": 1}, "inbound_nodes": [[["conv1d_7", 0, 0, {}]]], "name": "batch_normalization_7", "class_name": "BatchNormalization"}, {"config": {"beta_initializer": {"config": {}, "class_name": "Zeros"}, "beta_constraint": null, "gamma_constraint": null, "momentum": 0.99, "epsilon": 0.001, "moving_variance_initializer": {"config": {}, "class_name": "Ones"}, "scale": true, "gamma_regularizer": null, "center": true, "beta_regularizer": null, "name": "batch_normalization_6", "trainable": true, "moving_mean_initializer": {"config": {}, "class_name": "Zeros"}, "gamma_initializer": {"config": {}, "class_name": "Ones"}, "axis": 1}, "inbound_nodes": [[["conv1d_6", 0, 0, {}]]], "name": "batch_normalization_6", "class_name": "BatchNormalization"}, {"config": {"activation": "relu", "name": "activation_7", "trainable": true}, "inbound_nodes": [[["batch_normalization_7", 0, 0, {}]]], "name": "activation_7", "class_name": "Activation"}, {"config": {"activation": "relu", "name": "activation_6", "trainable": true}, "inbound_nodes": [[["batch_normalization_6", 0, 0, {}]]], "name": "activation_6", "class_name": "Activation"}, {"config": {"name": "flatten_2", "trainable": true}, "inbound_nodes": [[["activation_7", 0, 0, {}]]], "name": "flatten_2", "class_name": "Flatten"}, {"config": {"name": "flatten_1", "trainable": true}, "inbound_nodes": [[["activation_6", 0, 0, {}]]], "name": "flatten_1", "class_name": "Flatten"}, {"config": {"kernel_initializer": {"config": {"distribution": "uniform", "mode": "fan_avg", "seed": null, "scale": 1.0}, "class_name": "VarianceScaling"}, "bias_regularizer": null, "units": 30, "use_bias": true, "kernel_regularizer": {"config": {"l1": 0.0, "l2": 9.999999747378752e-05}, "class_name": "L1L2"}, "activation": "relu", "bias_constraint": null, "name": "dense_1", "trainable": true, "bias_initializer": {"config": {}, "class_name": "Zeros"}, "activity_regularizer": null, "kernel_constraint": null}, "inbound_nodes": [[["flatten_2", 0, 0, {}]]], "name": "dense_1", "class_name": "Dense"}, {"config": {"kernel_initializer": {"config": {"distribution": "uniform", "mode": "fan_avg", "seed": null, "scale": 1.0}, "class_name": "VarianceScaling"}, "bias_regularizer": null, "units": 7, "use_bias": true, "kernel_regularizer": {"config": {"l1": 0.0, "l2": 9.999999747378752e-05}, "class_name": "L1L2"}, "activation": "softmax", "bias_constraint": null, "name": "policy_out", "trainable": true, "bias_initializer": {"config": {}, "class_name": "Zeros"}, "activity_regularizer": null, "kernel_constraint": null}, "inbound_nodes": [[["flatten_1", 0, 0, {}]]], "name": "policy_out", "class_name": "Dense"}, {"config": {"kernel_initializer": {"config": {"distribution": "uniform", "mode": "fan_avg", "seed": null, "scale": 1.0}, "class_name": "VarianceScaling"}, "bias_regularizer": null, "units": 1, "use_bias": true, "kernel_regularizer": {"config": {"l1": 0.0, "l2": 9.999999747378752e-05}, "class_name": "L1L2"}, "activation": "tanh", "bias_constraint": null, "name": "value_out", "trainable": true, "bias_initializer": {"config": {}, "class_name": "Zeros"}, "activity_regularizer": null, "kernel_constraint": null}, "inbound_nodes": [[["dense_1", 0, 0, {}]]], "name": "value_out", "class_name": "Dense"}], "input_layers": [["input_1", 0, 0]], "output_layers": [["policy_out", 0, 0], ["value_out", 0, 0]], "name": "animation_model", "OptimizeCount": 24}