{"OptimizeCount": 10, "TimeLimit": 0.6, "input_layers": [["input_1", 0, 0]], "name": "animation_model", "output_layers": [["policy_out", 0, 0], ["value_out", 0, 0]], "layers": [{"config": {"sparse": false, "name": "input_1", "batch_input_shape": [null, 5, 25], "dtype": "float32"}, "name": "input_1", "inbound_nodes": [], "class_name": "InputLayer"}, {"config": {"filters": 512, "trainable": true, "kernel_regularizer": {"config": {"l2": 9.999999747378752e-05, "l1": 0.0}, "class_name": "L1L2"}, "use_bias": true, "bias_constraint": null, "kernel_constraint": null, "bias_regularizer": null, "bias_initializer": {"config": {}, "class_name": "Zeros"}, "kernel_initializer": {"config": {"scale": 1.0, "distribution": "uniform", "mode": "fan_avg", "seed": null}, "class_name": "VarianceScaling"}, "activation": "linear", "dilation_rate": [1], "padding": "same", "strides": [1], "name": "conv1d_1", "activity_regularizer": null, "kernel_size": [1]}, "name": "conv1d_1", "inbound_nodes": [[["input_1", 0, 0, {}]]], "class_name": "Conv1D"}, {"config": {"scale": true, "beta_regularizer": null, "trainable": true, "gamma_regularizer": null, "beta_initializer": {"config": {}, "class_name": "Zeros"}, "beta_constraint": null, "epsilon": 0.001, "center": true, "moving_variance_initializer": {"config": {}, "class_name": "Ones"}, "moving_mean_initializer": {"config": {}, "class_name": "Zeros"}, "momentum": 0.99, "axis": 1, "name": "batch_normalization_1", "gamma_initializer": {"config": {}, "class_name": "Ones"}, "gamma_constraint": null}, "name": "batch_normalization_1", "inbound_nodes": [[["conv1d_1", 0, 0, {}]]], "class_name": "BatchNormalization"}, {"config": {"filters": 128, "trainable": true, "kernel_regularizer": {"config": {"l2": 9.999999747378752e-05, "l1": 0.0}, "class_name": "L1L2"}, "use_bias": true, "bias_constraint": null, "kernel_constraint": null, "bias_regularizer": null, "bias_initializer": {"config": {}, "class_name": "Zeros"}, "kernel_initializer": {"config": {"scale": 1.0, "distribution": "uniform", "mode": "fan_avg", "seed": null}, "class_name": "VarianceScaling"}, "activation": "linear", "dilation_rate": [1], "padding": "same", "strides": [1], "name": "conv1d_2", "activity_regularizer": null, "kernel_size": [3]}, "name": "conv1d_2", "inbound_nodes": [[["batch_normalization_1", 0, 0, {}]]], "class_name": "Conv1D"}, {"config": {"scale": true, "beta_regularizer": null, "trainable": true, "gamma_regularizer": null, "beta_initializer": {"config": {}, "class_name": "Zeros"}, "beta_constraint": null, "epsilon": 0.001, "center": true, "moving_variance_initializer": {"config": {}, "class_name": "Ones"}, "moving_mean_initializer": {"config": {}, "class_name": "Zeros"}, "momentum": 0.99, "axis": 1, "name": "batch_normalization_2", "gamma_initializer": {"config": {}, "class_name": "Ones"}, "gamma_constraint": null}, "name": "batch_normalization_2", "inbound_nodes": [[["conv1d_2", 0, 0, {}]]], "class_name": "BatchNormalization"}, {"config": {"name": "activation_1", "trainable": true, "activation": "relu"}, "name": "activation_1", "inbound_nodes": [[["batch_normalization_2", 0, 0, {}]]], "class_name": "Activation"}, {"config": {"filters": 128, "trainable": true, "kernel_regularizer": {"config": {"l2": 9.999999747378752e-05, "l1": 0.0}, "class_name": "L1L2"}, "use_bias": true, "bias_constraint": null, "kernel_constraint": null, "bias_regularizer": null, "bias_initializer": {"config": {}, "class_name": "Zeros"}, "kernel_initializer": {"config": {"scale": 1.0, "distribution": "uniform", "mode": "fan_avg", "seed": null}, "class_name": "VarianceScaling"}, "activation": "linear", "dilation_rate": [1], "padding": "same", "strides": [1], "name": "conv1d_3", "activity_regularizer": null, "kernel_size": [3]}, "name": "conv1d_3", "inbound_nodes": [[["activation_1", 0, 0, {}]]], "class_name": "Conv1D"}, {"config": {"scale": true, "beta_regularizer": null, "trainable": true, "gamma_regularizer": null, "beta_initializer": {"config": {}, "class_name": "Zeros"}, "beta_constraint": null, "epsilon": 0.001, "center": true, "moving_variance_initializer": {"config": {}, "class_name": "Ones"}, "moving_mean_initializer": {"config": {}, "class_name": "Zeros"}, "momentum": 0.99, "axis": 1, "name": "batch_normalization_3", "gamma_initializer": {"config": {}, "class_name": "Ones"}, "gamma_constraint": null}, "name": "batch_normalization_3", "inbound_nodes": [[["conv1d_3", 0, 0, {}]]], "class_name": "BatchNormalization"}, {"config": {"name": "activation_2", "trainable": true, "activation": "relu"}, "name": "activation_2", "inbound_nodes": [[["batch_normalization_3", 0, 0, {}]]], "class_name": "Activation"}, {"config": {"filters": 128, "trainable": true, "kernel_regularizer": {"config": {"l2": 9.999999747378752e-05, "l1": 0.0}, "class_name": "L1L2"}, "use_bias": true, "bias_constraint": null, "kernel_constraint": null, "bias_regularizer": null, "bias_initializer": {"config": {}, "class_name": "Zeros"}, "kernel_initializer": {"config": {"scale": 1.0, "distribution": "uniform", "mode": "fan_avg", "seed": null}, "class_name": "VarianceScaling"}, "activation": "linear", "dilation_rate": [1], "padding": "same", "strides": [1], "name": "conv1d_4", "activity_regularizer": null, "kernel_size": [3]}, "name": "conv1d_4", "inbound_nodes": [[["activation_2", 0, 0, {}]]], "class_name": "Conv1D"}, {"config": {"scale": true, "beta_regularizer": null, "trainable": true, "gamma_regularizer": null, "beta_initializer": {"config": {}, "class_name": "Zeros"}, "beta_constraint": null, "epsilon": 0.001, "center": true, "moving_variance_initializer": {"config": {}, "class_name": "Ones"}, "moving_mean_initializer": {"config": {}, "class_name": "Zeros"}, "momentum": 0.99, "axis": 1, "name": "batch_normalization_4", "gamma_initializer": {"config": {}, "class_name": "Ones"}, "gamma_constraint": null}, "name": "batch_normalization_4", "inbound_nodes": [[["conv1d_4", 0, 0, {}]]], "class_name": "BatchNormalization"}, {"config": {"name": "add_1", "trainable": true}, "name": "add_1", "inbound_nodes": [[["activation_1", 0, 0, {}], ["batch_normalization_4", 0, 0, {}]]], "class_name": "Add"}, {"config": {"name": "activation_3", "trainable": true, "activation": "relu"}, "name": "activation_3", "inbound_nodes": [[["add_1", 0, 0, {}]]], "class_name": "Activation"}, {"config": {"filters": 128, "trainable": true, "kernel_regularizer": {"config": {"l2": 9.999999747378752e-05, "l1": 0.0}, "class_name": "L1L2"}, "use_bias": true, "bias_constraint": null, "kernel_constraint": null, "bias_regularizer": null, "bias_initializer": {"config": {}, "class_name": "Zeros"}, "kernel_initializer": {"config": {"scale": 1.0, "distribution": "uniform", "mode": "fan_avg", "seed": null}, "class_name": "VarianceScaling"}, "activation": "linear", "dilation_rate": [1], "padding": "same", "strides": [1], "name": "conv1d_5", "activity_regularizer": null, "kernel_size": [3]}, "name": "conv1d_5", "inbound_nodes": [[["activation_3", 0, 0, {}]]], "class_name": "Conv1D"}, {"config": {"scale": true, "beta_regularizer": null, "trainable": true, "gamma_regularizer": null, "beta_initializer": {"config": {}, "class_name": "Zeros"}, "beta_constraint": null, "epsilon": 0.001, "center": true, "moving_variance_initializer": {"config": {}, "class_name": "Ones"}, "moving_mean_initializer": {"config": {}, "class_name": "Zeros"}, "momentum": 0.99, "axis": 1, "name": "batch_normalization_5", "gamma_initializer": {"config": {}, "class_name": "Ones"}, "gamma_constraint": null}, "name": "batch_normalization_5", "inbound_nodes": [[["conv1d_5", 0, 0, {}]]], "class_name": "BatchNormalization"}, {"config": {"name": "activation_4", "trainable": true, "activation": "relu"}, "name": "activation_4", "inbound_nodes": [[["batch_normalization_5", 0, 0, {}]]], "class_name": "Activation"}, {"config": {"filters": 128, "trainable": true, "kernel_regularizer": {"config": {"l2": 9.999999747378752e-05, "l1": 0.0}, "class_name": "L1L2"}, "use_bias": true, "bias_constraint": null, "kernel_constraint": null, "bias_regularizer": null, "bias_initializer": {"config": {}, "class_name": "Zeros"}, "kernel_initializer": {"config": {"scale": 1.0, "distribution": "uniform", "mode": "fan_avg", "seed": null}, "class_name": "VarianceScaling"}, "activation": "linear", "dilation_rate": [1], "padding": "same", "strides": [1], "name": "conv1d_6", "activity_regularizer": null, "kernel_size": [3]}, "name": "conv1d_6", "inbound_nodes": [[["activation_4", 0, 0, {}]]], "class_name": "Conv1D"}, {"config": {"scale": true, "beta_regularizer": null, "trainable": true, "gamma_regularizer": null, "beta_initializer": {"config": {}, "class_name": "Zeros"}, "beta_constraint": null, "epsilon": 0.001, "center": true, "moving_variance_initializer": {"config": {}, "class_name": "Ones"}, "moving_mean_initializer": {"config": {}, "class_name": "Zeros"}, "momentum": 0.99, "axis": 1, "name": "batch_normalization_6", "gamma_initializer": {"config": {}, "class_name": "Ones"}, "gamma_constraint": null}, "name": "batch_normalization_6", "inbound_nodes": [[["conv1d_6", 0, 0, {}]]], "class_name": "BatchNormalization"}, {"config": {"name": "add_2", "trainable": true}, "name": "add_2", "inbound_nodes": [[["activation_3", 0, 0, {}], ["batch_normalization_6", 0, 0, {}]]], "class_name": "Add"}, {"config": {"name": "activation_5", "trainable": true, "activation": "relu"}, "name": "activation_5", "inbound_nodes": [[["add_2", 0, 0, {}]]], "class_name": "Activation"}, {"config": {"filters": 128, "trainable": true, "kernel_regularizer": {"config": {"l2": 9.999999747378752e-05, "l1": 0.0}, "class_name": "L1L2"}, "use_bias": true, "bias_constraint": null, "kernel_constraint": null, "bias_regularizer": null, "bias_initializer": {"config": {}, "class_name": "Zeros"}, "kernel_initializer": {"config": {"scale": 1.0, "distribution": "uniform", "mode": "fan_avg", "seed": null}, "class_name": "VarianceScaling"}, "activation": "linear", "dilation_rate": [1], "padding": "same", "strides": [1], "name": "conv1d_7", "activity_regularizer": null, "kernel_size": [3]}, "name": "conv1d_7", "inbound_nodes": [[["activation_5", 0, 0, {}]]], "class_name": "Conv1D"}, {"config": {"scale": true, "beta_regularizer": null, "trainable": true, "gamma_regularizer": null, "beta_initializer": {"config": {}, "class_name": "Zeros"}, "beta_constraint": null, "epsilon": 0.001, "center": true, "moving_variance_initializer": {"config": {}, "class_name": "Ones"}, "moving_mean_initializer": {"config": {}, "class_name": "Zeros"}, "momentum": 0.99, "axis": 1, "name": "batch_normalization_7", "gamma_initializer": {"config": {}, "class_name": "Ones"}, "gamma_constraint": null}, "name": "batch_normalization_7", "inbound_nodes": [[["conv1d_7", 0, 0, {}]]], "class_name": "BatchNormalization"}, {"config": {"name": "activation_6", "trainable": true, "activation": "relu"}, "name": "activation_6", "inbound_nodes": [[["batch_normalization_7", 0, 0, {}]]], "class_name": "Activation"}, {"config": {"filters": 128, "trainable": true, "kernel_regularizer": {"config": {"l2": 9.999999747378752e-05, "l1": 0.0}, "class_name": "L1L2"}, "use_bias": true, "bias_constraint": null, "kernel_constraint": null, "bias_regularizer": null, "bias_initializer": {"config": {}, "class_name": "Zeros"}, "kernel_initializer": {"config": {"scale": 1.0, "distribution": "uniform", "mode": "fan_avg", "seed": null}, "class_name": "VarianceScaling"}, "activation": "linear", "dilation_rate": [1], "padding": "same", "strides": [1], "name": "conv1d_8", "activity_regularizer": null, "kernel_size": [3]}, "name": "conv1d_8", "inbound_nodes": [[["activation_6", 0, 0, {}]]], "class_name": "Conv1D"}, {"config": {"scale": true, "beta_regularizer": null, "trainable": true, "gamma_regularizer": null, "beta_initializer": {"config": {}, "class_name": "Zeros"}, "beta_constraint": null, "epsilon": 0.001, "center": true, "moving_variance_initializer": {"config": {}, "class_name": "Ones"}, "moving_mean_initializer": {"config": {}, "class_name": "Zeros"}, "momentum": 0.99, "axis": 1, "name": "batch_normalization_8", "gamma_initializer": {"config": {}, "class_name": "Ones"}, "gamma_constraint": null}, "name": "batch_normalization_8", "inbound_nodes": [[["conv1d_8", 0, 0, {}]]], "class_name": "BatchNormalization"}, {"config": {"name": "add_3", "trainable": true}, "name": "add_3", "inbound_nodes": [[["activation_5", 0, 0, {}], ["batch_normalization_8", 0, 0, {}]]], "class_name": "Add"}, {"config": {"name": "activation_7", "trainable": true, "activation": "relu"}, "name": "activation_7", "inbound_nodes": [[["add_3", 0, 0, {}]]], "class_name": "Activation"}, {"config": {"filters": 128, "trainable": true, "kernel_regularizer": {"config": {"l2": 9.999999747378752e-05, "l1": 0.0}, "class_name": "L1L2"}, "use_bias": true, "bias_constraint": null, "kernel_constraint": null, "bias_regularizer": null, "bias_initializer": {"config": {}, "class_name": "Zeros"}, "kernel_initializer": {"config": {"scale": 1.0, "distribution": "uniform", "mode": "fan_avg", "seed": null}, "class_name": "VarianceScaling"}, "activation": "linear", "dilation_rate": [1], "padding": "same", "strides": [1], "name": "conv1d_9", "activity_regularizer": null, "kernel_size": [3]}, "name": "conv1d_9", "inbound_nodes": [[["activation_7", 0, 0, {}]]], "class_name": "Conv1D"}, {"config": {"scale": true, "beta_regularizer": null, "trainable": true, "gamma_regularizer": null, "beta_initializer": {"config": {}, "class_name": "Zeros"}, "beta_constraint": null, "epsilon": 0.001, "center": true, "moving_variance_initializer": {"config": {}, "class_name": "Ones"}, "moving_mean_initializer": {"config": {}, "class_name": "Zeros"}, "momentum": 0.99, "axis": 1, "name": "batch_normalization_9", "gamma_initializer": {"config": {}, "class_name": "Ones"}, "gamma_constraint": null}, "name": "batch_normalization_9", "inbound_nodes": [[["conv1d_9", 0, 0, {}]]], "class_name": "BatchNormalization"}, {"config": {"name": "activation_8", "trainable": true, "activation": "relu"}, "name": "activation_8", "inbound_nodes": [[["batch_normalization_9", 0, 0, {}]]], "class_name": "Activation"}, {"config": {"filters": 128, "trainable": true, "kernel_regularizer": {"config": {"l2": 9.999999747378752e-05, "l1": 0.0}, "class_name": "L1L2"}, "use_bias": true, "bias_constraint": null, "kernel_constraint": null, "bias_regularizer": null, "bias_initializer": {"config": {}, "class_name": "Zeros"}, "kernel_initializer": {"config": {"scale": 1.0, "distribution": "uniform", "mode": "fan_avg", "seed": null}, "class_name": "VarianceScaling"}, "activation": "linear", "dilation_rate": [1], "padding": "same", "strides": [1], "name": "conv1d_10", "activity_regularizer": null, "kernel_size": [3]}, "name": "conv1d_10", "inbound_nodes": [[["activation_8", 0, 0, {}]]], "class_name": "Conv1D"}, {"config": {"scale": true, "beta_regularizer": null, "trainable": true, "gamma_regularizer": null, "beta_initializer": {"config": {}, "class_name": "Zeros"}, "beta_constraint": null, "epsilon": 0.001, "center": true, "moving_variance_initializer": {"config": {}, "class_name": "Ones"}, "moving_mean_initializer": {"config": {}, "class_name": "Zeros"}, "momentum": 0.99, "axis": 1, "name": "batch_normalization_10", "gamma_initializer": {"config": {}, "class_name": "Ones"}, "gamma_constraint": null}, "name": "batch_normalization_10", "inbound_nodes": [[["conv1d_10", 0, 0, {}]]], "class_name": "BatchNormalization"}, {"config": {"name": "add_4", "trainable": true}, "name": "add_4", "inbound_nodes": [[["activation_7", 0, 0, {}], ["batch_normalization_10", 0, 0, {}]]], "class_name": "Add"}, {"config": {"name": "activation_9", "trainable": true, "activation": "relu"}, "name": "activation_9", "inbound_nodes": [[["add_4", 0, 0, {}]]], "class_name": "Activation"}, {"config": {"filters": 128, "trainable": true, "kernel_regularizer": {"config": {"l2": 9.999999747378752e-05, "l1": 0.0}, "class_name": "L1L2"}, "use_bias": true, "bias_constraint": null, "kernel_constraint": null, "bias_regularizer": null, "bias_initializer": {"config": {}, "class_name": "Zeros"}, "kernel_initializer": {"config": {"scale": 1.0, "distribution": "uniform", "mode": "fan_avg", "seed": null}, "class_name": "VarianceScaling"}, "activation": "linear", "dilation_rate": [1], "padding": "same", "strides": [1], "name": "conv1d_11", "activity_regularizer": null, "kernel_size": [3]}, "name": "conv1d_11", "inbound_nodes": [[["activation_9", 0, 0, {}]]], "class_name": "Conv1D"}, {"config": {"scale": true, "beta_regularizer": null, "trainable": true, "gamma_regularizer": null, "beta_initializer": {"config": {}, "class_name": "Zeros"}, "beta_constraint": null, "epsilon": 0.001, "center": true, "moving_variance_initializer": {"config": {}, "class_name": "Ones"}, "moving_mean_initializer": {"config": {}, "class_name": "Zeros"}, "momentum": 0.99, "axis": 1, "name": "batch_normalization_11", "gamma_initializer": {"config": {}, "class_name": "Ones"}, "gamma_constraint": null}, "name": "batch_normalization_11", "inbound_nodes": [[["conv1d_11", 0, 0, {}]]], "class_name": "BatchNormalization"}, {"config": {"name": "activation_10", "trainable": true, "activation": "relu"}, "name": "activation_10", "inbound_nodes": [[["batch_normalization_11", 0, 0, {}]]], "class_name": "Activation"}, {"config": {"filters": 128, "trainable": true, "kernel_regularizer": {"config": {"l2": 9.999999747378752e-05, "l1": 0.0}, "class_name": "L1L2"}, "use_bias": true, "bias_constraint": null, "kernel_constraint": null, "bias_regularizer": null, "bias_initializer": {"config": {}, "class_name": "Zeros"}, "kernel_initializer": {"config": {"scale": 1.0, "distribution": "uniform", "mode": "fan_avg", "seed": null}, "class_name": "VarianceScaling"}, "activation": "linear", "dilation_rate": [1], "padding": "same", "strides": [1], "name": "conv1d_12", "activity_regularizer": null, "kernel_size": [3]}, "name": "conv1d_12", "inbound_nodes": [[["activation_10", 0, 0, {}]]], "class_name": "Conv1D"}, {"config": {"scale": true, "beta_regularizer": null, "trainable": true, "gamma_regularizer": null, "beta_initializer": {"config": {}, "class_name": "Zeros"}, "beta_constraint": null, "epsilon": 0.001, "center": true, "moving_variance_initializer": {"config": {}, "class_name": "Ones"}, "moving_mean_initializer": {"config": {}, "class_name": "Zeros"}, "momentum": 0.99, "axis": 1, "name": "batch_normalization_12", "gamma_initializer": {"config": {}, "class_name": "Ones"}, "gamma_constraint": null}, "name": "batch_normalization_12", "inbound_nodes": [[["conv1d_12", 0, 0, {}]]], "class_name": "BatchNormalization"}, {"config": {"name": "add_5", "trainable": true}, "name": "add_5", "inbound_nodes": [[["activation_9", 0, 0, {}], ["batch_normalization_12", 0, 0, {}]]], "class_name": "Add"}, {"config": {"name": "activation_11", "trainable": true, "activation": "relu"}, "name": "activation_11", "inbound_nodes": [[["add_5", 0, 0, {}]]], "class_name": "Activation"}, {"config": {"filters": 1, "trainable": true, "kernel_regularizer": {"config": {"l2": 9.999999747378752e-05, "l1": 0.0}, "class_name": "L1L2"}, "use_bias": true, "bias_constraint": null, "kernel_constraint": null, "bias_regularizer": null, "bias_initializer": {"config": {}, "class_name": "Zeros"}, "kernel_initializer": {"config": {"scale": 1.0, "distribution": "uniform", "mode": "fan_avg", "seed": null}, "class_name": "VarianceScaling"}, "activation": "linear", "dilation_rate": [1], "padding": "valid", "strides": [1], "name": "conv1d_14", "activity_regularizer": null, "kernel_size": [1]}, "name": "conv1d_14", "inbound_nodes": [[["activation_11", 0, 0, {}]]], "class_name": "Conv1D"}, {"config": {"filters": 2, "trainable": true, "kernel_regularizer": {"config": {"l2": 9.999999747378752e-05, "l1": 0.0}, "class_name": "L1L2"}, "use_bias": true, "bias_constraint": null, "kernel_constraint": null, "bias_regularizer": null, "bias_initializer": {"config": {}, "class_name": "Zeros"}, "kernel_initializer": {"config": {"scale": 1.0, "distribution": "uniform", "mode": "fan_avg", "seed": null}, "class_name": "VarianceScaling"}, "activation": "linear", "dilation_rate": [1], "padding": "valid", "strides": [1], "name": "conv1d_13", "activity_regularizer": null, "kernel_size": [1]}, "name": "conv1d_13", "inbound_nodes": [[["activation_11", 0, 0, {}]]], "class_name": "Conv1D"}, {"config": {"scale": true, "beta_regularizer": null, "trainable": true, "gamma_regularizer": null, "beta_initializer": {"config": {}, "class_name": "Zeros"}, "beta_constraint": null, "epsilon": 0.001, "center": true, "moving_variance_initializer": {"config": {}, "class_name": "Ones"}, "moving_mean_initializer": {"config": {}, "class_name": "Zeros"}, "momentum": 0.99, "axis": 1, "name": "batch_normalization_14", "gamma_initializer": {"config": {}, "class_name": "Ones"}, "gamma_constraint": null}, "name": "batch_normalization_14", "inbound_nodes": [[["conv1d_14", 0, 0, {}]]], "class_name": "BatchNormalization"}, {"config": {"scale": true, "beta_regularizer": null, "trainable": true, "gamma_regularizer": null, "beta_initializer": {"config": {}, "class_name": "Zeros"}, "beta_constraint": null, "epsilon": 0.001, "center": true, "moving_variance_initializer": {"config": {}, "class_name": "Ones"}, "moving_mean_initializer": {"config": {}, "class_name": "Zeros"}, "momentum": 0.99, "axis": 1, "name": "batch_normalization_13", "gamma_initializer": {"config": {}, "class_name": "Ones"}, "gamma_constraint": null}, "name": "batch_normalization_13", "inbound_nodes": [[["conv1d_13", 0, 0, {}]]], "class_name": "BatchNormalization"}, {"config": {"name": "activation_13", "trainable": true, "activation": "relu"}, "name": "activation_13", "inbound_nodes": [[["batch_normalization_14", 0, 0, {}]]], "class_name": "Activation"}, {"config": {"name": "activation_12", "trainable": true, "activation": "relu"}, "name": "activation_12", "inbound_nodes": [[["batch_normalization_13", 0, 0, {}]]], "class_name": "Activation"}, {"config": {"name": "flatten_2", "trainable": true}, "name": "flatten_2", "inbound_nodes": [[["activation_13", 0, 0, {}]]], "class_name": "Flatten"}, {"config": {"name": "flatten_1", "trainable": true}, "name": "flatten_1", "inbound_nodes": [[["activation_12", 0, 0, {}]]], "class_name": "Flatten"}, {"config": {"trainable": true, "units": 128, "use_bias": true, "kernel_regularizer": {"config": {"l2": 9.999999747378752e-05, "l1": 0.0}, "class_name": "L1L2"}, "activation": "relu", "bias_regularizer": null, "bias_initializer": {"config": {}, "class_name": "Zeros"}, "kernel_constraint": null, "bias_constraint": null, "name": "dense_1", "activity_regularizer": null, "kernel_initializer": {"config": {"scale": 1.0, "distribution": "uniform", "mode": "fan_avg", "seed": null}, "class_name": "VarianceScaling"}}, "name": "dense_1", "inbound_nodes": [[["flatten_2", 0, 0, {}]]], "class_name": "Dense"}, {"config": {"trainable": true, "units": 7, "use_bias": true, "kernel_regularizer": {"config": {"l2": 9.999999747378752e-05, "l1": 0.0}, "class_name": "L1L2"}, "activation": "softmax", "bias_regularizer": null, "bias_initializer": {"config": {}, "class_name": "Zeros"}, "kernel_constraint": null, "bias_constraint": null, "name": "policy_out", "activity_regularizer": null, "kernel_initializer": {"config": {"scale": 1.0, "distribution": "uniform", "mode": "fan_avg", "seed": null}, "class_name": "VarianceScaling"}}, "name": "policy_out", "inbound_nodes": [[["flatten_1", 0, 0, {}]]], "class_name": "Dense"}, {"config": {"trainable": true, "units": 100, "use_bias": true, "kernel_regularizer": {"config": {"l2": 9.999999747378752e-05, "l1": 0.0}, "class_name": "L1L2"}, "activation": "tanh", "bias_regularizer": null, "bias_initializer": {"config": {}, "class_name": "Zeros"}, "kernel_constraint": null, "bias_constraint": null, "name": "value_out", "activity_regularizer": null, "kernel_initializer": {"config": {"scale": 1.0, "distribution": "uniform", "mode": "fan_avg", "seed": null}, "class_name": "VarianceScaling"}}, "name": "value_out", "inbound_nodes": [[["dense_1", 0, 0, {}]]], "class_name": "Dense"}]}