{"output_layers": [["policy_out", 0, 0], ["value_out", 0, 0]], "layers": [{"inbound_nodes": [], "name": "input_1", "config": {"dtype": "float32", "name": "input_1", "batch_input_shape": [null, 3, 21], "sparse": false}, "class_name": "InputLayer"}, {"inbound_nodes": [[["input_1", 0, 0, {}]]], "name": "conv1d_1", "config": {"kernel_size": [3], "kernel_constraint": null, "activation": "linear", "name": "conv1d_1", "use_bias": true, "bias_regularizer": null, "kernel_regularizer": {"config": {"l1": 0.0, "l2": 9.999999747378752e-05}, "class_name": "L1L2"}, "activity_regularizer": null, "dilation_rate": [1], "bias_initializer": {"config": {}, "class_name": "Zeros"}, "trainable": true, "padding": "same", "kernel_initializer": {"config": {"mode": "fan_avg", "scale": 1.0, "distribution": "uniform", "seed": null}, "class_name": "VarianceScaling"}, "filters": 30, "strides": [1], "bias_constraint": null}, "class_name": "Conv1D"}, {"inbound_nodes": [[["conv1d_1", 0, 0, {}]]], "name": "batch_normalization_1", "config": {"beta_initializer": {"config": {}, "class_name": "Zeros"}, "beta_constraint": null, "beta_regularizer": null, "scale": true, "moving_mean_initializer": {"config": {}, "class_name": "Zeros"}, "gamma_constraint": null, "trainable": true, "axis": 1, "gamma_initializer": {"config": {}, "class_name": "Ones"}, "epsilon": 0.001, "momentum": 0.99, "center": true, "name": "batch_normalization_1", "moving_variance_initializer": {"config": {}, "class_name": "Ones"}, "gamma_regularizer": null}, "class_name": "BatchNormalization"}, {"inbound_nodes": [[["batch_normalization_1", 0, 0, {}]]], "name": "activation_1", "config": {"activation": "relu", "name": "activation_1", "trainable": true}, "class_name": "Activation"}, {"inbound_nodes": [[["activation_1", 0, 0, {}]]], "name": "conv1d_2", "config": {"kernel_size": [3], "kernel_constraint": null, "activation": "linear", "name": "conv1d_2", "use_bias": true, "bias_regularizer": null, "kernel_regularizer": {"config": {"l1": 0.0, "l2": 9.999999747378752e-05}, "class_name": "L1L2"}, "activity_regularizer": null, "dilation_rate": [1], "bias_initializer": {"config": {}, "class_name": "Zeros"}, "trainable": true, "padding": "same", "kernel_initializer": {"config": {"mode": "fan_avg", "scale": 1.0, "distribution": "uniform", "seed": null}, "class_name": "VarianceScaling"}, "filters": 30, "strides": [1], "bias_constraint": null}, "class_name": "Conv1D"}, {"inbound_nodes": [[["conv1d_2", 0, 0, {}]]], "name": "batch_normalization_2", "config": {"beta_initializer": {"config": {}, "class_name": "Zeros"}, "beta_constraint": null, "beta_regularizer": null, "scale": true, "moving_mean_initializer": {"config": {}, "class_name": "Zeros"}, "gamma_constraint": null, "trainable": true, "axis": 1, "gamma_initializer": {"config": {}, "class_name": "Ones"}, "epsilon": 0.001, "momentum": 0.99, "center": true, "name": "batch_normalization_2", "moving_variance_initializer": {"config": {}, "class_name": "Ones"}, "gamma_regularizer": null}, "class_name": "BatchNormalization"}, {"inbound_nodes": [[["batch_normalization_2", 0, 0, {}]]], "name": "activation_2", "config": {"activation": "relu", "name": "activation_2", "trainable": true}, "class_name": "Activation"}, {"inbound_nodes": [[["activation_2", 0, 0, {}]]], "name": "conv1d_3", "config": {"kernel_size": [3], "kernel_constraint": null, "activation": "linear", "name": "conv1d_3", "use_bias": true, "bias_regularizer": null, "kernel_regularizer": {"config": {"l1": 0.0, "l2": 9.999999747378752e-05}, "class_name": "L1L2"}, "activity_regularizer": null, "dilation_rate": [1], "bias_initializer": {"config": {}, "class_name": "Zeros"}, "trainable": true, "padding": "same", "kernel_initializer": {"config": {"mode": "fan_avg", "scale": 1.0, "distribution": "uniform", "seed": null}, "class_name": "VarianceScaling"}, "filters": 30, "strides": [1], "bias_constraint": null}, "class_name": "Conv1D"}, {"inbound_nodes": [[["conv1d_3", 0, 0, {}]]], "name": "batch_normalization_3", "config": {"beta_initializer": {"config": {}, "class_name": "Zeros"}, "beta_constraint": null, "beta_regularizer": null, "scale": true, "moving_mean_initializer": {"config": {}, "class_name": "Zeros"}, "gamma_constraint": null, "trainable": true, "axis": 1, "gamma_initializer": {"config": {}, "class_name": "Ones"}, "epsilon": 0.001, "momentum": 0.99, "center": true, "name": "batch_normalization_3", "moving_variance_initializer": {"config": {}, "class_name": "Ones"}, "gamma_regularizer": null}, "class_name": "BatchNormalization"}, {"inbound_nodes": [[["activation_1", 0, 0, {}], ["batch_normalization_3", 0, 0, {}]]], "name": "add_1", "config": {"name": "add_1", "trainable": true}, "class_name": "Add"}, {"inbound_nodes": [[["add_1", 0, 0, {}]]], "name": "activation_3", "config": {"activation": "relu", "name": "activation_3", "trainable": true}, "class_name": "Activation"}, {"inbound_nodes": [[["activation_3", 0, 0, {}]]], "name": "conv1d_4", "config": {"kernel_size": [3], "kernel_constraint": null, "activation": "linear", "name": "conv1d_4", "use_bias": true, "bias_regularizer": null, "kernel_regularizer": {"config": {"l1": 0.0, "l2": 9.999999747378752e-05}, "class_name": "L1L2"}, "activity_regularizer": null, "dilation_rate": [1], "bias_initializer": {"config": {}, "class_name": "Zeros"}, "trainable": true, "padding": "same", "kernel_initializer": {"config": {"mode": "fan_avg", "scale": 1.0, "distribution": "uniform", "seed": null}, "class_name": "VarianceScaling"}, "filters": 30, "strides": [1], "bias_constraint": null}, "class_name": "Conv1D"}, {"inbound_nodes": [[["conv1d_4", 0, 0, {}]]], "name": "batch_normalization_4", "config": {"beta_initializer": {"config": {}, "class_name": "Zeros"}, "beta_constraint": null, "beta_regularizer": null, "scale": true, "moving_mean_initializer": {"config": {}, "class_name": "Zeros"}, "gamma_constraint": null, "trainable": true, "axis": 1, "gamma_initializer": {"config": {}, "class_name": "Ones"}, "epsilon": 0.001, "momentum": 0.99, "center": true, "name": "batch_normalization_4", "moving_variance_initializer": {"config": {}, "class_name": "Ones"}, "gamma_regularizer": null}, "class_name": "BatchNormalization"}, {"inbound_nodes": [[["batch_normalization_4", 0, 0, {}]]], "name": "activation_4", "config": {"activation": "relu", "name": "activation_4", "trainable": true}, "class_name": "Activation"}, {"inbound_nodes": [[["activation_4", 0, 0, {}]]], "name": "conv1d_5", "config": {"kernel_size": [3], "kernel_constraint": null, "activation": "linear", "name": "conv1d_5", "use_bias": true, "bias_regularizer": null, "kernel_regularizer": {"config": {"l1": 0.0, "l2": 9.999999747378752e-05}, "class_name": "L1L2"}, "activity_regularizer": null, "dilation_rate": [1], "bias_initializer": {"config": {}, "class_name": "Zeros"}, "trainable": true, "padding": "same", "kernel_initializer": {"config": {"mode": "fan_avg", "scale": 1.0, "distribution": "uniform", "seed": null}, "class_name": "VarianceScaling"}, "filters": 30, "strides": [1], "bias_constraint": null}, "class_name": "Conv1D"}, {"inbound_nodes": [[["conv1d_5", 0, 0, {}]]], "name": "batch_normalization_5", "config": {"beta_initializer": {"config": {}, "class_name": "Zeros"}, "beta_constraint": null, "beta_regularizer": null, "scale": true, "moving_mean_initializer": {"config": {}, "class_name": "Zeros"}, "gamma_constraint": null, "trainable": true, "axis": 1, "gamma_initializer": {"config": {}, "class_name": "Ones"}, "epsilon": 0.001, "momentum": 0.99, "center": true, "name": "batch_normalization_5", "moving_variance_initializer": {"config": {}, "class_name": "Ones"}, "gamma_regularizer": null}, "class_name": "BatchNormalization"}, {"inbound_nodes": [[["activation_3", 0, 0, {}], ["batch_normalization_5", 0, 0, {}]]], "name": "add_2", "config": {"name": "add_2", "trainable": true}, "class_name": "Add"}, {"inbound_nodes": [[["add_2", 0, 0, {}]]], "name": "activation_5", "config": {"activation": "relu", "name": "activation_5", "trainable": true}, "class_name": "Activation"}, {"inbound_nodes": [[["activation_5", 0, 0, {}]]], "name": "conv1d_7", "config": {"kernel_size": [1], "kernel_constraint": null, "activation": "linear", "name": "conv1d_7", "use_bias": true, "bias_regularizer": null, "kernel_regularizer": {"config": {"l1": 0.0, "l2": 9.999999747378752e-05}, "class_name": "L1L2"}, "activity_regularizer": null, "dilation_rate": [1], "bias_initializer": {"config": {}, "class_name": "Zeros"}, "trainable": true, "padding": "valid", "kernel_initializer": {"config": {"mode": "fan_avg", "scale": 1.0, "distribution": "uniform", "seed": null}, "class_name": "VarianceScaling"}, "filters": 1, "strides": [1], "bias_constraint": null}, "class_name": "Conv1D"}, {"inbound_nodes": [[["activation_5", 0, 0, {}]]], "name": "conv1d_6", "config": {"kernel_size": [1], "kernel_constraint": null, "activation": "linear", "name": "conv1d_6", "use_bias": true, "bias_regularizer": null, "kernel_regularizer": {"config": {"l1": 0.0, "l2": 9.999999747378752e-05}, "class_name": "L1L2"}, "activity_regularizer": null, "dilation_rate": [1], "bias_initializer": {"config": {}, "class_name": "Zeros"}, "trainable": true, "padding": "valid", "kernel_initializer": {"config": {"mode": "fan_avg", "scale": 1.0, "distribution": "uniform", "seed": null}, "class_name": "VarianceScaling"}, "filters": 2, "strides": [1], "bias_constraint": null}, "class_name": "Conv1D"}, {"inbound_nodes": [[["conv1d_7", 0, 0, {}]]], "name": "batch_normalization_7", "config": {"beta_initializer": {"config": {}, "class_name": "Zeros"}, "beta_constraint": null, "beta_regularizer": null, "scale": true, "moving_mean_initializer": {"config": {}, "class_name": "Zeros"}, "gamma_constraint": null, "trainable": true, "axis": 1, "gamma_initializer": {"config": {}, "class_name": "Ones"}, "epsilon": 0.001, "momentum": 0.99, "center": true, "name": "batch_normalization_7", "moving_variance_initializer": {"config": {}, "class_name": "Ones"}, "gamma_regularizer": null}, "class_name": "BatchNormalization"}, {"inbound_nodes": [[["conv1d_6", 0, 0, {}]]], "name": "batch_normalization_6", "config": {"beta_initializer": {"config": {}, "class_name": "Zeros"}, "beta_constraint": null, "beta_regularizer": null, "scale": true, "moving_mean_initializer": {"config": {}, "class_name": "Zeros"}, "gamma_constraint": null, "trainable": true, "axis": 1, "gamma_initializer": {"config": {}, "class_name": "Ones"}, "epsilon": 0.001, "momentum": 0.99, "center": true, "name": "batch_normalization_6", "moving_variance_initializer": {"config": {}, "class_name": "Ones"}, "gamma_regularizer": null}, "class_name": "BatchNormalization"}, {"inbound_nodes": [[["batch_normalization_7", 0, 0, {}]]], "name": "activation_7", "config": {"activation": "relu", "name": "activation_7", "trainable": true}, "class_name": "Activation"}, {"inbound_nodes": [[["batch_normalization_6", 0, 0, {}]]], "name": "activation_6", "config": {"activation": "relu", "name": "activation_6", "trainable": true}, "class_name": "Activation"}, {"inbound_nodes": [[["activation_7", 0, 0, {}]]], "name": "flatten_2", "config": {"name": "flatten_2", "trainable": true}, "class_name": "Flatten"}, {"inbound_nodes": [[["activation_6", 0, 0, {}]]], "name": "flatten_1", "config": {"name": "flatten_1", "trainable": true}, "class_name": "Flatten"}, {"inbound_nodes": [[["flatten_2", 0, 0, {}]]], "name": "dense_1", "config": {"units": 30, "bias_constraint": null, "kernel_constraint": null, "activation": "relu", "name": "dense_1", "use_bias": true, "bias_regularizer": null, "kernel_regularizer": {"config": {"l1": 0.0, "l2": 9.999999747378752e-05}, "class_name": "L1L2"}, "activity_regularizer": null, "bias_initializer": {"config": {}, "class_name": "Zeros"}, "trainable": true, "kernel_initializer": {"config": {"mode": "fan_avg", "scale": 1.0, "distribution": "uniform", "seed": null}, "class_name": "VarianceScaling"}}, "class_name": "Dense"}, {"inbound_nodes": [[["flatten_1", 0, 0, {}]]], "name": "policy_out", "config": {"units": 7, "bias_constraint": null, "kernel_constraint": null, "activation": "softmax", "name": "policy_out", "use_bias": true, "bias_regularizer": null, "kernel_regularizer": {"config": {"l1": 0.0, "l2": 9.999999747378752e-05}, "class_name": "L1L2"}, "activity_regularizer": null, "bias_initializer": {"config": {}, "class_name": "Zeros"}, "trainable": true, "kernel_initializer": {"config": {"mode": "fan_avg", "scale": 1.0, "distribution": "uniform", "seed": null}, "class_name": "VarianceScaling"}}, "class_name": "Dense"}, {"inbound_nodes": [[["dense_1", 0, 0, {}]]], "name": "value_out", "config": {"units": 1, "bias_constraint": null, "kernel_constraint": null, "activation": "tanh", "name": "value_out", "use_bias": true, "bias_regularizer": null, "kernel_regularizer": {"config": {"l1": 0.0, "l2": 9.999999747378752e-05}, "class_name": "L1L2"}, "activity_regularizer": null, "bias_initializer": {"config": {}, "class_name": "Zeros"}, "trainable": true, "kernel_initializer": {"config": {"mode": "fan_avg", "scale": 1.0, "distribution": "uniform", "seed": null}, "class_name": "VarianceScaling"}}, "class_name": "Dense"}], "name": "animation_model", "input_layers": [["input_1", 0, 0]], "OptimizeCount": 2}