{"layers": [{"inbound_nodes": [], "config": {"sparse": false, "dtype": "float32", "batch_input_shape": [null, 3, 21], "name": "input_1"}, "class_name": "InputLayer", "name": "input_1"}, {"inbound_nodes": [[["input_1", 0, 0, {}]]], "config": {"bias_constraint": null, "kernel_constraint": null, "filters": 30, "kernel_size": [3], "bias_initializer": {"class_name": "Zeros", "config": {}}, "name": "conv1d_1", "trainable": true, "activity_regularizer": null, "use_bias": true, "bias_regularizer": null, "strides": [1], "padding": "same", "kernel_regularizer": {"class_name": "L1L2", "config": {"l1": 0.0, "l2": 9.999999747378752e-05}}, "dilation_rate": [1], "kernel_initializer": {"class_name": "VarianceScaling", "config": {"mode": "fan_avg", "distribution": "uniform", "scale": 1.0, "seed": null}}, "activation": "linear"}, "class_name": "Conv1D", "name": "conv1d_1"}, {"inbound_nodes": [[["conv1d_1", 0, 0, {}]]], "config": {"trainable": true, "momentum": 0.99, "gamma_regularizer": null, "beta_constraint": null, "moving_variance_initializer": {"class_name": "Ones", "config": {}}, "center": true, "moving_mean_initializer": {"class_name": "Zeros", "config": {}}, "beta_initializer": {"class_name": "Zeros", "config": {}}, "gamma_initializer": {"class_name": "Ones", "config": {}}, "beta_regularizer": null, "scale": true, "epsilon": 0.001, "gamma_constraint": null, "axis": 1, "name": "batch_normalization_1"}, "class_name": "BatchNormalization", "name": "batch_normalization_1"}, {"inbound_nodes": [[["batch_normalization_1", 0, 0, {}]]], "config": {"trainable": true, "activation": "relu", "name": "activation_1"}, "class_name": "Activation", "name": "activation_1"}, {"inbound_nodes": [[["activation_1", 0, 0, {}]]], "config": {"bias_constraint": null, "kernel_constraint": null, "filters": 30, "kernel_size": [3], "bias_initializer": {"class_name": "Zeros", "config": {}}, "name": "conv1d_2", "trainable": true, "activity_regularizer": null, "use_bias": true, "bias_regularizer": null, "strides": [1], "padding": "same", "kernel_regularizer": {"class_name": "L1L2", "config": {"l1": 0.0, "l2": 9.999999747378752e-05}}, "dilation_rate": [1], "kernel_initializer": {"class_name": "VarianceScaling", "config": {"mode": "fan_avg", "distribution": "uniform", "scale": 1.0, "seed": null}}, "activation": "linear"}, "class_name": "Conv1D", "name": "conv1d_2"}, {"inbound_nodes": [[["conv1d_2", 0, 0, {}]]], "config": {"trainable": true, "momentum": 0.99, "gamma_regularizer": null, "beta_constraint": null, "moving_variance_initializer": {"class_name": "Ones", "config": {}}, "center": true, "moving_mean_initializer": {"class_name": "Zeros", "config": {}}, "beta_initializer": {"class_name": "Zeros", "config": {}}, "gamma_initializer": {"class_name": "Ones", "config": {}}, "beta_regularizer": null, "scale": true, "epsilon": 0.001, "gamma_constraint": null, "axis": 1, "name": "batch_normalization_2"}, "class_name": "BatchNormalization", "name": "batch_normalization_2"}, {"inbound_nodes": [[["batch_normalization_2", 0, 0, {}]]], "config": {"trainable": true, "activation": "relu", "name": "activation_2"}, "class_name": "Activation", "name": "activation_2"}, {"inbound_nodes": [[["activation_2", 0, 0, {}]]], "config": {"bias_constraint": null, "kernel_constraint": null, "filters": 30, "kernel_size": [3], "bias_initializer": {"class_name": "Zeros", "config": {}}, "name": "conv1d_3", "trainable": true, "activity_regularizer": null, "use_bias": true, "bias_regularizer": null, "strides": [1], "padding": "same", "kernel_regularizer": {"class_name": "L1L2", "config": {"l1": 0.0, "l2": 9.999999747378752e-05}}, "dilation_rate": [1], "kernel_initializer": {"class_name": "VarianceScaling", "config": {"mode": "fan_avg", "distribution": "uniform", "scale": 1.0, "seed": null}}, "activation": "linear"}, "class_name": "Conv1D", "name": "conv1d_3"}, {"inbound_nodes": [[["conv1d_3", 0, 0, {}]]], "config": {"trainable": true, "momentum": 0.99, "gamma_regularizer": null, "beta_constraint": null, "moving_variance_initializer": {"class_name": "Ones", "config": {}}, "center": true, "moving_mean_initializer": {"class_name": "Zeros", "config": {}}, "beta_initializer": {"class_name": "Zeros", "config": {}}, "gamma_initializer": {"class_name": "Ones", "config": {}}, "beta_regularizer": null, "scale": true, "epsilon": 0.001, "gamma_constraint": null, "axis": 1, "name": "batch_normalization_3"}, "class_name": "BatchNormalization", "name": "batch_normalization_3"}, {"inbound_nodes": [[["activation_1", 0, 0, {}], ["batch_normalization_3", 0, 0, {}]]], "config": {"trainable": true, "name": "add_1"}, "class_name": "Add", "name": "add_1"}, {"inbound_nodes": [[["add_1", 0, 0, {}]]], "config": {"trainable": true, "activation": "relu", "name": "activation_3"}, "class_name": "Activation", "name": "activation_3"}, {"inbound_nodes": [[["activation_3", 0, 0, {}]]], "config": {"bias_constraint": null, "kernel_constraint": null, "filters": 30, "kernel_size": [3], "bias_initializer": {"class_name": "Zeros", "config": {}}, "name": "conv1d_4", "trainable": true, "activity_regularizer": null, "use_bias": true, "bias_regularizer": null, "strides": [1], "padding": "same", "kernel_regularizer": {"class_name": "L1L2", "config": {"l1": 0.0, "l2": 9.999999747378752e-05}}, "dilation_rate": [1], "kernel_initializer": {"class_name": "VarianceScaling", "config": {"mode": "fan_avg", "distribution": "uniform", "scale": 1.0, "seed": null}}, "activation": "linear"}, "class_name": "Conv1D", "name": "conv1d_4"}, {"inbound_nodes": [[["conv1d_4", 0, 0, {}]]], "config": {"trainable": true, "momentum": 0.99, "gamma_regularizer": null, "beta_constraint": null, "moving_variance_initializer": {"class_name": "Ones", "config": {}}, "center": true, "moving_mean_initializer": {"class_name": "Zeros", "config": {}}, "beta_initializer": {"class_name": "Zeros", "config": {}}, "gamma_initializer": {"class_name": "Ones", "config": {}}, "beta_regularizer": null, "scale": true, "epsilon": 0.001, "gamma_constraint": null, "axis": 1, "name": "batch_normalization_4"}, "class_name": "BatchNormalization", "name": "batch_normalization_4"}, {"inbound_nodes": [[["batch_normalization_4", 0, 0, {}]]], "config": {"trainable": true, "activation": "relu", "name": "activation_4"}, "class_name": "Activation", "name": "activation_4"}, {"inbound_nodes": [[["activation_4", 0, 0, {}]]], "config": {"bias_constraint": null, "kernel_constraint": null, "filters": 30, "kernel_size": [3], "bias_initializer": {"class_name": "Zeros", "config": {}}, "name": "conv1d_5", "trainable": true, "activity_regularizer": null, "use_bias": true, "bias_regularizer": null, "strides": [1], "padding": "same", "kernel_regularizer": {"class_name": "L1L2", "config": {"l1": 0.0, "l2": 9.999999747378752e-05}}, "dilation_rate": [1], "kernel_initializer": {"class_name": "VarianceScaling", "config": {"mode": "fan_avg", "distribution": "uniform", "scale": 1.0, "seed": null}}, "activation": "linear"}, "class_name": "Conv1D", "name": "conv1d_5"}, {"inbound_nodes": [[["conv1d_5", 0, 0, {}]]], "config": {"trainable": true, "momentum": 0.99, "gamma_regularizer": null, "beta_constraint": null, "moving_variance_initializer": {"class_name": "Ones", "config": {}}, "center": true, "moving_mean_initializer": {"class_name": "Zeros", "config": {}}, "beta_initializer": {"class_name": "Zeros", "config": {}}, "gamma_initializer": {"class_name": "Ones", "config": {}}, "beta_regularizer": null, "scale": true, "epsilon": 0.001, "gamma_constraint": null, "axis": 1, "name": "batch_normalization_5"}, "class_name": "BatchNormalization", "name": "batch_normalization_5"}, {"inbound_nodes": [[["activation_3", 0, 0, {}], ["batch_normalization_5", 0, 0, {}]]], "config": {"trainable": true, "name": "add_2"}, "class_name": "Add", "name": "add_2"}, {"inbound_nodes": [[["add_2", 0, 0, {}]]], "config": {"trainable": true, "activation": "relu", "name": "activation_5"}, "class_name": "Activation", "name": "activation_5"}, {"inbound_nodes": [[["activation_5", 0, 0, {}]]], "config": {"bias_constraint": null, "kernel_constraint": null, "filters": 1, "kernel_size": [1], "bias_initializer": {"class_name": "Zeros", "config": {}}, "name": "conv1d_7", "trainable": true, "activity_regularizer": null, "use_bias": true, "bias_regularizer": null, "strides": [1], "padding": "valid", "kernel_regularizer": {"class_name": "L1L2", "config": {"l1": 0.0, "l2": 9.999999747378752e-05}}, "dilation_rate": [1], "kernel_initializer": {"class_name": "VarianceScaling", "config": {"mode": "fan_avg", "distribution": "uniform", "scale": 1.0, "seed": null}}, "activation": "linear"}, "class_name": "Conv1D", "name": "conv1d_7"}, {"inbound_nodes": [[["activation_5", 0, 0, {}]]], "config": {"bias_constraint": null, "kernel_constraint": null, "filters": 2, "kernel_size": [1], "bias_initializer": {"class_name": "Zeros", "config": {}}, "name": "conv1d_6", "trainable": true, "activity_regularizer": null, "use_bias": true, "bias_regularizer": null, "strides": [1], "padding": "valid", "kernel_regularizer": {"class_name": "L1L2", "config": {"l1": 0.0, "l2": 9.999999747378752e-05}}, "dilation_rate": [1], "kernel_initializer": {"class_name": "VarianceScaling", "config": {"mode": "fan_avg", "distribution": "uniform", "scale": 1.0, "seed": null}}, "activation": "linear"}, "class_name": "Conv1D", "name": "conv1d_6"}, {"inbound_nodes": [[["conv1d_7", 0, 0, {}]]], "config": {"trainable": true, "momentum": 0.99, "gamma_regularizer": null, "beta_constraint": null, "moving_variance_initializer": {"class_name": "Ones", "config": {}}, "center": true, "moving_mean_initializer": {"class_name": "Zeros", "config": {}}, "beta_initializer": {"class_name": "Zeros", "config": {}}, "gamma_initializer": {"class_name": "Ones", "config": {}}, "beta_regularizer": null, "scale": true, "epsilon": 0.001, "gamma_constraint": null, "axis": 1, "name": "batch_normalization_7"}, "class_name": "BatchNormalization", "name": "batch_normalization_7"}, {"inbound_nodes": [[["conv1d_6", 0, 0, {}]]], "config": {"trainable": true, "momentum": 0.99, "gamma_regularizer": null, "beta_constraint": null, "moving_variance_initializer": {"class_name": "Ones", "config": {}}, "center": true, "moving_mean_initializer": {"class_name": "Zeros", "config": {}}, "beta_initializer": {"class_name": "Zeros", "config": {}}, "gamma_initializer": {"class_name": "Ones", "config": {}}, "beta_regularizer": null, "scale": true, "epsilon": 0.001, "gamma_constraint": null, "axis": 1, "name": "batch_normalization_6"}, "class_name": "BatchNormalization", "name": "batch_normalization_6"}, {"inbound_nodes": [[["batch_normalization_7", 0, 0, {}]]], "config": {"trainable": true, "activation": "relu", "name": "activation_7"}, "class_name": "Activation", "name": "activation_7"}, {"inbound_nodes": [[["batch_normalization_6", 0, 0, {}]]], "config": {"trainable": true, "activation": "relu", "name": "activation_6"}, "class_name": "Activation", "name": "activation_6"}, {"inbound_nodes": [[["activation_7", 0, 0, {}]]], "config": {"trainable": true, "name": "flatten_2"}, "class_name": "Flatten", "name": "flatten_2"}, {"inbound_nodes": [[["activation_6", 0, 0, {}]]], "config": {"trainable": true, "name": "flatten_1"}, "class_name": "Flatten", "name": "flatten_1"}, {"inbound_nodes": [[["flatten_2", 0, 0, {}]]], "config": {"bias_constraint": null, "kernel_constraint": null, "bias_initializer": {"class_name": "Zeros", "config": {}}, "name": "dense_1", "trainable": true, "activity_regularizer": null, "use_bias": true, "activation": "relu", "units": 30, "kernel_regularizer": {"class_name": "L1L2", "config": {"l1": 0.0, "l2": 9.999999747378752e-05}}, "kernel_initializer": {"class_name": "VarianceScaling", "config": {"mode": "fan_avg", "distribution": "uniform", "scale": 1.0, "seed": null}}, "bias_regularizer": null}, "class_name": "Dense", "name": "dense_1"}, {"inbound_nodes": [[["flatten_1", 0, 0, {}]]], "config": {"bias_constraint": null, "kernel_constraint": null, "bias_initializer": {"class_name": "Zeros", "config": {}}, "name": "policy_out", "trainable": true, "activity_regularizer": null, "use_bias": true, "activation": "softmax", "units": 7, "kernel_regularizer": {"class_name": "L1L2", "config": {"l1": 0.0, "l2": 9.999999747378752e-05}}, "kernel_initializer": {"class_name": "VarianceScaling", "config": {"mode": "fan_avg", "distribution": "uniform", "scale": 1.0, "seed": null}}, "bias_regularizer": null}, "class_name": "Dense", "name": "policy_out"}, {"inbound_nodes": [[["dense_1", 0, 0, {}]]], "config": {"bias_constraint": null, "kernel_constraint": null, "bias_initializer": {"class_name": "Zeros", "config": {}}, "name": "value_out", "trainable": true, "activity_regularizer": null, "use_bias": true, "activation": "tanh", "units": 1, "kernel_regularizer": {"class_name": "L1L2", "config": {"l1": 0.0, "l2": 9.999999747378752e-05}}, "kernel_initializer": {"class_name": "VarianceScaling", "config": {"mode": "fan_avg", "distribution": "uniform", "scale": 1.0, "seed": null}}, "bias_regularizer": null}, "class_name": "Dense", "name": "value_out"}], "output_layers": [["policy_out", 0, 0], ["value_out", 0, 0]], "input_layers": [["input_1", 0, 0]], "OptimizeCount": 0, "name": "animation_model"}