{"output_layers": [["policy_out", 0, 0], ["value_out", 0, 0]], "input_layers": [["input_1", 0, 0]], "layers": [{"class_name": "InputLayer", "config": {"dtype": "float32", "batch_input_shape": [null, 3, 21], "sparse": false, "name": "input_1"}, "inbound_nodes": [], "name": "input_1"}, {"class_name": "Conv1D", "config": {"padding": "same", "bias_constraint": null, "filters": 30, "trainable": true, "activity_regularizer": null, "dilation_rate": [1], "kernel_constraint": null, "bias_initializer": {"class_name": "Zeros", "config": {}}, "name": "conv1d_1", "kernel_initializer": {"class_name": "VarianceScaling", "config": {"scale": 1.0, "distribution": "uniform", "seed": null, "mode": "fan_avg"}}, "strides": [1], "bias_regularizer": null, "kernel_size": [3], "use_bias": true, "activation": "linear", "kernel_regularizer": {"class_name": "L1L2", "config": {"l1": 0.0, "l2": 9.999999747378752e-05}}}, "inbound_nodes": [[["input_1", 0, 0, {}]]], "name": "conv1d_1"}, {"class_name": "BatchNormalization", "config": {"scale": true, "gamma_regularizer": null, "gamma_constraint": null, "center": true, "trainable": true, "moving_variance_initializer": {"class_name": "Ones", "config": {}}, "axis": 1, "beta_constraint": null, "beta_initializer": {"class_name": "Zeros", "config": {}}, "momentum": 0.99, "epsilon": 0.001, "moving_mean_initializer": {"class_name": "Zeros", "config": {}}, "beta_regularizer": null, "gamma_initializer": {"class_name": "Ones", "config": {}}, "name": "batch_normalization_1"}, "inbound_nodes": [[["conv1d_1", 0, 0, {}]]], "name": "batch_normalization_1"}, {"class_name": "Activation", "config": {"trainable": true, "activation": "relu", "name": "activation_1"}, "inbound_nodes": [[["batch_normalization_1", 0, 0, {}]]], "name": "activation_1"}, {"class_name": "Conv1D", "config": {"padding": "same", "bias_constraint": null, "filters": 30, "trainable": true, "activity_regularizer": null, "dilation_rate": [1], "kernel_constraint": null, "bias_initializer": {"class_name": "Zeros", "config": {}}, "name": "conv1d_2", "kernel_initializer": {"class_name": "VarianceScaling", "config": {"scale": 1.0, "distribution": "uniform", "seed": null, "mode": "fan_avg"}}, "strides": [1], "bias_regularizer": null, "kernel_size": [3], "use_bias": true, "activation": "linear", "kernel_regularizer": {"class_name": "L1L2", "config": {"l1": 0.0, "l2": 9.999999747378752e-05}}}, "inbound_nodes": [[["activation_1", 0, 0, {}]]], "name": "conv1d_2"}, {"class_name": "BatchNormalization", "config": {"scale": true, "gamma_regularizer": null, "gamma_constraint": null, "center": true, "trainable": true, "moving_variance_initializer": {"class_name": "Ones", "config": {}}, "axis": 1, "beta_constraint": null, "beta_initializer": {"class_name": "Zeros", "config": {}}, "momentum": 0.99, "epsilon": 0.001, "moving_mean_initializer": {"class_name": "Zeros", "config": {}}, "beta_regularizer": null, "gamma_initializer": {"class_name": "Ones", "config": {}}, "name": "batch_normalization_2"}, "inbound_nodes": [[["conv1d_2", 0, 0, {}]]], "name": "batch_normalization_2"}, {"class_name": "Activation", "config": {"trainable": true, "activation": "relu", "name": "activation_2"}, "inbound_nodes": [[["batch_normalization_2", 0, 0, {}]]], "name": "activation_2"}, {"class_name": "Conv1D", "config": {"padding": "same", "bias_constraint": null, "filters": 30, "trainable": true, "activity_regularizer": null, "dilation_rate": [1], "kernel_constraint": null, "bias_initializer": {"class_name": "Zeros", "config": {}}, "name": "conv1d_3", "kernel_initializer": {"class_name": "VarianceScaling", "config": {"scale": 1.0, "distribution": "uniform", "seed": null, "mode": "fan_avg"}}, "strides": [1], "bias_regularizer": null, "kernel_size": [3], "use_bias": true, "activation": "linear", "kernel_regularizer": {"class_name": "L1L2", "config": {"l1": 0.0, "l2": 9.999999747378752e-05}}}, "inbound_nodes": [[["activation_2", 0, 0, {}]]], "name": "conv1d_3"}, {"class_name": "BatchNormalization", "config": {"scale": true, "gamma_regularizer": null, "gamma_constraint": null, "center": true, "trainable": true, "moving_variance_initializer": {"class_name": "Ones", "config": {}}, "axis": 1, "beta_constraint": null, "beta_initializer": {"class_name": "Zeros", "config": {}}, "momentum": 0.99, "epsilon": 0.001, "moving_mean_initializer": {"class_name": "Zeros", "config": {}}, "beta_regularizer": null, "gamma_initializer": {"class_name": "Ones", "config": {}}, "name": "batch_normalization_3"}, "inbound_nodes": [[["conv1d_3", 0, 0, {}]]], "name": "batch_normalization_3"}, {"class_name": "Add", "config": {"trainable": true, "name": "add_1"}, "inbound_nodes": [[["activation_1", 0, 0, {}], ["batch_normalization_3", 0, 0, {}]]], "name": "add_1"}, {"class_name": "Activation", "config": {"trainable": true, "activation": "relu", "name": "activation_3"}, "inbound_nodes": [[["add_1", 0, 0, {}]]], "name": "activation_3"}, {"class_name": "Conv1D", "config": {"padding": "same", "bias_constraint": null, "filters": 30, "trainable": true, "activity_regularizer": null, "dilation_rate": [1], "kernel_constraint": null, "bias_initializer": {"class_name": "Zeros", "config": {}}, "name": "conv1d_4", "kernel_initializer": {"class_name": "VarianceScaling", "config": {"scale": 1.0, "distribution": "uniform", "seed": null, "mode": "fan_avg"}}, "strides": [1], "bias_regularizer": null, "kernel_size": [3], "use_bias": true, "activation": "linear", "kernel_regularizer": {"class_name": "L1L2", "config": {"l1": 0.0, "l2": 9.999999747378752e-05}}}, "inbound_nodes": [[["activation_3", 0, 0, {}]]], "name": "conv1d_4"}, {"class_name": "BatchNormalization", "config": {"scale": true, "gamma_regularizer": null, "gamma_constraint": null, "center": true, "trainable": true, "moving_variance_initializer": {"class_name": "Ones", "config": {}}, "axis": 1, "beta_constraint": null, "beta_initializer": {"class_name": "Zeros", "config": {}}, "momentum": 0.99, "epsilon": 0.001, "moving_mean_initializer": {"class_name": "Zeros", "config": {}}, "beta_regularizer": null, "gamma_initializer": {"class_name": "Ones", "config": {}}, "name": "batch_normalization_4"}, "inbound_nodes": [[["conv1d_4", 0, 0, {}]]], "name": "batch_normalization_4"}, {"class_name": "Activation", "config": {"trainable": true, "activation": "relu", "name": "activation_4"}, "inbound_nodes": [[["batch_normalization_4", 0, 0, {}]]], "name": "activation_4"}, {"class_name": "Conv1D", "config": {"padding": "same", "bias_constraint": null, "filters": 30, "trainable": true, "activity_regularizer": null, "dilation_rate": [1], "kernel_constraint": null, "bias_initializer": {"class_name": "Zeros", "config": {}}, "name": "conv1d_5", "kernel_initializer": {"class_name": "VarianceScaling", "config": {"scale": 1.0, "distribution": "uniform", "seed": null, "mode": "fan_avg"}}, "strides": [1], "bias_regularizer": null, "kernel_size": [3], "use_bias": true, "activation": "linear", "kernel_regularizer": {"class_name": "L1L2", "config": {"l1": 0.0, "l2": 9.999999747378752e-05}}}, "inbound_nodes": [[["activation_4", 0, 0, {}]]], "name": "conv1d_5"}, {"class_name": "BatchNormalization", "config": {"scale": true, "gamma_regularizer": null, "gamma_constraint": null, "center": true, "trainable": true, "moving_variance_initializer": {"class_name": "Ones", "config": {}}, "axis": 1, "beta_constraint": null, "beta_initializer": {"class_name": "Zeros", "config": {}}, "momentum": 0.99, "epsilon": 0.001, "moving_mean_initializer": {"class_name": "Zeros", "config": {}}, "beta_regularizer": null, "gamma_initializer": {"class_name": "Ones", "config": {}}, "name": "batch_normalization_5"}, "inbound_nodes": [[["conv1d_5", 0, 0, {}]]], "name": "batch_normalization_5"}, {"class_name": "Add", "config": {"trainable": true, "name": "add_2"}, "inbound_nodes": [[["activation_3", 0, 0, {}], ["batch_normalization_5", 0, 0, {}]]], "name": "add_2"}, {"class_name": "Activation", "config": {"trainable": true, "activation": "relu", "name": "activation_5"}, "inbound_nodes": [[["add_2", 0, 0, {}]]], "name": "activation_5"}, {"class_name": "Conv1D", "config": {"padding": "valid", "bias_constraint": null, "filters": 1, "trainable": true, "activity_regularizer": null, "dilation_rate": [1], "kernel_constraint": null, "bias_initializer": {"class_name": "Zeros", "config": {}}, "name": "conv1d_7", "kernel_initializer": {"class_name": "VarianceScaling", "config": {"scale": 1.0, "distribution": "uniform", "seed": null, "mode": "fan_avg"}}, "strides": [1], "bias_regularizer": null, "kernel_size": [1], "use_bias": true, "activation": "linear", "kernel_regularizer": {"class_name": "L1L2", "config": {"l1": 0.0, "l2": 9.999999747378752e-05}}}, "inbound_nodes": [[["activation_5", 0, 0, {}]]], "name": "conv1d_7"}, {"class_name": "Conv1D", "config": {"padding": "valid", "bias_constraint": null, "filters": 2, "trainable": true, "activity_regularizer": null, "dilation_rate": [1], "kernel_constraint": null, "bias_initializer": {"class_name": "Zeros", "config": {}}, "name": "conv1d_6", "kernel_initializer": {"class_name": "VarianceScaling", "config": {"scale": 1.0, "distribution": "uniform", "seed": null, "mode": "fan_avg"}}, "strides": [1], "bias_regularizer": null, "kernel_size": [1], "use_bias": true, "activation": "linear", "kernel_regularizer": {"class_name": "L1L2", "config": {"l1": 0.0, "l2": 9.999999747378752e-05}}}, "inbound_nodes": [[["activation_5", 0, 0, {}]]], "name": "conv1d_6"}, {"class_name": "BatchNormalization", "config": {"scale": true, "gamma_regularizer": null, "gamma_constraint": null, "center": true, "trainable": true, "moving_variance_initializer": {"class_name": "Ones", "config": {}}, "axis": 1, "beta_constraint": null, "beta_initializer": {"class_name": "Zeros", "config": {}}, "momentum": 0.99, "epsilon": 0.001, "moving_mean_initializer": {"class_name": "Zeros", "config": {}}, "beta_regularizer": null, "gamma_initializer": {"class_name": "Ones", "config": {}}, "name": "batch_normalization_7"}, "inbound_nodes": [[["conv1d_7", 0, 0, {}]]], "name": "batch_normalization_7"}, {"class_name": "BatchNormalization", "config": {"scale": true, "gamma_regularizer": null, "gamma_constraint": null, "center": true, "trainable": true, "moving_variance_initializer": {"class_name": "Ones", "config": {}}, "axis": 1, "beta_constraint": null, "beta_initializer": {"class_name": "Zeros", "config": {}}, "momentum": 0.99, "epsilon": 0.001, "moving_mean_initializer": {"class_name": "Zeros", "config": {}}, "beta_regularizer": null, "gamma_initializer": {"class_name": "Ones", "config": {}}, "name": "batch_normalization_6"}, "inbound_nodes": [[["conv1d_6", 0, 0, {}]]], "name": "batch_normalization_6"}, {"class_name": "Activation", "config": {"trainable": true, "activation": "relu", "name": "activation_7"}, "inbound_nodes": [[["batch_normalization_7", 0, 0, {}]]], "name": "activation_7"}, {"class_name": "Activation", "config": {"trainable": true, "activation": "relu", "name": "activation_6"}, "inbound_nodes": [[["batch_normalization_6", 0, 0, {}]]], "name": "activation_6"}, {"class_name": "Flatten", "config": {"trainable": true, "name": "flatten_2"}, "inbound_nodes": [[["activation_7", 0, 0, {}]]], "name": "flatten_2"}, {"class_name": "Flatten", "config": {"trainable": true, "name": "flatten_1"}, "inbound_nodes": [[["activation_6", 0, 0, {}]]], "name": "flatten_1"}, {"class_name": "Dense", "config": {"bias_constraint": null, "bias_regularizer": null, "units": 30, "trainable": true, "activity_regularizer": null, "kernel_constraint": null, "activation": "relu", "bias_initializer": {"class_name": "Zeros", "config": {}}, "kernel_initializer": {"class_name": "VarianceScaling", "config": {"scale": 1.0, "distribution": "uniform", "seed": null, "mode": "fan_avg"}}, "use_bias": true, "name": "dense_1", "kernel_regularizer": {"class_name": "L1L2", "config": {"l1": 0.0, "l2": 9.999999747378752e-05}}}, "inbound_nodes": [[["flatten_2", 0, 0, {}]]], "name": "dense_1"}, {"class_name": "Dense", "config": {"bias_constraint": null, "bias_regularizer": null, "units": 7, "trainable": true, "activity_regularizer": null, "kernel_constraint": null, "activation": "softmax", "bias_initializer": {"class_name": "Zeros", "config": {}}, "kernel_initializer": {"class_name": "VarianceScaling", "config": {"scale": 1.0, "distribution": "uniform", "seed": null, "mode": "fan_avg"}}, "use_bias": true, "name": "policy_out", "kernel_regularizer": {"class_name": "L1L2", "config": {"l1": 0.0, "l2": 9.999999747378752e-05}}}, "inbound_nodes": [[["flatten_1", 0, 0, {}]]], "name": "policy_out"}, {"class_name": "Dense", "config": {"bias_constraint": null, "bias_regularizer": null, "units": 1, "trainable": true, "activity_regularizer": null, "kernel_constraint": null, "activation": "tanh", "bias_initializer": {"class_name": "Zeros", "config": {}}, "kernel_initializer": {"class_name": "VarianceScaling", "config": {"scale": 1.0, "distribution": "uniform", "seed": null, "mode": "fan_avg"}}, "use_bias": true, "name": "value_out", "kernel_regularizer": {"class_name": "L1L2", "config": {"l1": 0.0, "l2": 9.999999747378752e-05}}}, "inbound_nodes": [[["dense_1", 0, 0, {}]]], "name": "value_out"}], "name": "animation_model", "OptimizeCount": 0}