{"input_layers": [["input_1", 0, 0]], "layers": [{"config": {"sparse": false, "batch_input_shape": [null, 3, 21], "dtype": "float32", "name": "input_1"}, "inbound_nodes": [], "name": "input_1", "class_name": "InputLayer"}, {"config": {"kernel_regularizer": {"config": {"l2": 9.999999747378752e-05, "l1": 0.0}, "class_name": "L1L2"}, "name": "conv1d_1", "kernel_initializer": {"config": {"scale": 1.0, "mode": "fan_avg", "seed": null, "distribution": "uniform"}, "class_name": "VarianceScaling"}, "activity_regularizer": null, "bias_constraint": null, "strides": [1], "bias_initializer": {"config": {}, "class_name": "Zeros"}, "kernel_constraint": null, "kernel_size": [3], "trainable": true, "dilation_rate": [1], "activation": "linear", "padding": "same", "filters": 30, "use_bias": true, "bias_regularizer": null}, "inbound_nodes": [[["input_1", 0, 0, {}]]], "name": "conv1d_1", "class_name": "Conv1D"}, {"config": {"axis": 1, "momentum": 0.99, "epsilon": 0.001, "beta_constraint": null, "beta_initializer": {"config": {}, "class_name": "Zeros"}, "name": "batch_normalization_1", "center": true, "trainable": true, "gamma_regularizer": null, "gamma_initializer": {"config": {}, "class_name": "Ones"}, "beta_regularizer": null, "scale": true, "gamma_constraint": null, "moving_mean_initializer": {"config": {}, "class_name": "Zeros"}, "moving_variance_initializer": {"config": {}, "class_name": "Ones"}}, "inbound_nodes": [[["conv1d_1", 0, 0, {}]]], "name": "batch_normalization_1", "class_name": "BatchNormalization"}, {"config": {"activation": "relu", "trainable": true, "name": "activation_1"}, "inbound_nodes": [[["batch_normalization_1", 0, 0, {}]]], "name": "activation_1", "class_name": "Activation"}, {"config": {"kernel_regularizer": {"config": {"l2": 9.999999747378752e-05, "l1": 0.0}, "class_name": "L1L2"}, "name": "conv1d_2", "kernel_initializer": {"config": {"scale": 1.0, "mode": "fan_avg", "seed": null, "distribution": "uniform"}, "class_name": "VarianceScaling"}, "activity_regularizer": null, "bias_constraint": null, "strides": [1], "bias_initializer": {"config": {}, "class_name": "Zeros"}, "kernel_constraint": null, "kernel_size": [3], "trainable": true, "dilation_rate": [1], "activation": "linear", "padding": "same", "filters": 30, "use_bias": true, "bias_regularizer": null}, "inbound_nodes": [[["activation_1", 0, 0, {}]]], "name": "conv1d_2", "class_name": "Conv1D"}, {"config": {"axis": 1, "momentum": 0.99, "epsilon": 0.001, "beta_constraint": null, "beta_initializer": {"config": {}, "class_name": "Zeros"}, "name": "batch_normalization_2", "center": true, "trainable": true, "gamma_regularizer": null, "gamma_initializer": {"config": {}, "class_name": "Ones"}, "beta_regularizer": null, "scale": true, "gamma_constraint": null, "moving_mean_initializer": {"config": {}, "class_name": "Zeros"}, "moving_variance_initializer": {"config": {}, "class_name": "Ones"}}, "inbound_nodes": [[["conv1d_2", 0, 0, {}]]], "name": "batch_normalization_2", "class_name": "BatchNormalization"}, {"config": {"activation": "relu", "trainable": true, "name": "activation_2"}, "inbound_nodes": [[["batch_normalization_2", 0, 0, {}]]], "name": "activation_2", "class_name": "Activation"}, {"config": {"kernel_regularizer": {"config": {"l2": 9.999999747378752e-05, "l1": 0.0}, "class_name": "L1L2"}, "name": "conv1d_3", "kernel_initializer": {"config": {"scale": 1.0, "mode": "fan_avg", "seed": null, "distribution": "uniform"}, "class_name": "VarianceScaling"}, "activity_regularizer": null, "bias_constraint": null, "strides": [1], "bias_initializer": {"config": {}, "class_name": "Zeros"}, "kernel_constraint": null, "kernel_size": [3], "trainable": true, "dilation_rate": [1], "activation": "linear", "padding": "same", "filters": 30, "use_bias": true, "bias_regularizer": null}, "inbound_nodes": [[["activation_2", 0, 0, {}]]], "name": "conv1d_3", "class_name": "Conv1D"}, {"config": {"axis": 1, "momentum": 0.99, "epsilon": 0.001, "beta_constraint": null, "beta_initializer": {"config": {}, "class_name": "Zeros"}, "name": "batch_normalization_3", "center": true, "trainable": true, "gamma_regularizer": null, "gamma_initializer": {"config": {}, "class_name": "Ones"}, "beta_regularizer": null, "scale": true, "gamma_constraint": null, "moving_mean_initializer": {"config": {}, "class_name": "Zeros"}, "moving_variance_initializer": {"config": {}, "class_name": "Ones"}}, "inbound_nodes": [[["conv1d_3", 0, 0, {}]]], "name": "batch_normalization_3", "class_name": "BatchNormalization"}, {"config": {"trainable": true, "name": "add_1"}, "inbound_nodes": [[["activation_1", 0, 0, {}], ["batch_normalization_3", 0, 0, {}]]], "name": "add_1", "class_name": "Add"}, {"config": {"activation": "relu", "trainable": true, "name": "activation_3"}, "inbound_nodes": [[["add_1", 0, 0, {}]]], "name": "activation_3", "class_name": "Activation"}, {"config": {"kernel_regularizer": {"config": {"l2": 9.999999747378752e-05, "l1": 0.0}, "class_name": "L1L2"}, "name": "conv1d_4", "kernel_initializer": {"config": {"scale": 1.0, "mode": "fan_avg", "seed": null, "distribution": "uniform"}, "class_name": "VarianceScaling"}, "activity_regularizer": null, "bias_constraint": null, "strides": [1], "bias_initializer": {"config": {}, "class_name": "Zeros"}, "kernel_constraint": null, "kernel_size": [3], "trainable": true, "dilation_rate": [1], "activation": "linear", "padding": "same", "filters": 30, "use_bias": true, "bias_regularizer": null}, "inbound_nodes": [[["activation_3", 0, 0, {}]]], "name": "conv1d_4", "class_name": "Conv1D"}, {"config": {"axis": 1, "momentum": 0.99, "epsilon": 0.001, "beta_constraint": null, "beta_initializer": {"config": {}, "class_name": "Zeros"}, "name": "batch_normalization_4", "center": true, "trainable": true, "gamma_regularizer": null, "gamma_initializer": {"config": {}, "class_name": "Ones"}, "beta_regularizer": null, "scale": true, "gamma_constraint": null, "moving_mean_initializer": {"config": {}, "class_name": "Zeros"}, "moving_variance_initializer": {"config": {}, "class_name": "Ones"}}, "inbound_nodes": [[["conv1d_4", 0, 0, {}]]], "name": "batch_normalization_4", "class_name": "BatchNormalization"}, {"config": {"activation": "relu", "trainable": true, "name": "activation_4"}, "inbound_nodes": [[["batch_normalization_4", 0, 0, {}]]], "name": "activation_4", "class_name": "Activation"}, {"config": {"kernel_regularizer": {"config": {"l2": 9.999999747378752e-05, "l1": 0.0}, "class_name": "L1L2"}, "name": "conv1d_5", "kernel_initializer": {"config": {"scale": 1.0, "mode": "fan_avg", "seed": null, "distribution": "uniform"}, "class_name": "VarianceScaling"}, "activity_regularizer": null, "bias_constraint": null, "strides": [1], "bias_initializer": {"config": {}, "class_name": "Zeros"}, "kernel_constraint": null, "kernel_size": [3], "trainable": true, "dilation_rate": [1], "activation": "linear", "padding": "same", "filters": 30, "use_bias": true, "bias_regularizer": null}, "inbound_nodes": [[["activation_4", 0, 0, {}]]], "name": "conv1d_5", "class_name": "Conv1D"}, {"config": {"axis": 1, "momentum": 0.99, "epsilon": 0.001, "beta_constraint": null, "beta_initializer": {"config": {}, "class_name": "Zeros"}, "name": "batch_normalization_5", "center": true, "trainable": true, "gamma_regularizer": null, "gamma_initializer": {"config": {}, "class_name": "Ones"}, "beta_regularizer": null, "scale": true, "gamma_constraint": null, "moving_mean_initializer": {"config": {}, "class_name": "Zeros"}, "moving_variance_initializer": {"config": {}, "class_name": "Ones"}}, "inbound_nodes": [[["conv1d_5", 0, 0, {}]]], "name": "batch_normalization_5", "class_name": "BatchNormalization"}, {"config": {"trainable": true, "name": "add_2"}, "inbound_nodes": [[["activation_3", 0, 0, {}], ["batch_normalization_5", 0, 0, {}]]], "name": "add_2", "class_name": "Add"}, {"config": {"activation": "relu", "trainable": true, "name": "activation_5"}, "inbound_nodes": [[["add_2", 0, 0, {}]]], "name": "activation_5", "class_name": "Activation"}, {"config": {"kernel_regularizer": {"config": {"l2": 9.999999747378752e-05, "l1": 0.0}, "class_name": "L1L2"}, "name": "conv1d_7", "kernel_initializer": {"config": {"scale": 1.0, "mode": "fan_avg", "seed": null, "distribution": "uniform"}, "class_name": "VarianceScaling"}, "activity_regularizer": null, "bias_constraint": null, "strides": [1], "bias_initializer": {"config": {}, "class_name": "Zeros"}, "kernel_constraint": null, "kernel_size": [1], "trainable": true, "dilation_rate": [1], "activation": "linear", "padding": "valid", "filters": 1, "use_bias": true, "bias_regularizer": null}, "inbound_nodes": [[["activation_5", 0, 0, {}]]], "name": "conv1d_7", "class_name": "Conv1D"}, {"config": {"kernel_regularizer": {"config": {"l2": 9.999999747378752e-05, "l1": 0.0}, "class_name": "L1L2"}, "name": "conv1d_6", "kernel_initializer": {"config": {"scale": 1.0, "mode": "fan_avg", "seed": null, "distribution": "uniform"}, "class_name": "VarianceScaling"}, "activity_regularizer": null, "bias_constraint": null, "strides": [1], "bias_initializer": {"config": {}, "class_name": "Zeros"}, "kernel_constraint": null, "kernel_size": [1], "trainable": true, "dilation_rate": [1], "activation": "linear", "padding": "valid", "filters": 2, "use_bias": true, "bias_regularizer": null}, "inbound_nodes": [[["activation_5", 0, 0, {}]]], "name": "conv1d_6", "class_name": "Conv1D"}, {"config": {"axis": 1, "momentum": 0.99, "epsilon": 0.001, "beta_constraint": null, "beta_initializer": {"config": {}, "class_name": "Zeros"}, "name": "batch_normalization_7", "center": true, "trainable": true, "gamma_regularizer": null, "gamma_initializer": {"config": {}, "class_name": "Ones"}, "beta_regularizer": null, "scale": true, "gamma_constraint": null, "moving_mean_initializer": {"config": {}, "class_name": "Zeros"}, "moving_variance_initializer": {"config": {}, "class_name": "Ones"}}, "inbound_nodes": [[["conv1d_7", 0, 0, {}]]], "name": "batch_normalization_7", "class_name": "BatchNormalization"}, {"config": {"axis": 1, "momentum": 0.99, "epsilon": 0.001, "beta_constraint": null, "beta_initializer": {"config": {}, "class_name": "Zeros"}, "name": "batch_normalization_6", "center": true, "trainable": true, "gamma_regularizer": null, "gamma_initializer": {"config": {}, "class_name": "Ones"}, "beta_regularizer": null, "scale": true, "gamma_constraint": null, "moving_mean_initializer": {"config": {}, "class_name": "Zeros"}, "moving_variance_initializer": {"config": {}, "class_name": "Ones"}}, "inbound_nodes": [[["conv1d_6", 0, 0, {}]]], "name": "batch_normalization_6", "class_name": "BatchNormalization"}, {"config": {"activation": "relu", "trainable": true, "name": "activation_7"}, "inbound_nodes": [[["batch_normalization_7", 0, 0, {}]]], "name": "activation_7", "class_name": "Activation"}, {"config": {"activation": "relu", "trainable": true, "name": "activation_6"}, "inbound_nodes": [[["batch_normalization_6", 0, 0, {}]]], "name": "activation_6", "class_name": "Activation"}, {"config": {"trainable": true, "name": "flatten_2"}, "inbound_nodes": [[["activation_7", 0, 0, {}]]], "name": "flatten_2", "class_name": "Flatten"}, {"config": {"trainable": true, "name": "flatten_1"}, "inbound_nodes": [[["activation_6", 0, 0, {}]]], "name": "flatten_1", "class_name": "Flatten"}, {"config": {"kernel_regularizer": {"config": {"l2": 9.999999747378752e-05, "l1": 0.0}, "class_name": "L1L2"}, "name": "dense_1", "kernel_initializer": {"config": {"scale": 1.0, "mode": "fan_avg", "seed": null, "distribution": "uniform"}, "class_name": "VarianceScaling"}, "bias_initializer": {"config": {}, "class_name": "Zeros"}, "bias_constraint": null, "units": 30, "activity_regularizer": null, "kernel_constraint": null, "trainable": true, "activation": "relu", "bias_regularizer": null, "use_bias": true}, "inbound_nodes": [[["flatten_2", 0, 0, {}]]], "name": "dense_1", "class_name": "Dense"}, {"config": {"kernel_regularizer": {"config": {"l2": 9.999999747378752e-05, "l1": 0.0}, "class_name": "L1L2"}, "name": "policy_out", "kernel_initializer": {"config": {"scale": 1.0, "mode": "fan_avg", "seed": null, "distribution": "uniform"}, "class_name": "VarianceScaling"}, "bias_initializer": {"config": {}, "class_name": "Zeros"}, "bias_constraint": null, "units": 7, "activity_regularizer": null, "kernel_constraint": null, "trainable": true, "activation": "softmax", "bias_regularizer": null, "use_bias": true}, "inbound_nodes": [[["flatten_1", 0, 0, {}]]], "name": "policy_out", "class_name": "Dense"}, {"config": {"kernel_regularizer": {"config": {"l2": 9.999999747378752e-05, "l1": 0.0}, "class_name": "L1L2"}, "name": "value_out", "kernel_initializer": {"config": {"scale": 1.0, "mode": "fan_avg", "seed": null, "distribution": "uniform"}, "class_name": "VarianceScaling"}, "bias_initializer": {"config": {}, "class_name": "Zeros"}, "bias_constraint": null, "units": 1, "activity_regularizer": null, "kernel_constraint": null, "trainable": true, "activation": "tanh", "bias_regularizer": null, "use_bias": true}, "inbound_nodes": [[["dense_1", 0, 0, {}]]], "name": "value_out", "class_name": "Dense"}], "OptimizeCount": 3, "output_layers": [["policy_out", 0, 0], ["value_out", 0, 0]], "name": "animation_model"}