{"layers": [{"class_name": "InputLayer", "inbound_nodes": [], "name": "input_1", "config": {"dtype": "float32", "batch_input_shape": [null, 3, 18], "name": "input_1", "sparse": false}}, {"class_name": "Conv1D", "inbound_nodes": [[["input_1", 0, 0, {}]]], "name": "conv1d_1", "config": {"dilation_rate": [1], "filters": 50, "activity_regularizer": null, "bias_regularizer": null, "padding": "same", "use_bias": true, "kernel_regularizer": {"class_name": "L1L2", "config": {"l1": 0.0, "l2": 9.999999747378752e-05}}, "trainable": true, "bias_constraint": null, "strides": [1], "kernel_initializer": {"class_name": "VarianceScaling", "config": {"mode": "fan_avg", "scale": 1.0, "distribution": "uniform", "seed": null}}, "activation": "linear", "name": "conv1d_1", "bias_initializer": {"class_name": "Zeros", "config": {}}, "kernel_size": [3], "kernel_constraint": null}}, {"class_name": "BatchNormalization", "inbound_nodes": [[["conv1d_1", 0, 0, {}]]], "name": "batch_normalization_1", "config": {"gamma_initializer": {"class_name": "Ones", "config": {}}, "epsilon": 0.001, "moving_mean_initializer": {"class_name": "Zeros", "config": {}}, "moving_variance_initializer": {"class_name": "Ones", "config": {}}, "beta_regularizer": null, "gamma_constraint": null, "gamma_regularizer": null, "trainable": true, "beta_initializer": {"class_name": "Zeros", "config": {}}, "name": "batch_normalization_1", "center": true, "beta_constraint": null, "momentum": 0.99, "axis": 1, "scale": true}}, {"class_name": "Activation", "inbound_nodes": [[["batch_normalization_1", 0, 0, {}]]], "name": "activation_1", "config": {"activation": "relu", "name": "activation_1", "trainable": true}}, {"class_name": "Conv1D", "inbound_nodes": [[["activation_1", 0, 0, {}]]], "name": "conv1d_2", "config": {"dilation_rate": [1], "filters": 50, "activity_regularizer": null, "bias_regularizer": null, "padding": "same", "use_bias": true, "kernel_regularizer": {"class_name": "L1L2", "config": {"l1": 0.0, "l2": 9.999999747378752e-05}}, "trainable": true, "bias_constraint": null, "strides": [1], "kernel_initializer": {"class_name": "VarianceScaling", "config": {"mode": "fan_avg", "scale": 1.0, "distribution": "uniform", "seed": null}}, "activation": "linear", "name": "conv1d_2", "bias_initializer": {"class_name": "Zeros", "config": {}}, "kernel_size": [3], "kernel_constraint": null}}, {"class_name": "BatchNormalization", "inbound_nodes": [[["conv1d_2", 0, 0, {}]]], "name": "batch_normalization_2", "config": {"gamma_initializer": {"class_name": "Ones", "config": {}}, "epsilon": 0.001, "moving_mean_initializer": {"class_name": "Zeros", "config": {}}, "moving_variance_initializer": {"class_name": "Ones", "config": {}}, "beta_regularizer": null, "gamma_constraint": null, "gamma_regularizer": null, "trainable": true, "beta_initializer": {"class_name": "Zeros", "config": {}}, "name": "batch_normalization_2", "center": true, "beta_constraint": null, "momentum": 0.99, "axis": 1, "scale": true}}, {"class_name": "Activation", "inbound_nodes": [[["batch_normalization_2", 0, 0, {}]]], "name": "activation_2", "config": {"activation": "relu", "name": "activation_2", "trainable": true}}, {"class_name": "Conv1D", "inbound_nodes": [[["activation_2", 0, 0, {}]]], "name": "conv1d_3", "config": {"dilation_rate": [1], "filters": 50, "activity_regularizer": null, "bias_regularizer": null, "padding": "same", "use_bias": true, "kernel_regularizer": {"class_name": "L1L2", "config": {"l1": 0.0, "l2": 9.999999747378752e-05}}, "trainable": true, "bias_constraint": null, "strides": [1], "kernel_initializer": {"class_name": "VarianceScaling", "config": {"mode": "fan_avg", "scale": 1.0, "distribution": "uniform", "seed": null}}, "activation": "linear", "name": "conv1d_3", "bias_initializer": {"class_name": "Zeros", "config": {}}, "kernel_size": [3], "kernel_constraint": null}}, {"class_name": "BatchNormalization", "inbound_nodes": [[["conv1d_3", 0, 0, {}]]], "name": "batch_normalization_3", "config": {"gamma_initializer": {"class_name": "Ones", "config": {}}, "epsilon": 0.001, "moving_mean_initializer": {"class_name": "Zeros", "config": {}}, "moving_variance_initializer": {"class_name": "Ones", "config": {}}, "beta_regularizer": null, "gamma_constraint": null, "gamma_regularizer": null, "trainable": true, "beta_initializer": {"class_name": "Zeros", "config": {}}, "name": "batch_normalization_3", "center": true, "beta_constraint": null, "momentum": 0.99, "axis": 1, "scale": true}}, {"class_name": "Add", "inbound_nodes": [[["activation_1", 0, 0, {}], ["batch_normalization_3", 0, 0, {}]]], "name": "add_1", "config": {"name": "add_1", "trainable": true}}, {"class_name": "Activation", "inbound_nodes": [[["add_1", 0, 0, {}]]], "name": "activation_3", "config": {"activation": "relu", "name": "activation_3", "trainable": true}}, {"class_name": "Conv1D", "inbound_nodes": [[["activation_3", 0, 0, {}]]], "name": "conv1d_5", "config": {"dilation_rate": [1], "filters": 1, "activity_regularizer": null, "bias_regularizer": null, "padding": "valid", "use_bias": true, "kernel_regularizer": {"class_name": "L1L2", "config": {"l1": 0.0, "l2": 9.999999747378752e-05}}, "trainable": true, "bias_constraint": null, "strides": [1], "kernel_initializer": {"class_name": "VarianceScaling", "config": {"mode": "fan_avg", "scale": 1.0, "distribution": "uniform", "seed": null}}, "activation": "linear", "name": "conv1d_5", "bias_initializer": {"class_name": "Zeros", "config": {}}, "kernel_size": [1], "kernel_constraint": null}}, {"class_name": "Conv1D", "inbound_nodes": [[["activation_3", 0, 0, {}]]], "name": "conv1d_4", "config": {"dilation_rate": [1], "filters": 2, "activity_regularizer": null, "bias_regularizer": null, "padding": "valid", "use_bias": true, "kernel_regularizer": {"class_name": "L1L2", "config": {"l1": 0.0, "l2": 9.999999747378752e-05}}, "trainable": true, "bias_constraint": null, "strides": [1], "kernel_initializer": {"class_name": "VarianceScaling", "config": {"mode": "fan_avg", "scale": 1.0, "distribution": "uniform", "seed": null}}, "activation": "linear", "name": "conv1d_4", "bias_initializer": {"class_name": "Zeros", "config": {}}, "kernel_size": [1], "kernel_constraint": null}}, {"class_name": "BatchNormalization", "inbound_nodes": [[["conv1d_5", 0, 0, {}]]], "name": "batch_normalization_5", "config": {"gamma_initializer": {"class_name": "Ones", "config": {}}, "epsilon": 0.001, "moving_mean_initializer": {"class_name": "Zeros", "config": {}}, "moving_variance_initializer": {"class_name": "Ones", "config": {}}, "beta_regularizer": null, "gamma_constraint": null, "gamma_regularizer": null, "trainable": true, "beta_initializer": {"class_name": "Zeros", "config": {}}, "name": "batch_normalization_5", "center": true, "beta_constraint": null, "momentum": 0.99, "axis": 1, "scale": true}}, {"class_name": "BatchNormalization", "inbound_nodes": [[["conv1d_4", 0, 0, {}]]], "name": "batch_normalization_4", "config": {"gamma_initializer": {"class_name": "Ones", "config": {}}, "epsilon": 0.001, "moving_mean_initializer": {"class_name": "Zeros", "config": {}}, "moving_variance_initializer": {"class_name": "Ones", "config": {}}, "beta_regularizer": null, "gamma_constraint": null, "gamma_regularizer": null, "trainable": true, "beta_initializer": {"class_name": "Zeros", "config": {}}, "name": "batch_normalization_4", "center": true, "beta_constraint": null, "momentum": 0.99, "axis": 1, "scale": true}}, {"class_name": "Activation", "inbound_nodes": [[["batch_normalization_5", 0, 0, {}]]], "name": "activation_5", "config": {"activation": "relu", "name": "activation_5", "trainable": true}}, {"class_name": "Activation", "inbound_nodes": [[["batch_normalization_4", 0, 0, {}]]], "name": "activation_4", "config": {"activation": "relu", "name": "activation_4", "trainable": true}}, {"class_name": "Flatten", "inbound_nodes": [[["activation_5", 0, 0, {}]]], "name": "flatten_2", "config": {"name": "flatten_2", "trainable": true}}, {"class_name": "Flatten", "inbound_nodes": [[["activation_4", 0, 0, {}]]], "name": "flatten_1", "config": {"name": "flatten_1", "trainable": true}}, {"class_name": "Dense", "inbound_nodes": [[["flatten_2", 0, 0, {}]]], "name": "dense_1", "config": {"activity_regularizer": null, "bias_regularizer": null, "use_bias": true, "bias_initializer": {"class_name": "Zeros", "config": {}}, "trainable": true, "bias_constraint": null, "kernel_initializer": {"class_name": "VarianceScaling", "config": {"mode": "fan_avg", "scale": 1.0, "distribution": "uniform", "seed": null}}, "activation": "relu", "name": "dense_1", "kernel_regularizer": {"class_name": "L1L2", "config": {"l1": 0.0, "l2": 9.999999747378752e-05}}, "units": 30, "kernel_constraint": null}}, {"class_name": "Dense", "inbound_nodes": [[["flatten_1", 0, 0, {}]]], "name": "policy_out", "config": {"activity_regularizer": null, "bias_regularizer": null, "use_bias": true, "bias_initializer": {"class_name": "Zeros", "config": {}}, "trainable": true, "bias_constraint": null, "kernel_initializer": {"class_name": "VarianceScaling", "config": {"mode": "fan_avg", "scale": 1.0, "distribution": "uniform", "seed": null}}, "activation": "softmax", "name": "policy_out", "kernel_regularizer": {"class_name": "L1L2", "config": {"l1": 0.0, "l2": 9.999999747378752e-05}}, "units": 7, "kernel_constraint": null}}, {"class_name": "Dense", "inbound_nodes": [[["dense_1", 0, 0, {}]]], "name": "value_out", "config": {"activity_regularizer": null, "bias_regularizer": null, "use_bias": true, "bias_initializer": {"class_name": "Zeros", "config": {}}, "trainable": true, "bias_constraint": null, "kernel_initializer": {"class_name": "VarianceScaling", "config": {"mode": "fan_avg", "scale": 1.0, "distribution": "uniform", "seed": null}}, "activation": "tanh", "name": "value_out", "kernel_regularizer": {"class_name": "L1L2", "config": {"l1": 0.0, "l2": 9.999999747378752e-05}}, "units": 1, "kernel_constraint": null}}], "OptimizeCount": 12, "name": "animation_model", "input_layers": [["input_1", 0, 0]], "output_layers": [["policy_out", 0, 0], ["value_out", 0, 0]]}