{"name": "animation_model", "OptimizeCount": 8, "layers": [{"name": "input_1", "inbound_nodes": [], "config": {"batch_input_shape": [null, 3, 21], "sparse": false, "dtype": "float32", "name": "input_1"}, "class_name": "InputLayer"}, {"name": "conv1d_1", "inbound_nodes": [[["input_1", 0, 0, {}]]], "config": {"bias_constraint": null, "kernel_initializer": {"config": {"scale": 1.0, "seed": null, "mode": "fan_avg", "distribution": "uniform"}, "class_name": "VarianceScaling"}, "name": "conv1d_1", "use_bias": true, "kernel_constraint": null, "bias_regularizer": null, "bias_initializer": {"config": {}, "class_name": "Zeros"}, "dilation_rate": [1], "trainable": true, "filters": 30, "padding": "same", "kernel_size": [3], "kernel_regularizer": {"config": {"l1": 0.0, "l2": 9.999999747378752e-05}, "class_name": "L1L2"}, "activation": "linear", "strides": [1], "activity_regularizer": null}, "class_name": "Conv1D"}, {"name": "batch_normalization_1", "inbound_nodes": [[["conv1d_1", 0, 0, {}]]], "config": {"axis": 1, "beta_initializer": {"config": {}, "class_name": "Zeros"}, "name": "batch_normalization_1", "gamma_regularizer": null, "beta_regularizer": null, "gamma_constraint": null, "moving_mean_initializer": {"config": {}, "class_name": "Zeros"}, "trainable": true, "momentum": 0.99, "epsilon": 0.001, "scale": true, "moving_variance_initializer": {"config": {}, "class_name": "Ones"}, "gamma_initializer": {"config": {}, "class_name": "Ones"}, "beta_constraint": null, "center": true}, "class_name": "BatchNormalization"}, {"name": "activation_1", "inbound_nodes": [[["batch_normalization_1", 0, 0, {}]]], "config": {"name": "activation_1", "trainable": true, "activation": "relu"}, "class_name": "Activation"}, {"name": "conv1d_2", "inbound_nodes": [[["activation_1", 0, 0, {}]]], "config": {"bias_constraint": null, "kernel_initializer": {"config": {"scale": 1.0, "seed": null, "mode": "fan_avg", "distribution": "uniform"}, "class_name": "VarianceScaling"}, "name": "conv1d_2", "use_bias": true, "kernel_constraint": null, "bias_regularizer": null, "bias_initializer": {"config": {}, "class_name": "Zeros"}, "dilation_rate": [1], "trainable": true, "filters": 30, "padding": "same", "kernel_size": [3], "kernel_regularizer": {"config": {"l1": 0.0, "l2": 9.999999747378752e-05}, "class_name": "L1L2"}, "activation": "linear", "strides": [1], "activity_regularizer": null}, "class_name": "Conv1D"}, {"name": "batch_normalization_2", "inbound_nodes": [[["conv1d_2", 0, 0, {}]]], "config": {"axis": 1, "beta_initializer": {"config": {}, "class_name": "Zeros"}, "name": "batch_normalization_2", "gamma_regularizer": null, "beta_regularizer": null, "gamma_constraint": null, "moving_mean_initializer": {"config": {}, "class_name": "Zeros"}, "trainable": true, "momentum": 0.99, "epsilon": 0.001, "scale": true, "moving_variance_initializer": {"config": {}, "class_name": "Ones"}, "gamma_initializer": {"config": {}, "class_name": "Ones"}, "beta_constraint": null, "center": true}, "class_name": "BatchNormalization"}, {"name": "activation_2", "inbound_nodes": [[["batch_normalization_2", 0, 0, {}]]], "config": {"name": "activation_2", "trainable": true, "activation": "relu"}, "class_name": "Activation"}, {"name": "conv1d_3", "inbound_nodes": [[["activation_2", 0, 0, {}]]], "config": {"bias_constraint": null, "kernel_initializer": {"config": {"scale": 1.0, "seed": null, "mode": "fan_avg", "distribution": "uniform"}, "class_name": "VarianceScaling"}, "name": "conv1d_3", "use_bias": true, "kernel_constraint": null, "bias_regularizer": null, "bias_initializer": {"config": {}, "class_name": "Zeros"}, "dilation_rate": [1], "trainable": true, "filters": 30, "padding": "same", "kernel_size": [3], "kernel_regularizer": {"config": {"l1": 0.0, "l2": 9.999999747378752e-05}, "class_name": "L1L2"}, "activation": "linear", "strides": [1], "activity_regularizer": null}, "class_name": "Conv1D"}, {"name": "batch_normalization_3", "inbound_nodes": [[["conv1d_3", 0, 0, {}]]], "config": {"axis": 1, "beta_initializer": {"config": {}, "class_name": "Zeros"}, "name": "batch_normalization_3", "gamma_regularizer": null, "beta_regularizer": null, "gamma_constraint": null, "moving_mean_initializer": {"config": {}, "class_name": "Zeros"}, "trainable": true, "momentum": 0.99, "epsilon": 0.001, "scale": true, "moving_variance_initializer": {"config": {}, "class_name": "Ones"}, "gamma_initializer": {"config": {}, "class_name": "Ones"}, "beta_constraint": null, "center": true}, "class_name": "BatchNormalization"}, {"name": "add_1", "inbound_nodes": [[["activation_1", 0, 0, {}], ["batch_normalization_3", 0, 0, {}]]], "config": {"name": "add_1", "trainable": true}, "class_name": "Add"}, {"name": "activation_3", "inbound_nodes": [[["add_1", 0, 0, {}]]], "config": {"name": "activation_3", "trainable": true, "activation": "relu"}, "class_name": "Activation"}, {"name": "conv1d_4", "inbound_nodes": [[["activation_3", 0, 0, {}]]], "config": {"bias_constraint": null, "kernel_initializer": {"config": {"scale": 1.0, "seed": null, "mode": "fan_avg", "distribution": "uniform"}, "class_name": "VarianceScaling"}, "name": "conv1d_4", "use_bias": true, "kernel_constraint": null, "bias_regularizer": null, "bias_initializer": {"config": {}, "class_name": "Zeros"}, "dilation_rate": [1], "trainable": true, "filters": 30, "padding": "same", "kernel_size": [3], "kernel_regularizer": {"config": {"l1": 0.0, "l2": 9.999999747378752e-05}, "class_name": "L1L2"}, "activation": "linear", "strides": [1], "activity_regularizer": null}, "class_name": "Conv1D"}, {"name": "batch_normalization_4", "inbound_nodes": [[["conv1d_4", 0, 0, {}]]], "config": {"axis": 1, "beta_initializer": {"config": {}, "class_name": "Zeros"}, "name": "batch_normalization_4", "gamma_regularizer": null, "beta_regularizer": null, "gamma_constraint": null, "moving_mean_initializer": {"config": {}, "class_name": "Zeros"}, "trainable": true, "momentum": 0.99, "epsilon": 0.001, "scale": true, "moving_variance_initializer": {"config": {}, "class_name": "Ones"}, "gamma_initializer": {"config": {}, "class_name": "Ones"}, "beta_constraint": null, "center": true}, "class_name": "BatchNormalization"}, {"name": "activation_4", "inbound_nodes": [[["batch_normalization_4", 0, 0, {}]]], "config": {"name": "activation_4", "trainable": true, "activation": "relu"}, "class_name": "Activation"}, {"name": "conv1d_5", "inbound_nodes": [[["activation_4", 0, 0, {}]]], "config": {"bias_constraint": null, "kernel_initializer": {"config": {"scale": 1.0, "seed": null, "mode": "fan_avg", "distribution": "uniform"}, "class_name": "VarianceScaling"}, "name": "conv1d_5", "use_bias": true, "kernel_constraint": null, "bias_regularizer": null, "bias_initializer": {"config": {}, "class_name": "Zeros"}, "dilation_rate": [1], "trainable": true, "filters": 30, "padding": "same", "kernel_size": [3], "kernel_regularizer": {"config": {"l1": 0.0, "l2": 9.999999747378752e-05}, "class_name": "L1L2"}, "activation": "linear", "strides": [1], "activity_regularizer": null}, "class_name": "Conv1D"}, {"name": "batch_normalization_5", "inbound_nodes": [[["conv1d_5", 0, 0, {}]]], "config": {"axis": 1, "beta_initializer": {"config": {}, "class_name": "Zeros"}, "name": "batch_normalization_5", "gamma_regularizer": null, "beta_regularizer": null, "gamma_constraint": null, "moving_mean_initializer": {"config": {}, "class_name": "Zeros"}, "trainable": true, "momentum": 0.99, "epsilon": 0.001, "scale": true, "moving_variance_initializer": {"config": {}, "class_name": "Ones"}, "gamma_initializer": {"config": {}, "class_name": "Ones"}, "beta_constraint": null, "center": true}, "class_name": "BatchNormalization"}, {"name": "add_2", "inbound_nodes": [[["activation_3", 0, 0, {}], ["batch_normalization_5", 0, 0, {}]]], "config": {"name": "add_2", "trainable": true}, "class_name": "Add"}, {"name": "activation_5", "inbound_nodes": [[["add_2", 0, 0, {}]]], "config": {"name": "activation_5", "trainable": true, "activation": "relu"}, "class_name": "Activation"}, {"name": "conv1d_7", "inbound_nodes": [[["activation_5", 0, 0, {}]]], "config": {"bias_constraint": null, "kernel_initializer": {"config": {"scale": 1.0, "seed": null, "mode": "fan_avg", "distribution": "uniform"}, "class_name": "VarianceScaling"}, "name": "conv1d_7", "use_bias": true, "kernel_constraint": null, "bias_regularizer": null, "bias_initializer": {"config": {}, "class_name": "Zeros"}, "dilation_rate": [1], "trainable": true, "filters": 1, "padding": "valid", "kernel_size": [1], "kernel_regularizer": {"config": {"l1": 0.0, "l2": 9.999999747378752e-05}, "class_name": "L1L2"}, "activation": "linear", "strides": [1], "activity_regularizer": null}, "class_name": "Conv1D"}, {"name": "conv1d_6", "inbound_nodes": [[["activation_5", 0, 0, {}]]], "config": {"bias_constraint": null, "kernel_initializer": {"config": {"scale": 1.0, "seed": null, "mode": "fan_avg", "distribution": "uniform"}, "class_name": "VarianceScaling"}, "name": "conv1d_6", "use_bias": true, "kernel_constraint": null, "bias_regularizer": null, "bias_initializer": {"config": {}, "class_name": "Zeros"}, "dilation_rate": [1], "trainable": true, "filters": 2, "padding": "valid", "kernel_size": [1], "kernel_regularizer": {"config": {"l1": 0.0, "l2": 9.999999747378752e-05}, "class_name": "L1L2"}, "activation": "linear", "strides": [1], "activity_regularizer": null}, "class_name": "Conv1D"}, {"name": "batch_normalization_7", "inbound_nodes": [[["conv1d_7", 0, 0, {}]]], "config": {"axis": 1, "beta_initializer": {"config": {}, "class_name": "Zeros"}, "name": "batch_normalization_7", "gamma_regularizer": null, "beta_regularizer": null, "gamma_constraint": null, "moving_mean_initializer": {"config": {}, "class_name": "Zeros"}, "trainable": true, "momentum": 0.99, "epsilon": 0.001, "scale": true, "moving_variance_initializer": {"config": {}, "class_name": "Ones"}, "gamma_initializer": {"config": {}, "class_name": "Ones"}, "beta_constraint": null, "center": true}, "class_name": "BatchNormalization"}, {"name": "batch_normalization_6", "inbound_nodes": [[["conv1d_6", 0, 0, {}]]], "config": {"axis": 1, "beta_initializer": {"config": {}, "class_name": "Zeros"}, "name": "batch_normalization_6", "gamma_regularizer": null, "beta_regularizer": null, "gamma_constraint": null, "moving_mean_initializer": {"config": {}, "class_name": "Zeros"}, "trainable": true, "momentum": 0.99, "epsilon": 0.001, "scale": true, "moving_variance_initializer": {"config": {}, "class_name": "Ones"}, "gamma_initializer": {"config": {}, "class_name": "Ones"}, "beta_constraint": null, "center": true}, "class_name": "BatchNormalization"}, {"name": "activation_7", "inbound_nodes": [[["batch_normalization_7", 0, 0, {}]]], "config": {"name": "activation_7", "trainable": true, "activation": "relu"}, "class_name": "Activation"}, {"name": "activation_6", "inbound_nodes": [[["batch_normalization_6", 0, 0, {}]]], "config": {"name": "activation_6", "trainable": true, "activation": "relu"}, "class_name": "Activation"}, {"name": "flatten_2", "inbound_nodes": [[["activation_7", 0, 0, {}]]], "config": {"name": "flatten_2", "trainable": true}, "class_name": "Flatten"}, {"name": "flatten_1", "inbound_nodes": [[["activation_6", 0, 0, {}]]], "config": {"name": "flatten_1", "trainable": true}, "class_name": "Flatten"}, {"name": "dense_1", "inbound_nodes": [[["flatten_2", 0, 0, {}]]], "config": {"bias_constraint": null, "kernel_initializer": {"config": {"scale": 1.0, "seed": null, "mode": "fan_avg", "distribution": "uniform"}, "class_name": "VarianceScaling"}, "name": "dense_1", "use_bias": true, "bias_regularizer": null, "bias_initializer": {"config": {}, "class_name": "Zeros"}, "trainable": true, "kernel_regularizer": {"config": {"l1": 0.0, "l2": 9.999999747378752e-05}, "class_name": "L1L2"}, "activation": "relu", "units": 30, "kernel_constraint": null, "activity_regularizer": null}, "class_name": "Dense"}, {"name": "policy_out", "inbound_nodes": [[["flatten_1", 0, 0, {}]]], "config": {"bias_constraint": null, "kernel_initializer": {"config": {"scale": 1.0, "seed": null, "mode": "fan_avg", "distribution": "uniform"}, "class_name": "VarianceScaling"}, "name": "policy_out", "use_bias": true, "bias_regularizer": null, "bias_initializer": {"config": {}, "class_name": "Zeros"}, "trainable": true, "kernel_regularizer": {"config": {"l1": 0.0, "l2": 9.999999747378752e-05}, "class_name": "L1L2"}, "activation": "softmax", "units": 7, "kernel_constraint": null, "activity_regularizer": null}, "class_name": "Dense"}, {"name": "value_out", "inbound_nodes": [[["dense_1", 0, 0, {}]]], "config": {"bias_constraint": null, "kernel_initializer": {"config": {"scale": 1.0, "seed": null, "mode": "fan_avg", "distribution": "uniform"}, "class_name": "VarianceScaling"}, "name": "value_out", "use_bias": true, "bias_regularizer": null, "bias_initializer": {"config": {}, "class_name": "Zeros"}, "trainable": true, "kernel_regularizer": {"config": {"l1": 0.0, "l2": 9.999999747378752e-05}, "class_name": "L1L2"}, "activation": "tanh", "units": 1, "kernel_constraint": null, "activity_regularizer": null}, "class_name": "Dense"}], "input_layers": [["input_1", 0, 0]], "output_layers": [["policy_out", 0, 0], ["value_out", 0, 0]]}