{"OptimizeCount": 0, "layers": [{"class_name": "InputLayer", "config": {"batch_input_shape": [null, 3, 18], "sparse": false, "name": "input_1", "dtype": "float32"}, "name": "input_1", "inbound_nodes": []}, {"class_name": "Conv1D", "config": {"kernel_regularizer": {"class_name": "L1L2", "config": {"l2": 9.999999747378752e-05, "l1": 0.0}}, "filters": 256, "bias_regularizer": null, "bias_constraint": null, "bias_initializer": {"class_name": "Zeros", "config": {}}, "padding": "same", "dilation_rate": [1], "kernel_initializer": {"class_name": "VarianceScaling", "config": {"distribution": "uniform", "scale": 1.0, "mode": "fan_avg", "seed": null}}, "kernel_size": [3], "strides": [1], "kernel_constraint": null, "trainable": true, "activation": "linear", "name": "conv1d_1", "activity_regularizer": null, "use_bias": true}, "name": "conv1d_1", "inbound_nodes": [[["input_1", 0, 0, {}]]]}, {"class_name": "BatchNormalization", "config": {"epsilon": 0.001, "beta_regularizer": null, "beta_constraint": null, "momentum": 0.99, "scale": true, "gamma_initializer": {"class_name": "Ones", "config": {}}, "center": true, "trainable": true, "gamma_regularizer": null, "moving_variance_initializer": {"class_name": "Ones", "config": {}}, "moving_mean_initializer": {"class_name": "Zeros", "config": {}}, "gamma_constraint": null, "axis": 1, "beta_initializer": {"class_name": "Zeros", "config": {}}, "name": "batch_normalization_1"}, "name": "batch_normalization_1", "inbound_nodes": [[["conv1d_1", 0, 0, {}]]]}, {"class_name": "Activation", "config": {"trainable": true, "activation": "relu", "name": "activation_1"}, "name": "activation_1", "inbound_nodes": [[["batch_normalization_1", 0, 0, {}]]]}, {"class_name": "Conv1D", "config": {"kernel_regularizer": {"class_name": "L1L2", "config": {"l2": 9.999999747378752e-05, "l1": 0.0}}, "filters": 256, "bias_regularizer": null, "bias_constraint": null, "bias_initializer": {"class_name": "Zeros", "config": {}}, "padding": "same", "dilation_rate": [1], "kernel_initializer": {"class_name": "VarianceScaling", "config": {"distribution": "uniform", "scale": 1.0, "mode": "fan_avg", "seed": null}}, "kernel_size": [3], "strides": [1], "kernel_constraint": null, "trainable": true, "activation": "linear", "name": "conv1d_2", "activity_regularizer": null, "use_bias": true}, "name": "conv1d_2", "inbound_nodes": [[["activation_1", 0, 0, {}]]]}, {"class_name": "BatchNormalization", "config": {"epsilon": 0.001, "beta_regularizer": null, "beta_constraint": null, "momentum": 0.99, "scale": true, "gamma_initializer": {"class_name": "Ones", "config": {}}, "center": true, "trainable": true, "gamma_regularizer": null, "moving_variance_initializer": {"class_name": "Ones", "config": {}}, "moving_mean_initializer": {"class_name": "Zeros", "config": {}}, "gamma_constraint": null, "axis": 1, "beta_initializer": {"class_name": "Zeros", "config": {}}, "name": "batch_normalization_2"}, "name": "batch_normalization_2", "inbound_nodes": [[["conv1d_2", 0, 0, {}]]]}, {"class_name": "Activation", "config": {"trainable": true, "activation": "relu", "name": "activation_2"}, "name": "activation_2", "inbound_nodes": [[["batch_normalization_2", 0, 0, {}]]]}, {"class_name": "Conv1D", "config": {"kernel_regularizer": {"class_name": "L1L2", "config": {"l2": 9.999999747378752e-05, "l1": 0.0}}, "filters": 256, "bias_regularizer": null, "bias_constraint": null, "bias_initializer": {"class_name": "Zeros", "config": {}}, "padding": "same", "dilation_rate": [1], "kernel_initializer": {"class_name": "VarianceScaling", "config": {"distribution": "uniform", "scale": 1.0, "mode": "fan_avg", "seed": null}}, "kernel_size": [3], "strides": [1], "kernel_constraint": null, "trainable": true, "activation": "linear", "name": "conv1d_3", "activity_regularizer": null, "use_bias": true}, "name": "conv1d_3", "inbound_nodes": [[["activation_2", 0, 0, {}]]]}, {"class_name": "BatchNormalization", "config": {"epsilon": 0.001, "beta_regularizer": null, "beta_constraint": null, "momentum": 0.99, "scale": true, "gamma_initializer": {"class_name": "Ones", "config": {}}, "center": true, "trainable": true, "gamma_regularizer": null, "moving_variance_initializer": {"class_name": "Ones", "config": {}}, "moving_mean_initializer": {"class_name": "Zeros", "config": {}}, "gamma_constraint": null, "axis": 1, "beta_initializer": {"class_name": "Zeros", "config": {}}, "name": "batch_normalization_3"}, "name": "batch_normalization_3", "inbound_nodes": [[["conv1d_3", 0, 0, {}]]]}, {"class_name": "Add", "config": {"trainable": true, "name": "add_1"}, "name": "add_1", "inbound_nodes": [[["activation_1", 0, 0, {}], ["batch_normalization_3", 0, 0, {}]]]}, {"class_name": "Activation", "config": {"trainable": true, "activation": "relu", "name": "activation_3"}, "name": "activation_3", "inbound_nodes": [[["add_1", 0, 0, {}]]]}, {"class_name": "Conv1D", "config": {"kernel_regularizer": {"class_name": "L1L2", "config": {"l2": 9.999999747378752e-05, "l1": 0.0}}, "filters": 256, "bias_regularizer": null, "bias_constraint": null, "bias_initializer": {"class_name": "Zeros", "config": {}}, "padding": "same", "dilation_rate": [1], "kernel_initializer": {"class_name": "VarianceScaling", "config": {"distribution": "uniform", "scale": 1.0, "mode": "fan_avg", "seed": null}}, "kernel_size": [3], "strides": [1], "kernel_constraint": null, "trainable": true, "activation": "linear", "name": "conv1d_4", "activity_regularizer": null, "use_bias": true}, "name": "conv1d_4", "inbound_nodes": [[["activation_3", 0, 0, {}]]]}, {"class_name": "BatchNormalization", "config": {"epsilon": 0.001, "beta_regularizer": null, "beta_constraint": null, "momentum": 0.99, "scale": true, "gamma_initializer": {"class_name": "Ones", "config": {}}, "center": true, "trainable": true, "gamma_regularizer": null, "moving_variance_initializer": {"class_name": "Ones", "config": {}}, "moving_mean_initializer": {"class_name": "Zeros", "config": {}}, "gamma_constraint": null, "axis": 1, "beta_initializer": {"class_name": "Zeros", "config": {}}, "name": "batch_normalization_4"}, "name": "batch_normalization_4", "inbound_nodes": [[["conv1d_4", 0, 0, {}]]]}, {"class_name": "Activation", "config": {"trainable": true, "activation": "relu", "name": "activation_4"}, "name": "activation_4", "inbound_nodes": [[["batch_normalization_4", 0, 0, {}]]]}, {"class_name": "Conv1D", "config": {"kernel_regularizer": {"class_name": "L1L2", "config": {"l2": 9.999999747378752e-05, "l1": 0.0}}, "filters": 256, "bias_regularizer": null, "bias_constraint": null, "bias_initializer": {"class_name": "Zeros", "config": {}}, "padding": "same", "dilation_rate": [1], "kernel_initializer": {"class_name": "VarianceScaling", "config": {"distribution": "uniform", "scale": 1.0, "mode": "fan_avg", "seed": null}}, "kernel_size": [3], "strides": [1], "kernel_constraint": null, "trainable": true, "activation": "linear", "name": "conv1d_5", "activity_regularizer": null, "use_bias": true}, "name": "conv1d_5", "inbound_nodes": [[["activation_4", 0, 0, {}]]]}, {"class_name": "BatchNormalization", "config": {"epsilon": 0.001, "beta_regularizer": null, "beta_constraint": null, "momentum": 0.99, "scale": true, "gamma_initializer": {"class_name": "Ones", "config": {}}, "center": true, "trainable": true, "gamma_regularizer": null, "moving_variance_initializer": {"class_name": "Ones", "config": {}}, "moving_mean_initializer": {"class_name": "Zeros", "config": {}}, "gamma_constraint": null, "axis": 1, "beta_initializer": {"class_name": "Zeros", "config": {}}, "name": "batch_normalization_5"}, "name": "batch_normalization_5", "inbound_nodes": [[["conv1d_5", 0, 0, {}]]]}, {"class_name": "Add", "config": {"trainable": true, "name": "add_2"}, "name": "add_2", "inbound_nodes": [[["activation_3", 0, 0, {}], ["batch_normalization_5", 0, 0, {}]]]}, {"class_name": "Activation", "config": {"trainable": true, "activation": "relu", "name": "activation_5"}, "name": "activation_5", "inbound_nodes": [[["add_2", 0, 0, {}]]]}, {"class_name": "Conv1D", "config": {"kernel_regularizer": {"class_name": "L1L2", "config": {"l2": 9.999999747378752e-05, "l1": 0.0}}, "filters": 1, "bias_regularizer": null, "bias_constraint": null, "bias_initializer": {"class_name": "Zeros", "config": {}}, "padding": "valid", "dilation_rate": [1], "kernel_initializer": {"class_name": "VarianceScaling", "config": {"distribution": "uniform", "scale": 1.0, "mode": "fan_avg", "seed": null}}, "kernel_size": [1], "strides": [1], "kernel_constraint": null, "trainable": true, "activation": "linear", "name": "conv1d_7", "activity_regularizer": null, "use_bias": true}, "name": "conv1d_7", "inbound_nodes": [[["activation_5", 0, 0, {}]]]}, {"class_name": "Conv1D", "config": {"kernel_regularizer": {"class_name": "L1L2", "config": {"l2": 9.999999747378752e-05, "l1": 0.0}}, "filters": 2, "bias_regularizer": null, "bias_constraint": null, "bias_initializer": {"class_name": "Zeros", "config": {}}, "padding": "valid", "dilation_rate": [1], "kernel_initializer": {"class_name": "VarianceScaling", "config": {"distribution": "uniform", "scale": 1.0, "mode": "fan_avg", "seed": null}}, "kernel_size": [1], "strides": [1], "kernel_constraint": null, "trainable": true, "activation": "linear", "name": "conv1d_6", "activity_regularizer": null, "use_bias": true}, "name": "conv1d_6", "inbound_nodes": [[["activation_5", 0, 0, {}]]]}, {"class_name": "BatchNormalization", "config": {"epsilon": 0.001, "beta_regularizer": null, "beta_constraint": null, "momentum": 0.99, "scale": true, "gamma_initializer": {"class_name": "Ones", "config": {}}, "center": true, "trainable": true, "gamma_regularizer": null, "moving_variance_initializer": {"class_name": "Ones", "config": {}}, "moving_mean_initializer": {"class_name": "Zeros", "config": {}}, "gamma_constraint": null, "axis": 1, "beta_initializer": {"class_name": "Zeros", "config": {}}, "name": "batch_normalization_7"}, "name": "batch_normalization_7", "inbound_nodes": [[["conv1d_7", 0, 0, {}]]]}, {"class_name": "BatchNormalization", "config": {"epsilon": 0.001, "beta_regularizer": null, "beta_constraint": null, "momentum": 0.99, "scale": true, "gamma_initializer": {"class_name": "Ones", "config": {}}, "center": true, "trainable": true, "gamma_regularizer": null, "moving_variance_initializer": {"class_name": "Ones", "config": {}}, "moving_mean_initializer": {"class_name": "Zeros", "config": {}}, "gamma_constraint": null, "axis": 1, "beta_initializer": {"class_name": "Zeros", "config": {}}, "name": "batch_normalization_6"}, "name": "batch_normalization_6", "inbound_nodes": [[["conv1d_6", 0, 0, {}]]]}, {"class_name": "Activation", "config": {"trainable": true, "activation": "relu", "name": "activation_7"}, "name": "activation_7", "inbound_nodes": [[["batch_normalization_7", 0, 0, {}]]]}, {"class_name": "Activation", "config": {"trainable": true, "activation": "relu", "name": "activation_6"}, "name": "activation_6", "inbound_nodes": [[["batch_normalization_6", 0, 0, {}]]]}, {"class_name": "Flatten", "config": {"trainable": true, "name": "flatten_2"}, "name": "flatten_2", "inbound_nodes": [[["activation_7", 0, 0, {}]]]}, {"class_name": "Flatten", "config": {"trainable": true, "name": "flatten_1"}, "name": "flatten_1", "inbound_nodes": [[["activation_6", 0, 0, {}]]]}, {"class_name": "Dense", "config": {"kernel_regularizer": {"class_name": "L1L2", "config": {"l2": 9.999999747378752e-05, "l1": 0.0}}, "units": 256, "bias_regularizer": null, "bias_constraint": null, "bias_initializer": {"class_name": "Zeros", "config": {}}, "kernel_initializer": {"class_name": "VarianceScaling", "config": {"distribution": "uniform", "scale": 1.0, "mode": "fan_avg", "seed": null}}, "kernel_constraint": null, "trainable": true, "activation": "relu", "name": "dense_1", "activity_regularizer": null, "use_bias": true}, "name": "dense_1", "inbound_nodes": [[["flatten_2", 0, 0, {}]]]}, {"class_name": "Dense", "config": {"kernel_regularizer": {"class_name": "L1L2", "config": {"l2": 9.999999747378752e-05, "l1": 0.0}}, "units": 7, "bias_regularizer": null, "bias_constraint": null, "bias_initializer": {"class_name": "Zeros", "config": {}}, "kernel_initializer": {"class_name": "VarianceScaling", "config": {"distribution": "uniform", "scale": 1.0, "mode": "fan_avg", "seed": null}}, "kernel_constraint": null, "trainable": true, "activation": "softmax", "name": "policy_out", "activity_regularizer": null, "use_bias": true}, "name": "policy_out", "inbound_nodes": [[["flatten_1", 0, 0, {}]]]}, {"class_name": "Dense", "config": {"kernel_regularizer": {"class_name": "L1L2", "config": {"l2": 9.999999747378752e-05, "l1": 0.0}}, "units": 1, "bias_regularizer": null, "bias_constraint": null, "bias_initializer": {"class_name": "Zeros", "config": {}}, "kernel_initializer": {"class_name": "VarianceScaling", "config": {"distribution": "uniform", "scale": 1.0, "mode": "fan_avg", "seed": null}}, "kernel_constraint": null, "trainable": true, "activation": "tanh", "name": "value_out", "activity_regularizer": null, "use_bias": true}, "name": "value_out", "inbound_nodes": [[["dense_1", 0, 0, {}]]]}], "name": "animation_model", "output_layers": [["policy_out", 0, 0], ["value_out", 0, 0]], "input_layers": [["input_1", 0, 0]]}